NodeRegression/temp_state_dict64.pt (torch, 41284 bytes, 9 tensors)

lstm.weight_ih_l0 f4 [100, 7]
00000000: eca4 2b3e 8c50 b9bd dd75 c9bd 589b 8b3d
00000010: 5702 13bc bce4 2ebe 88f0 193f cc94 01be
00000020: c467 623c 95f4 f83d fde6 b6bb 87d4 e3bc
00000030: 5a1c bf3d 57d2 0cbf 7ac7 1a3e b952 dcbd
00000040: 220c 3d3e 1774 bb3d ded3 173e 2242 5fbd
00000050: 2266 4dbf 1e05 603c 419e ba3d feee 01bc
00000060: 7c75 6e3d ead7 febd 9ba9 083d fcec 943e
00000070: df23 4b3d daf0 3b3e 88cb 4b3e df97 943b
00000080: 211e 33bd 97b4 d93d a147 483e e673 41be
00000090: 740d b43d 182b 1fbe 8e99 903c 7766 3f3e
000000a0: 051e dc3d b0e8 383f 7b6a b03d 0972 7d3d
000000b0: 1ffe b7bd 3eb0 543e a198 9bbd 3171 453e
000000c0: b029 0fbf c41d 16be 13bf 423e 1070 0e3e
000000d0: 972e 4bbe 664a 143e a68e 3f3e ba39 633e
000000e0: b5f4 62bd 89f3 413e e6e2 213d 5691 b53d
000000f0: 6470 49be b18e 8cbd d8bb 79bd 1f60 f3bc
00000100: efd8 373d b4eb 35be d80d f93c f51a 133e
00000110: 2fa4 c33d fc8f 85be eadf 23bc 9755 f53d
00000120: 59aa cf3d 56cf 83bc 4968 afbd 0923 143e
00000130: cf7a ae3e 2d24 16be 6752 8dbd 3ef0 e1bd
00000140: 9ac1 c13c 1396 ebbd 0d8f 623c 2dbf 25bf
00000150: 78c5 1bbe cede d73d 45dc d73d 2ed2 953d
00000160: 8b81 98bd 10e7 3cbd 8d58 ac3d 65d8 f63d
00000170: 9d76 bc3d c8a5 563d b487 e93d b135 453e
00000180: 808a 8bbd 0601 4dbf 4225 4ebe f346 4abe
00000190: 91da 0bbe 10af cbbd 1ebe ff3d d683 bd3c
000001a0: 2bbc 22bf 266f 7fbd ca7f 413e 099f 5fbd
000001b0: ef1f f63d d427 acbd 7c98 223e acaa e0be
000001c0: c3bf 5cbe 233b aa3d 3f83 25be e5f1 69bc
000001d0: 1de4 2cbe 5a89 75bd 06c9 0e3e c699 0ebd
000001e0: bd9c 9abd ef81 08be 46cf 01be 7a58 023e
000001f0: 37c9 273e 04e8 0bbf 92d5 183e 34fc 233c
00000200: af8d e53c 526e ad3d 8ea3 033d 5aa9 153e
00000210: d685 663f df24 463e cd6d 563e 20a3 833c
00000220: f890 fb3d 42b5 363e b037 b2bb 7f1a 4d3f
00000230: 7b7f a2bd 3489 4cbe b2e9 1e3e 906e dc3d
00000240: 349c 12bd acaa e1bc ab79 d63e 1894 183e
00000250: f31a 5ebd e918 313e 0bfb ba3b 971c 56bd
00000260: 99cd 52be 4b61 823e e7af 923c 2f5f 2a3e
00000270: 2dfe 00be 4670 3f3e 3474 dd3d 217d 15be
00000280: 03b4 2e3e bc02 913d 49a3 9abc 88e5 15be
00000290: 02d3 87bd f10c 2dbe cb13 b9bd 8540 813e
000002a0: 2f13 cdbd 32d3 2b3e 917e 7b3e 95ed e0bd
000002b0: 2cad 693e f290 2a3e 217c 74bf fa4c 7f3c
000002c0: b7eb 8fbc ed22 00be 03e8 9f3c 8676 ca3d
000002d0: 3b0c 29bd 837f ea3e da60 bdbd 886c 32be
000002e0: a90f 09bd 4945 1fbe 557a 26bc 6720 013e
000002f0: 110b dabe 4e79 b03d 08de 213e df86 313d
00000300: ca20 663d 0848 373e f700 d8bc c10a 04bf
00000310: aeb7 92bd a471 e1bd d78f c9bd 884c 2d3e
00000320: 1f52 93bd 26f0 29be 3e36 db3e 3910 743d
00000330: 3b96 4c3d aec8 1cbc 08b7 543e 9473 b8bd
00000340: 4492 413e 045b 623e 8371 d83d 71fd 0bbe
00000350: d84f 87bc ecc1 4ebe cf29 3bbe 0b2e 28be
00000360: 9024 043f d144 acbc 1565 30be dd3e cb3d
00000370: f7db 4fbe f0aa 0a3e 12ed d13d ac71 c4be
00000380: 5f59 ec3d 4fb0 d5bc 8526 173e 7542 f33c
00000390: fc81 1f3e bce6 9f3d 5835 653e 0696 823d
000003a0: 332e 0b3c cbd7 f6bd 2aa5 133e 17bb ea3d
000003b0: 5dd3 eabb edc1 e03d 4241 ff3c 0301 7bbc
000003c0: ae5d 893c eed8 bc3d 6559 bf3d 314c 963b
000003d0: 40fc 1fbe ec6e 14be 2890 093b 257d 563d
000003e0: 66fa ed3d 4f89 1f3c e1a7 b4bb db70 763c
000003f0: 08f3 c9bd 4ee8 86bd 4c4e b13d 4b1c 5dbd
0.16762131 -0.09048566 -0.09836934 0.06816739 -0.008972726 -0.17079443 0.60132647 -0.12654418
0.013818685 0.12156025 -0.005581735 -0.027811302 0.093315795 -0.55008453 0.15115157 -0.107579656
0.1846166 0.09153002 0.14826915 -0.05450643 -0.8023397 0.013673095 0.09112216 -0.007930515
0.05821751 -0.12443526 0.033364873 0.29087055 0.049594756 0.18353596 0.1990186 0.004534706
-0.043729905 0.10630148 0.19558574 -0.18891868 0.087916285 -0.15543783 0.017651346 0.18691431
0.10747913 0.7223005 0.086140595 0.06187633 -0.089840166 0.20770356 -0.07597471 0.1928146
-0.55922985 -0.14659792 0.19018202 0.13909936 -0.19841991 0.14481506 0.1870676 0.2218999
-0.055409152 0.18940558 0.039523028 0.08865611 -0.1967178 -0.06863154 -0.060970157 -0.02970892
0.04488462 -0.17765695 0.030402109 0.14365752 0.095528 -0.26086414 -0.010002116 0.119792156
0.10139913 -0.016090076 -0.08564813 0.1446649 0.3407807 -0.14662237 -0.069004826 -0.11032151
0.023651887 -0.11503234 0.013828051 -0.64744836 -0.15212047 0.105405435 0.1054006 0.07315479
-0.07446583 -0.046118796 0.08415327 0.12052993 0.09202311 0.052404195 0.114028364 0.19258763
-0.06813526 -0.80079687 -0.201314 -0.19753627 -0.13657595 -0.099455 0.12487434 0.023134153
-0.6356837 -0.06236186 0.18896404 -0.054595027 0.120178096 -0.08406034 0.1587848 -0.43880212
-0.21557526 0.08312061 -0.16163348 -0.014278864 -0.16883893 -0.05994544 0.13943872 -0.03481462
-0.07549427 -0.13330816 -0.12676725 0.12729064 0.16385351 -0.546509 0.1492522 0.01000886
0.028021662 0.084683076 0.0321384 0.14615384 0.9004797 0.19350003 0.20940323 0.016068995
0.1228351 0.17842582 -0.0054387674 0.80118555 -0.07934471 -0.19974214 0.15518835 0.107632756
-0.0357935 -0.027547203 0.418897 0.14900243 -0.05422492 0.17294659 0.005706196 -0.05227336
-0.20586242 0.25464854 0.017906142 0.16637872 -0.1259696 0.18695173 0.108131796 -0.14598514
0.17060857 0.070806 -0.018876689 -0.1463834 -0.066320434 -0.16899468 -0.09036978 0.25244537
-0.100134246 0.16779783 0.2456 -0.10982815 0.22819966 0.16656855 -0.95501906 0.0155823175
-0.017568452 -0.12513323 0.019519811 0.09885888 -0.04127143 0.4580041 -0.092469886 -0.17424214
-0.0334622 -0.15553774 -0.010161002 0.12610017 -0.42586568 0.08616887 0.15807354 0.043341514
0.056183614 0.17898571 -0.026367648 -0.5157891 -0.0716394 -0.11008003 -0.098418884 0.16923726
-0.07193398 -0.16595516 0.4281482 0.059585784 0.04994796 -0.00956933 0.20772946 -0.0900642
0.18903452 0.22105032 0.10568526 -0.13670899 -0.016517565 -0.20191163 -0.18277667 -0.16423814
0.5161829 -0.021028908 -0.1722606 0.099240996 -0.20298754 0.1354177 0.10250296 -0.38367975
0.11540484 -0.026085047 0.14760788 0.029694775 0.15576929 0.07807681 0.2238363 0.06376271
0.0084949015 -0.12052878 0.14418474 0.11461466 -0.0071663097 0.109744884 0.031159047 -0.015320065
0.016768303 0.092210636 0.093432225 0.0045867194 -0.1562357 -0.14495438 0.0020990465 0.05236544
0.11620025 0.009737327 -0.005513177 0.015041555 -0.09860808 -0.06587277 0.08657512 -0.05398206

lstm.weight_hh_l0 f4 [100, 25]
00000000: e340 4b3e 4902 173e c5c3 23be 3f9b 0c3d
00000010: 44c3 debd 73c4 07be f2fc e73d bbda 4abe
00000020: f2e1 26be b6d1 69bd b024 a6bd 3694 1cbd
00000030: 4e71 0ebe ad72 5b3e 63eb 663e e5c7 21be
00000040: ee85 39bc b4d1 06be fd37 463e 118c eabd
00000050: f0a0 06be 0449 0d3e 993a 023e 2bf3 473c
00000060: 9b5c fbbd de0e 1cbe 8e89 b8bd 645e f1bd
00000070: 130d 41be 3bf4 b4bd 8fc3 3a3e 6e57 31be
00000080: ce3e 0cbe a473 2ebe 9d1a d4bd 8267 20be
00000090: cb16 973d 3d66 1c3d 8f34 3ebe 38e8 4ebe
000000a0: 4d06 ba3d a2fa 99bd e5a5 42bd fd6f 153d
000000b0: e5e7 c1bd b30b 303e a153 b8bd dc04 b03d
000000c0: 9950 87bb 6d90 41be 9470 c73c 8a23 debc
000000d0: 6439 983d 835a 493d e82c 2abe 6d58 c3bd
000000e0: eb66 0a3e a8dc 38bc 1efd 8c3b d168 38bd
000000f0: fd2d b23d ed7c 9f3c abc5 0fbe 771c c2bc
00000100: 33d5 133e a508 11be 2eac ce3d bddf fdbd
00000110: 5147 1bbd fac1 06be 19c4 7dbd d693 d7bc
00000120: e0ab 5d3e afbf 493e bf16 30be ef11 e4bd
00000130: f986 883d 35c3 0e3b 471b 0b3e ead7 75bd
00000140: e16e 59be d056 153e 8096 34be ab1b e23d
00000150: 6a25 213d eb93 39be f423 b53d 8c94 01bd
00000160: 9afe 2e3e e2c4 673d e4e0 24be 5649 4b3e
00000170: 158c 25be c1ae 123e c992 18be 0567 60bd
00000180: 93b6 863b 0d49 6a3d 827d ebbd 54e5 6d3e
00000190: c18f 40be 7eaf ecbd c3d0 173e a766 2abe
000001a0: 64f3 a73d cb15 273e 1b59 0b3e 88ae 75bd
000001b0: 76f8 0cbe 5a52 d8bc 1d58 e03c a57e bfbd
000001c0: d99e 903c b918 f63c d9b2 223e 8ebd 32be
000001d0: fc5b b53d c523 7e3d ce10 1c3e 4fc8 d8bd
000001e0: a7bd 273e 001c 0abe 79a6 ae3d 8e2c 26bb
000001f0: 4189 443d 3989 863d 281d d9bd f59f 113d
00000200: 5138 09be 9f91 d03d 6c73 d0bc 0fe4 843d
00000210: 408d 273e b70a 36bd 7922 5abd 2d53 3cbe
00000220: 0b01 263e 3f12 3ebe 4dce 243e 5f83 733e
00000230: e921 90bd 1f77 a83d 661d 873e 64bc 283e
00000240: 6215 9ebb 0d6c 553d eb66 edbd 75df 683d
00000250: 37ec 12be 0fe3 e03d 339f 233e f69b 1e3d
00000260: 70cb 323e 3821 37be facb c1bd cc22 2dbe
00000270: 3251 cb3b 7943 443e afad 12be 268d 3b3e
00000280: d452 0f3e 32ad 013e e29c ad3d 4f0a 5ebe
00000290: cf89 b33d 502c dfbd ebec a33d 8333 a7bd
000002a0: 3465 31be bf85 593e 7f53 933d eaec 7abc
000002b0: efca 593d 050a 6b3d 8fef 1d3e 63d2 3c3d
000002c0: 9326 6b3d 85e4 13be 548b c2bd f776 cb3d
000002d0: 44fc f3bd 6218 ccbc 3d7d 0fbe 2e00 13bd
000002e0: c243 85bd 3176 073e b21d 53bc be30 e1bd
000002f0: 9265 76bd 2523 483e f87f 3e3e 065a 253e
00000300: 42c7 e03d d1cd 173e 7d3a b6bb f052 02be
00000310: 6ffa 593d fea8 333d aae9 423e 81de 25be
00000320: 4673 b7bd 88d8 abbd f417 62bb ec29 b7bd
00000330: dcd7 13be e538 fcbd 2984 983c cd94 ab3c
00000340: 63b0 e8bd d20e 22be a0ed 503d 24a6 45bd
00000350: 627f 25be bfbf e8bd c15b d8bd 9436 f53c
00000360: 074c cd3d 1e78 9d3d 0c17 ad3d c2b3 57be
00000370: 00bd ae3d 2338 363e a451 323d 418f f1bc
00000380: 5459 04bd 4df8 1cbe 5603 39be e919 c93d
00000390: 4a04 e1bd d6e9 173e 1f7f 823c 4545 243e
000003a0: d6d3 c7bc b860 de3c 482c 0d3e 65ed 893d
000003b0: 582d 0fbe efc8 263d 233a ff3c 7749 653d
000003c0: 98a9 b63d 6e43 a23d 2cf8 3ebe 6787 b7bd
000003d0: 5b90 883c 64ad 36be 9411 21bd 385d 2b3d
000003e0: 487e aa3c ae97 d73c 5e9f 81bc 6fea 0fbd
000003f0: a6eb d1bc 4a9e 20be 38f5 f43d 7926 273e
0.19848971 0.14746965 -0.15992649 0.03432774 -0.10877088 -0.13258533 0.11327542 -0.19810002
-0.16297129 -0.05708476 -0.08112466 -0.038227282 -0.1391041 0.21430464 0.2255073 -0.1579891
-0.011323435 -0.13165933 0.19357295 -0.11452497 -0.1314733 0.13797385 0.12717666 0.012203972
-0.122735225 -0.15240046 -0.090106115 -0.11785582 -0.18852644 -0.08835646 0.18238662 -0.17318508
-0.13695833 -0.17036301 -0.103566386 -0.15664485 0.07377394 0.03818344 -0.18574737 -0.20205772
0.09083233 -0.075185075 -0.04752149 0.036483753 -0.094680585 0.17191963 -0.09000326 0.08594677
-0.004129481 -0.1890275 0.024345674 -0.027116556 0.074328214 0.049158584 -0.16618693 -0.0953835
0.13515823 -0.011283077 0.004302635 -0.045021836 0.08700178 0.019468749 -0.14040248 -0.023695214
0.14436798 -0.14163454 0.100914344 -0.1239619 -0.03790981 -0.13159934 -0.06195459 -0.02631561
0.21647596 0.19702028 -0.17196177 -0.11136233 0.06666369 0.0021783833 0.13584624 -0.060020365
-0.21233703 0.14583898 -0.17635536 0.110404335 0.03934232 -0.18122832 0.08844748 -0.031635806
0.1708931 0.056584246 -0.16101414 0.19852194 -0.16166718 0.14324476 -0.14899744 -0.054785747
0.00411112 0.057198573 -0.11498548 0.23232013 -0.18804838 -0.1155691 0.1482573 -0.16640721
0.0820072 0.16316907 0.1360821 -0.0599809 -0.13766655 -0.026406456 0.027385766 -0.093503274
0.01765387 0.030041086 0.15888537 -0.17455122 0.08855435 0.06204583 0.15240785 -0.10585081
0.1638094 -0.13487244 0.08527846 -0.0025356147 0.047982458 0.06569142 -0.10601264 0.035552938
-0.13400389 0.10184025 -0.025445662 0.06488811 0.16362476 -0.044443812 -0.053255532 -0.18391104
0.16211335 -0.18561648 0.16094323 0.23780583 -0.07037718 0.082258455 0.26389617 0.16478115
-0.0048243264 0.052105 -0.11591896 0.05685373 -0.14347921 0.10980808 0.15978698 0.038722955
0.17460418 -0.17883766 -0.094627336 -0.16907805 0.0062047476 0.19166364 -0.14324068 0.18315563
0.1399644 0.12663725 0.08477189 -0.2168362 0.08766519 -0.10897124 0.08004173 -0.08164122
-0.17323762 0.21242426 0.0719366 -0.015315274 0.05317205 0.057382602 0.15423416 0.046099078
0.057409834 -0.14442642 -0.09499231 0.099348 -0.1191335 -0.02491397 -0.14012618 -0.035888843
-0.065070644 0.1322868 -0.012885498 -0.10995625 -0.06015546 0.19544657 0.18603504 0.16147622
0.109755054 0.14824606 -0.0055611716 -0.1272695 0.053217348 0.043862335 0.19034448 -0.1619816
-0.089575335 -0.083909094 -0.003449914 -0.08943543 -0.14437813 -0.12315539 0.018617706 0.020944977
-0.11361768 -0.15825966 0.051007867 -0.048254147 -0.16161874 -0.11364698 -0.10564376 0.029933251
0.10024267 0.07688926 0.084516615 -0.21064666 0.08532143 0.17794852 0.04353489 -0.029487254
-0.032311752 -0.15329094 -0.18067679 0.09819395 -0.10987146 0.14835295 0.015929757 0.16042049
-0.024393003 0.027145728 0.13786423 0.067347325 -0.13982141 0.04071897 0.031155651 0.055978265
0.08919066 0.079230174 -0.18649358 -0.08961373 0.016670397 -0.17839581 -0.039323404 0.041836947
0.020812169 0.026317444 -0.015823063 -0.035135683 -0.025625061 -0.15685382 0.11960834 0.1632327

lstm.bias_ih_l0 f4 [100]
00000000: b7cf d5bd 430d 2abe 4122 423e 3f23 21be
00000010: 5560 e13d 3dff 02be 0c2d 00be 4008 c9bd
00000020: 6a00 2fbd 0dd7 9f3d 69c1 59be 4be9 5f3e
00000030: b0cb 3f3c 2b8b 4dbd 5e2f 123e d5aa bcbd
00000040: 36ea 633d 4d0d eb3d 01dd 103d f021 213e
00000050: 0a4f c9bc d2f2 1a3e 666f 613e 4ff4 b7bd
00000060: 8e2f 893d a609 073e 7876 fe3d fc4c c8bd
00000070: 9bff a3bd 4458 463e d6c0 5f3d 379e 333d
00000080: bf8f 16be c1a5 04be a0b7 41be 0297 973d
00000090: 7366 fc3c e508 c9bd 1b3a 673c 3d40 64bd
000000a0: 0940 9cbd 7b20 32be a1e6 033e 9993 603d
000000b0: 5ac9 69be b0c1 07be aa10 0b3e 92c0 b33a
000000c0: 090e bf3d bf3b c2bd b751 ebbd 0df7 e43c
000000d0: 5923 e83d 5be1 433e b17e 483e 3ffc 35be
000000e0: 3480 04be 2cf1 433e 46e0 063d 7604 653d
000000f0: 4263 14be e762 213e 7960 10bd 0ac2 35be
00000100: fc64 e23d 38d3 683d 2c88 313e 4bd1 393e
00000110: f686 15be 2270 043d 326c 6e3d 9c6d 6f3c
00000120: 92f2 f23d 0624 993d 47de 38bd 4bbf 333e
00000130: f7b1 2ebe 57f1 143e e541 a0bd 8726 1a3c
00000140: 1950 203d 4065 1e3e 85e4 d13b 7d0b 02be
00000150: 4577 c53d 49d1 0e3e ab94 a13d 2f4b 7fbd
00000160: 5f9d 42be 95e4 06bd f6a4 45be 10d2 90bd
00000170: 8c8a a7bd abe9 88bb 2df1 9a3d 699b aabd
00000180: 4ba3 b13d d0dd 303d 06ee 513e 70ad 0bbe
-0.10440009 -0.16606621 0.1895838 -0.15736102 0.11004702 -0.12792678 -0.12517184 -0.09816027
-0.042725004 0.078046896 -0.21265186 0.21866338 0.011706278 -0.05018155 0.14275882 -0.09212271
0.055643283 0.11477146 0.035367016 0.15735602 -0.024573822 0.15131691 0.22015151 -0.08982145
0.066985235 0.13187274 0.1242494 -0.097803086 -0.08007737 0.19369608 0.054627262 0.043852057
-0.14703272 -0.12953855 -0.18917704 0.07401849 0.03081057 -0.098161496 0.0141129745 -0.055725325
-0.07629401 -0.17395203 0.12880947 0.05482826 -0.22830716 -0.1325748 0.13580576 0.0013714007
0.09328849 -0.09484052 -0.11490195 0.027949834 0.11334867 0.19128935 0.19579579 -0.17772005
-0.1293953 0.19134969 0.032928728 0.055912457 -0.14490989 0.15760385 -0.035248253 -0.17749801
0.110544175 0.05684206 0.17337102 0.18146245 -0.14602265 0.0323335 0.05820865 0.014613535
0.11862673 0.07477574 -0.045133855 0.17553441 -0.17060076 0.14545189 -0.078250684 0.0094086
0.039138887 0.15468311 0.0064054155 -0.12699695 0.096418895 0.13947023 0.07889684 -0.06232756
-0.19005345 -0.032932837 -0.19301209 -0.07071316 -0.081807226 -0.004178246 0.07565532 -0.083304234
0.08673724 0.043180287 0.20500955 -0.1364038

lstm.bias_hh_l0 f4 [100]
00000000: e7ae a43d 836e 813d 9d8f d03c 4f32 12be
00000010: 8cd5 1c3c fee7 1fbe 6ded bcbd fd21 0d3d
00000020: 04c7 0b3d 51a5 903d 71d9 023e ef08 5b3e
00000030: 2c3c 0cbe dfb7 273e 0044 8ebd fb0c adbd
00000040: 50b4 8f3d b982 813c 9cab 663e 2461 6d3e
00000050: 3586 c6bd e457 4dbd a98a e2bd b752 03be
00000060: 6db8 02be 556f e43c bbe4 4bbd 039c a63c
00000070: 07f4 93bc 020e 1b3b ce33 b63d d262 3cbe
00000080: a9c4 013e 8954 e1bd 41d6 a73c 9eaf 07bd
00000090: b5f4 6c3c a03a 1cbd 24c0 0bbe ed22 3bbe
000000a0: 3985 1a3d 9335 72be 89ea 123b 1419 3dbe
000000b0: abd0 24be 1b92 75bd b5cc 173e e075 81bc
000000c0: c6f1 293d 2f55 c83c b752 b2bd 8fc0 163e
000000d0: 40a2 03be 4061 13bd b07a aa3d 8f17 113e
000000e0: 26fd 19bd 4797 73bd f671 383e 10d3 4dbd
000000f0: a9b9 56bd 6498 9c3d 38fb 923d 0323 e43d
00000100: e6de 2b3e 568a 2a3d 24cf 0a3e e065 c43d
00000110: 0804 1f3e 3d0f 133d 45d9 2d3e 4547 353e
00000120: c940 38be 13ac 08be da1a b2bd efe7 b1bd
00000130: b382 3dbd 7d92 f0bd 85f6 df3d c9b0 1dbe
00000140: d3ab ecbd 8a1a 243e 5bec 8a3d 2821 203d
00000150: 1a4e 1abd 1b25 05be e6ed f5bc 24aa 0f3e
00000160: 5ee8 e93d 9d0f 193e e797 7c3b 6649 b1ba
00000170: 3df1 3c3e 8f22 6bbd 4725 323e 8115 9a3d
00000180: 41ea 9e3d eb8b ddbd da6a 36be da5e fabd
0.080411725 0.063199066 0.025459105 -0.14277004 0.009572398 -0.15615842 -0.09224973 0.034456242
0.034125343 0.070627816 0.1277826 0.21390127 -0.13694829 0.16378735 -0.06946564 -0.084497415
0.07016814 0.015809404 0.22526401 0.23181587 -0.09693567 -0.050132647 -0.110616036 -0.12824522
-0.12765665 0.027885118 -0.04977868 0.020338064 -0.018060697 0.0023659472 0.088966 -0.18397072
0.12672676 -0.11002452 0.020487906 -0.033126466 0.01446264 -0.038141847 -0.13647515 -0.18275042
0.037724707 -0.2365325 0.0022417626 -0.18466598 -0.16095226 -0.05995379 0.14824183 -0.015803277
0.04149034 0.024454681 -0.08707183 0.14721893 -0.12854862 -0.035981417 0.08324182 0.14169143
-0.037594937 -0.05947044 0.18012223 -0.050250113 -0.052423153 0.07646254 0.071768224 0.111394905
0.16784248 0.041635834 0.1355558 0.095897436 0.15528882 0.035903204 0.16977413 0.17702968
-0.17993464 -0.13346891 -0.08696528 -0.08686816 -0.046267223 -0.117466904 0.10935692 -0.1539947
-0.1155621 0.16025749 0.067833625 0.03909412 -0.03767214 -0.13002436 -0.030020665 0.14029747
0.11421274 0.14947362 0.003854269 -0.0013525903 0.184514 -0.057406005 0.17397033 0.07523633
0.07759524 -0.10817703 -0.17814198 -0.12225123

regressor.0.weight f4 [64, 26]
00000000: fe5d 53be b593 2e3c 4433 913d 9dba e43d
00000010: 05a3 743d 90bd 62bd 3605 393c 12b0 4f3d
00000020: ba88 c63d d829 edbd 37d7 a33d 5a4f e43c
00000030: 2900 073e 59e5 cb3c a5f9 c13d 8560 683d
00000040: 4709 e3bd 19ce 08be d958 32bd b4bc 2b3e
00000050: e1f2 2f3e d178 203e 05d6 77bd dcd6 02be
00000060: 7122 4b3e 6280 f43a 7607 3cbd a9ad 073e
00000070: d2e4 c9bd 660d 923d 7490 39be 1845 b93b
00000080: faa6 173e eae4 52bd 84ad 36bd 657b c83d
00000090: f5d6 36bd 7d48 253e 1362 133e a4b3 3abe
000000a0: 2f1a f1ba 29ff 8b3d 6e42 c73d ef31 243c
000000b0: eda3 adbd 202f a23d 2c5d b5bd ab0a 133e
000000c0: 3615 3e3e 00f9 583d 9ff8 80bd 45c3 0b3d
000000d0: 2e36 e6bd 58ac 093d 3d84 24bd 1525 83bd
000000e0: 54d3 293e 2b01 c9bd 6a82 0d3e 0f8f e43b
000000f0: 641f 36bd 4425 8cbd 57a6 7dbd 7f11 0cbe
00000100: 3b49 06be 112c 11bd fa2d 70bc 76ed 05be
00000110: be7e 06b7 2ccb 493c 9b2f dabd 6bf1 553e
00000120: 0d0e c4bd 979f 9f3c 2e9f 02be 97bf aa3d
00000130: 30b8 8cbd d09a 29bd 1b7a 0d3e c600 0b3e
00000140: 453d 9e3d 29d3 32be 0021 0a3e 6eae eabd
00000150: c182 eabd 1b47 983d 1736 0fbe 6b2c 16be
00000160: 8140 303d 945a 5f3d 0487 d83d 9b18 7dbd
00000170: 8625 e8bd 065b a43d d30f 25be a9b4 2bbe
00000180: 595a c73c eca0 203d 5c89 393e 7259 023e
00000190: 1dcf 553e ad3e 3dbe 64f2 2a3e 4b52 06bd
000001a0: 7f78 d03d 69f9 f03c 495d 253d ebc3 15bb
000001b0: 0610 eabd 0871 45be ff25 bbbd f3ed 033e
000001c0: f387 28be be6d c83d 8e0a e23d 9a2b 60bd
000001d0: ed96 43bd b950 fe3d 6630 203e ce42 9abd
000001e0: 2cb2 a13d 60cc eb3d 8bd7 c73c 1ddb 1f3e
000001f0: 8e99 3bbd 2ac1 353e 9874 373d dc1a f83c
00000200: 555a d5bd 1b80 bfbd 3111 0f3c 8794 85bd
00000210: f3bd 21be f612 81bd eace 883c fd2a ca3d
00000220: 3876 1bbe c06b c2bd 7552 923b 5904 e03d
00000230: 4eda 0a3e 8e19 18be 8066 0a3e 0bf2 173e
00000240: bf35 153e 6596 113d 3b40 963d 0b92 4cbe
00000250: fc61 7a3d 2a18 a4bd 2f97 01bb 40b7 3d3c
00000260: 7b28 ec3d acaf 3dbe 55fe b53d f462 b0bc
00000270: b7ff 5abc 9396 9d3d af21 7ebd c3fb f33d
00000280: 518e 173d bc2a 2e3e 4026 1bbd 7a11 883d
00000290: bdf3 3fba 74c7 2a3d cc95 093e 4f10 4bbe
000002a0: 6337 b33b 595a 0dbe e35d 9dbd 4b55 4d3e
000002b0: d874 4abe 0674 823c ebd6 643d 220c 823d
000002c0: 9683 89bd ce16 38be 1e7e 873c 14bd 56be
000002d0: 163c ae3c 6ae3 083d e342 ffbd d850 f53d
000002e0: 6ef3 01be 50e9 26be 2e44 153e e155 cbbd
000002f0: 2544 39be 04bd ab3b 49f4 353e 4eb9 bdba
00000300: 833a 28bd 6144 4a3d 4e32 ee3d f65f 97bd
00000310: 3032 34bd 8bf1 033d a8bc 163c 536a 89ba
00000320: eefa 2fbe fa29 983c 6e39 4e3e df71 163e
00000330: 096f 93bd d9c3 28be 2867 fcbc 3404 a63d
00000340: 730b 033d 336f 04be 148e 04bd 63d9 b63d
00000350: 9cfb dcbd 4d40 aebd ebdd f1bd bc3d 953d
00000360: c7e1 bdbd 7ccc 1bbe eea2 073e dd58 3dbe
00000370: ccba 22be 86e0 a4bd 0534 36bc 3659 d43d
00000380: 8923 87bb e4b8 6f3c eba7 f4bd ca6b 5d3d
00000390: 045a 9fbd 127a 03be 4780 423e 3f08 af3d
000003a0: 6df0 94bb 40c6 a93b ef76 09be c6cb 373e
000003b0: e553 86bc 4e5e 1e3e f298 8d3d a7f1 283d
000003c0: d0fc 2ebe ed5c 453d 2d84 893c e88a 1fbe
000003d0: 6e81 1b3e 40b7 1b3d 0087 813b d1eb 10be
000003e0: dac3 1fbd bf71 09bd 18c7 e33d 6f2c d1bb
000003f0: 8da2 c33d 97ad ab3d 89b6 1e3d 953a f83c
-0.20641324 0.010655333 0.07089856 0.11168406 0.05972578 -0.055356562 0.011292746 0.050705023
0.09694047 -0.11580247 0.08000033 0.027869869 0.13183655 0.024889635 0.09471444 0.056732673
-0.11085754 -0.1335987 -0.043541763 0.16771203 0.17182495 0.15671088 -0.06050684 -0.12777275
0.19837357 0.0018653984 -0.045905553 0.1324984 -0.09858097 0.07131462 -0.1812151 0.0056539886
0.1480979 -0.05148784 -0.04459907 0.09789161 -0.044638593 0.16140933 0.14392881 -0.1823259
-0.0018394644 0.06835777 0.09729467 0.010021671 -0.08478532 0.07919145 -0.08855662 0.14359538
0.18562779 0.05297184 -0.06297421 0.03412177 -0.11240803 0.033611625 -0.040165175 -0.06403557
0.16584522 -0.09814676 0.1381928 0.0069750617 -0.04446353 -0.06843045 -0.061926212 -0.13678549
-0.13113873 -0.035442416 -0.014659399 -0.13078865 -8.016532e-06 0.012316506 -0.10653611 0.20892875
-0.095729925 0.019485278 -0.12756035 0.08337324 -0.068710685 -0.041407406 0.13816111 0.13574514
0.0772653 -0.17463364 0.13489151 -0.11459051 -0.114507206 0.07435437 -0.13985477 -0.14665382
0.043030266 0.05452974 0.10572627 -0.061791044 -0.11335282 0.08025174 -0.16119318 -0.16768135
0.024335073 0.039215967 0.18118805 0.12729433 0.20879789 -0.1848094 0.16694027 -0.032793324
0.10179233 0.029415803 0.040372167 -0.0022852372 -0.114288375 -0.19281399 -0.091381066 0.12883739
-0.1645811 0.09786557 0.110371694 -0.05472908 -0.047751356 0.124177404 0.15643463 -0.07532273
0.07895312 0.11513591 0.024394771 0.15610929 -0.045800738 0.17749467 0.044788927 0.030286245
-0.1041762 -0.09350606 0.008732126 -0.0652247 -0.15795116 -0.06302445 0.016700227 0.098714806
-0.15181816 -0.09493208 0.004465396 0.10938329 0.13559839 -0.14853498 0.13515663 0.14838426
0.14571284 0.035543818 0.0733647 -0.19977586 0.0611286 -0.080124214 -0.001977395 0.011579335
0.115311585 -0.18524045 0.088864006 -0.02153156 -0.013366631 0.076947354 -0.062043842 0.11913254
0.037000958 0.1700849 -0.037878275 0.066439584 -0.00073223916 0.04169412 0.13436049 -0.1983044
0.005469249 -0.13803996 -0.07683923 0.20052068 -0.19771135 0.015924465 0.055869024 0.063499704
-0.06714551 -0.1797745 0.01653963 -0.20970565 0.021268886 0.033420004 -0.124639295 0.1197831
-0.12690517 -0.16299939 0.1457679 -0.099284895 -0.18092401 0.0052410383 0.17768969 -0.0014474781
-0.041071426 0.049381617 0.116306886 -0.0739135 -0.043993175 0.032212775 0.009200253 -0.0010483958
-0.17185566 0.018574703 0.20139095 0.14691876 -0.07198913 -0.1648096 -0.030810907 0.081062704
0.03199334 -0.12933044 -0.03236206 0.08928182 -0.10790178 -0.08508358 -0.118099056 0.072871655
-0.09271579 -0.15214723 0.13245746 -0.1849093 -0.1589157 -0.08050637 -0.011120801 0.10368578
-0.004124109 0.014631484 -0.1194609 0.054057874 -0.07780841 -0.12839535 0.18994246 0.08546495
-0.0045452625 0.005181104 -0.13424276 0.17948827 -0.016397426 0.15465662 0.06913938 0.041246083
-0.17088628 0.048184324 0.01678666 -0.15580332 0.15186092 0.038016558 0.003952861 -0.14152457
-0.039005138 -0.033555742 0.111219585 -0.0063834707 0.095524885 0.08382719 0.038748298 0.030301372

regressor.0.bias f4 [64]
00000000: 8a6f 6ebd 0b9b 0f3e 6a8b ee3d ebad 4c3e
00000010: a096 3dbe 198c 283e af7f b33d 19fd 453e
00000020: bd61 8abc 8e4f 333e bea4 f03d 2ebf 53bc
00000030: 677a ddbd b4ee 0a3e 8d1b 1a3e 382d 393e
00000040: 0860 093c d791 8e3d c21c b4bc 71d4 043e
00000050: 7682 383d 24cf cfbc 9f6c 123e 2108 67bd
00000060: 13b8 073e f423 ecbd 4549 9a3d ab88 dfbd
00000070: 7872 613b 1294 713d e429 0cbe 9fdb de3d
00000080: a144 01be acc6 0b3d 9a10 c13b c269 03be
00000090: 40f2 35be aac8 0dbe 4711 3f3e 2bf3 0ebe
000000a0: c117 29be cc34 d9bd b188 263e f067 a53d
000000b0: bd9a 00bd d440 6e3d 2b7b 33be b4b6 35be
000000c0: 1c13 28be ac00 fe3c 9e4b 67bd bf4c 6abc
000000d0: 074c c8bc 27c3 ab3d 0b70 87bc ea94 a1bd
000000e0: be31 2abd 423f 22be 836a a4bd 2668 913d
000000f0: ab3b 1d3e 9ac3 1d3e 9f45 cdbd 18dd a83d
-0.05821184 0.14023988 0.11647685 0.1998822 -0.1851449 0.16459693 0.08764588 0.1933483
-0.016892308 0.17510816 0.11750172 -0.012923999 -0.10814362 0.1356762 0.15049572 0.18083656
0.008384712 0.069614105 -0.021986369 0.12971665 0.045046292 -0.025367327 0.14299248 -0.056404237
0.13253812 -0.11530295 0.07533506 -0.10914739 0.0034400504 0.0589791 -0.13687855 0.10881733
-0.12623836 0.034125015 0.0058918716 -0.12833312 -0.17768192 -0.13846079 0.18658935 -0.13959949
-0.16512968 -0.10605773 0.16263081 0.08076465 -0.03139757 0.058167294 -0.17527454 -0.17745477
-0.1641354 0.03100618 -0.0564686 -0.014300524 -0.024450315 0.08386832 -0.016532918 -0.07889731
-0.041551344 -0.15844443 -0.08028128 0.07099943 0.15354793 0.15406647 -0.10023045 0.08245295

regressor.2.weight f4 [64, 64]
00000000: a4e2 a73d d4d5 323d acc0 4cbd f05d 62bc
00000010: 82dd bb3d c6ba 8e3d b031 6c3c 0228 b63d
00000020: 2079 31bd 1a10 febd c0e4 75bd 70f4 843c
00000030: e61a b7bd 54ee 7dbd 64b5 043d 6c55 003d
00000040: 642a bbbd 9c3d f9bd eac0 c8bd 7a73 823d
00000050: 1669 a63d 6875 87bc 700b 0c3c d0ad 5c3c
00000060: 2011 28bc 5efe fdbd 4687 f1bd 0c82 ffbd
00000070: e855 30bd ded6 e03d e0cd b3bd cc3a ed3d
00000080: 5012 b93d 04d1 eb3d 6090 613d c8ea ea3c
00000090: baa1 ad3d c61b 8f3d a8be f7bc 204c bb3d
000000a0: 68b8 623d 90eb 6abd 40f1 fa3d acf2 e3bd
000000b0: d221 b63d b4f0 87bd 0043 54bb c6f4 cebd
000000c0: 48bc d3bd 005d 56bc 1098 163c 5698 b33d
000000d0: 4849 5f3d 00e6 ae3a 3cd3 c63d 40f8 f2bc
000000e0: acf1 803d 40ae b53d b23b fa3d f2d5 f3bd
000000f0: c469 d4bd b065 273d 0e13 a23d 9879 c33c
00000100: 39ea bfbc 8c15 7a3d 6470 6f3d a0c8 433d
00000110: 1e56 f6bd 2a4b debd fdd8 533d e08f 14bd
00000120: 425a b8bc 305f 39bd fdb8 5e3d e1b1 c5bd
00000130: c013 233d 615e 1fbd fac3 d8bd 545f 23bd
00000140: 07b3 dabd 0e12 1dbd 43c9 c13d 7b63 823d
00000150: e318 8e3e ac17 e1bc 100e b4bb 8d91 013e
00000160: d140 ae3d 9c6c 783d 497d df3d e060 ba3d
00000170: 335e e8bd 6746 e0bd c86c fa3d 5fb8 323d
00000180: 92ba dabd 9096 46bd 1eed cebd 3da2 4bbd
00000190: e87b a3bd 00b2 bbba 4191 f7bc d445 763d
000001a0: 3c4d cd3d 50a2 83bd 55c2 1ebd 7771 99bd
000001b0: 5abd b5bd e448 513d a229 a83d 800b 3b3d
000001c0: acde dd3d 7300 473c 3d58 d0bd a0b4 043c
000001d0: 3581 163d 9b26 00bc cfac 4cbd b22a f03d
000001e0: 5f1a d3bd 6628 f33d 651b 4bbb 932a 813e
000001f0: 4d3d e63d d785 f5bd 2479 833d a3d5 183e
00000200: 7a1e a6bd 02d8 c83d b8c3 d63c eaa9 e0bd
00000210: 78c7 ef3d 30a2 213d e476 f1bd cecc f6bd
00000220: b09b 813c a0bf 92bb 5a70 b63d 60d6 50bd
00000230: 98a0 663d 3855 c9bd 9c51 54bd 2c5f 9dbd
00000240: 0031 e3bb e84d d0bd ec43 763d ce1c f6bd
00000250: ec9d f93d ac40 4a3d 54b7 303d 947e 4c3d
00000260: 1248 c5bd 7e9b 96bd f20c 963d 3c96 ad3d
00000270: 184c b23c 200e aa3b 7c36 d93d f44d d1bd
00000280: 6661 903d 9c2d c5bd 00b8 d4bd 50ac d5bc
00000290: 6607 d93d daf7 c9bd d012 38bd 543f d4bd
000002a0: d84c c13d 98b6 fa3d ea1f aa3d 5013 863d
000002b0: d837 ca3d 24e7 a8bd 9064 ccbd 4a88 9d3d
000002c0: dac4 bfbd 880d 6c3d 98cd 5c3d 947b c03d
000002d0: a0cc ed3c 00b9 283d a2ca 84bd bc7d 8cbd
000002e0: 7032 09bc 20c9 e03b c89d 5bbd a48c 0f3d
000002f0: 9ad7 a13d f49e a33d 3cb2 a83d 5017 87bd
00000300: 50d4 b93c 305f c73d 527c 8d3d e410 08bd
00000310: 00b4 c63a c817 fcbd 0a60 87bd f888 033d
00000320: 1c94 72bd d2fc d5bd 30f9 12bd 80b5 b4ba
00000330: d080 02bc 8096 a4bc b411 04bd 1e38 87bd
00000340: 2c33 1fbd 60d6 4abc e8a3 4bbd 0a4c 943d
00000350: 60ed cc3b 988d 1f3d c81a 443d 18d6 88bd
00000360: bc23 c9bd f410 83bd 141c 3c3d b06c aa3d
00000370: 3853 5e3d 9c8f 3b3d 2899 1cbd a605 813d
00000380: 6097 45bd 263c f7bd e069 4ebc 0022 ea3a
00000390: 84d3 dfbd d054 c63d 8ae6 e93d 80cd 47bb
000003a0: a097 883c c050 323b 0c92 dabd 64ee e9bd
000003b0: f08a b93c 8491 2dbd c674 a1bd 4001 7fbd
000003c0: 68ec f4bd 1ad7 dfbd d8ee 8f3d f4d3 8cbd
000003d0: 007f 903d 2c98 b13d 106c 133d 900b 77bc
000003e0: 8061 c4bd a098 febb 2490 f93d 4e9b e1bd
000003f0: 5e7a 92bd e852 bc3d 5011 34bd 2658 b23d
0.08197525 0.043660954 -0.049988434 -0.013816342 0.09173109 0.06969218 0.014416143 0.0889435
-0.043328404 -0.12405415 -0.060032606 0.016229838 -0.08940677 -0.061994866 0.03239955 0.031331465
-0.09138945 -0.12169954 -0.098024204 0.06369682 0.08125512 -0.016535476 0.008547649 0.0134691745
-0.010257989 -0.12402032 -0.117933795 -0.12475976 -0.043050677 0.10978483 -0.08779502 0.1158348
0.09036696 0.11514476 0.055069327 0.028676406 0.084781125 0.06987719 -0.03024228 0.09145379
0.055351645 -0.057353556 0.12253046 -0.1113027 0.088931695 -0.06637707 -0.0032388568 -0.101052806
-0.10338646 -0.013083696 0.009191528 0.0876929 0.054513246 0.0013343692 0.097082585 -0.02965939
0.06296095 0.08871126 0.12218417 -0.11906041 -0.10371736 0.04086846 0.07913791 0.023861691
-0.023427116 0.061055705 0.058456793 0.047798753 -0.12028144 -0.1085418 0.051720608 -0.036270022
-0.022503976 -0.045256793 0.054375637 -0.09653068 0.039813757 -0.038908366 -0.105842546 -0.039885834
-0.10678678 -0.038347296 0.09462216 0.06366631 0.27753362 -0.027477108 -0.0054948404 0.1265318
0.085084565 0.060650453 0.10912568 0.09100509 -0.11346092 -0.10950928 0.122277796 0.04363286
-0.10680117 -0.04848343 -0.1010382 -0.04971527 -0.079826176 -0.0014320016 -0.03022063 0.060125187
0.10024497 -0.06427443 -0.03875955 -0.07492345 -0.088740066 0.051094905 0.08211066 0.045665264
0.10833487 0.012146103 -0.1017308 0.008099705 0.036744315 -0.007821704 -0.04996949 0.117268935
-0.10307764 0.1187294 -0.003099167 0.25227794 0.11242161 -0.119884185 0.0641959 0.14925246
-0.08111282 0.09806825 0.026216373 -0.109699085 0.117079675 0.039461315 -0.11790255 -0.12050782
0.015821308 -0.00447841 0.08908148 -0.050985694 0.056305498 -0.09830707 -0.05183564 -0.07684168
-0.0069333315 -0.101711094 0.06012337 -0.12017213 0.12188324 0.049378082 0.043143585 0.0499254
-0.09632887 -0.073538765 0.07326688 0.084759206 0.0217648 0.005189672 0.10606095 -0.102199465
0.07049827 -0.0962784 -0.10386658 -0.026083142 0.10597114 -0.09861727 -0.044939816 -0.103636414
0.09438485 0.12241858 0.083068684 0.06546652 0.098739326 -0.082472116 -0.09980118 0.07692011
-0.09363718 0.057630092 0.053907007 0.09398571 0.029028237 0.041192055 -0.06483962 -0.068599194
-0.008373842 0.0068599135 -0.05361727 0.035046235 0.07902451 0.07989302 0.082371205 -0.065962434
0.022684246 0.097349524 0.06908478 -0.033219233 0.0015159845 -0.123092234 -0.06610115 0.032113045
-0.05922328 -0.10448612 -0.035882175 -0.0013787001 -0.007965282 -0.020091295 -0.032243446 -0.066025004
-0.03886716 -0.012380213 -0.04971686 0.07241066 0.0062538832 0.038953394 0.047877103 -0.0668146
-0.09821269 -0.06399718 0.045925215 0.08321512 0.054278582 0.045791253 -0.038232 0.062999055
-0.048240066 -0.12072019 -0.012598485 0.0017862916 -0.10929015 0.096841455 0.11420925 -0.0030487478
0.016673863 0.0027208775 -0.106723875 -0.114224225 0.022649258 -0.042375103 -0.07883601 -0.06225705
-0.119591534 -0.10929699 0.07027978 -0.06876364 0.07055473 0.086716026 0.03599173 -0.01507844
-0.09588909 -0.007769659 0.12185696 -0.1101595 -0.07152246 0.091955006 -0.043961823 0.08708219

regressor.2.bias f4 [64]
00000000: e4b6 eabd db6a dc3d f050 933c 04b4 09bd
00000010: 4e93 7b3c d5ca c43d f4fd 8ebd a02e ffbd
00000020: ac58 3fbd 5b90 b43d c223 f53b 4867 3abd
00000030: e3ed ae3d 8a34 d63d 2100 2bbd 4f54 af3d
00000040: 3ea7 f13d 943c 7ebd 602f c63c 4a79 2ebd
00000050: 24ac 45bd 49a0 a1bd c93e e13d 2e63 80bd
00000060: dd36 de3d d7ea 5e3d 806e 463b b91f 203d
00000070: c0d7 c0bb 125f 863d bad7 1e3d 74d7 b0bd
00000080: 6e58 833b c4ec 50bd 6e2e dabd 9fc9 933d
00000090: 009d 0f3c 9b22 9a3c cd50 c03d cae1 833c
000000a0: 680f a73c 18cd 01bd f7d0 ef3d 9102 813d
000000b0: 8984 5a3d e0f8 0abd 513a 023c 0e27 f4bd
000000c0: 9f84 7b3d 8c78 c13d a296 5eb9 2e1e 9d3d
000000d0: 05fd 433d b97e 093d 5b05 303d c44f 9bbd
000000e0: 8718 fc3d 2f32 f3bd 7146 47bc e8e6 873d
000000f0: 0a24 94bd a2a0 693d a387 173d 40c7 70bd
-0.11460665 0.107625686 0.01798293 -0.033618942 0.015354944 0.09609 -0.069820315 -0.12460065
-0.046715423 0.08816596 0.0074810693 -0.045508653 0.08541467 0.1045924 -0.04174817 0.085610025
0.11799477 -0.06206949 0.024192512 -0.04259614 -0.04825987 -0.078919 0.109983034 -0.06268917
0.10850308 0.05442318 0.0030278265 0.039092753 -0.0058850944 0.06561102 0.03877995 -0.086348444
0.0040083444 -0.051007047 -0.10653387 0.072161905 0.008765459 0.01881533 0.093904115 0.016098876
0.020393088 -0.031689733 0.11709779 0.06299318 0.05334905 -0.033928752 0.007948474 -0.119215116
0.061405774 0.094468206 -0.00021227685 0.07671772 0.04784872 0.033568118 0.042973857 -0.075835735
0.12309366 -0.11874806 -0.012162791 0.06635839 -0.072334364 0.057037957 0.036994588 -0.05878377

regressor.4.weight f4 [1, 64]
00000000: ead2 a5bd 7a41 c43d e056 ad3b 0485 79bd
00000010: d582 3b3d 1290 c8bc 4a5e dabd f4f2 92bd
00000020: c6fa 763b 787f 933d 53a7 5cbd e0cf 7abc
00000030: e7b8 973d c734 053d 66b1 f93d 77a1 b6bc
00000040: d843 d8bd c06b da3b 6460 7e3d 8fed e0bd
00000050: 3eee 45bd 6278 9f3d 10a1 be3c fe57 fc3c
00000060: 3454 d03d db40 94bc 60f3 113d b599 61bd
00000070: c0c8 1b3b 924f 363a fbab c2bd c036 98bc
00000080: 2c89 b23d f85f a5bd a4a0 7c3d a114 4bbd
00000090: 6ad1 bd3d 9049 b7bd aa69 cabc afc5 593d
000000a0: 1815 ecbc f825 c9bd 1c2d 3cbd 3f47 4c3d
000000b0: 4bc2 b23d 8468 5fbd cb0e 5e3c 80ac 67bb
000000c0: 147d a43e 95f0 6a3e da57 e3bd 98c1 20bd
000000d0: f1b8 b7bd f4be 91bb 2c6f d6bd 080c 4fbc
000000e0: 1a2c aa3d c44a 933d 85ed b9bc c272 d63d
000000f0: be3c ad3d 65b2 35bd 34c0 2abd fa08 a4bd
-0.08096869 0.09582801 0.0052898973 -0.06091787 0.045779068 -0.02448276 -0.106625155 -0.07175246
0.0037686094 0.07202047 -0.05387051 -0.01530835 0.07408314 0.032521036 0.12192039 -0.02229379
-0.10559815 0.006665677 0.062103644 -0.10982811 -0.04832291 0.07786633 0.02327016 0.030803677
0.101723105 -0.018097332 0.03563249 -0.055078227 0.002377078 0.0006954606 -0.09505459 -0.018580794
0.0871757 -0.08074945 0.061676636 -0.04958022 0.09268458 -0.08949578 -0.024708588 0.05316704
-0.028818652 -0.09821695 -0.045941457 0.049872633 0.08728465 -0.054543033 0.013553332 -0.003535062
0.32126677 0.22943337 -0.11100741 -0.039247125 -0.08970822 -0.004447812 -0.10470423 -0.012637146
0.08309193 0.07191995 -0.022696266 0.10471107 0.08458851 -0.044359583 -0.041687205 -0.08009525
