NodeRegression/temp_state_dict32.pt (torch, 28505 bytes, 14 tensors)

lstm.weight_ih_l0 f4 [5, 2]
00000000: 8561 113e b14e 8bbe 19ce 043e f105 c83e
00000010: b090 283e bac3 e23e 0db6 f9bc 42ab 383e
00000020: fc57 b1be 9e2b 7bbe
0.14197357 -0.27208474 0.12969245 0.39067033 0.16461444 0.44289953 -0.030482316 0.1803408
-0.3463744 -0.24528357

lstm.weight_hh_l0 f4 [5, 5]
00000000: 9a38 c0be 5185 b9be 08d1 b53e 8825 623d
00000010: 6603 a63e eaac eabd b569 723d 14f8 56be
00000020: 5673 cd3c 9292 263e 7d12 2ebd 5548 723d
00000030: a2cd 3f3e bbf6 433e 0a08 1b3e 945f bf3e
00000040: 43ab 99be 1e67 cbbd ded5 3fbd 6be1 bbbe
00000050: 8011 49bd b0b4 d2be d874 a93e 1136 5bbe
00000060: c1dc c1be
-0.37543184 -0.36234525 0.3551104 0.055211574 0.32424468 -0.11458762 0.05918284 -0.20993072
0.02507941 0.1626685 -0.0424981 0.059151012 0.18730786 0.19137089 0.15139785 0.37377608
-0.30013475 -0.099317774 -0.04683482 -0.36695418 -0.049088955 -0.4115348 0.33096957 -0.21407343
-0.37863734

lstm.bias_ih_l0 f4 [5]
00000000: 8569 4abc abed d33e fe66 0ebe 8aac 883c
00000010: 0499 743e
-0.012354259 0.41392264 -0.13906476 0.016683836 0.23886496

lstm.bias_hh_l0 f4 [5]
00000000: 6b82 10be 38b4 3abe 6047 323d 10ca d1be
00000010: 269d 8abe
-0.1411225 -0.1823281 0.0435251 -0.40974474 -0.2707302

regressor.0.weight f4 [32, 6]
00000000: ee7c eb3d e38f ab3d 6730 b0be d053 663d
00000010: 7510 b93e 15cb 5a3e 5afb 913e d6d7 c8be
00000020: 68a3 153e 4cb6 a83e 480c 7c3e 651c 9cbd
00000030: d129 ef3d e893 a2be 2825 b23e 7919 0f3e
00000040: 32d4 21be 12de cfbe 70ea bb3e d054 443e
00000050: 6e17 9f3e 7ca0 633e cfc2 13be 470b 8d3e
00000060: bc28 a23e d0c7 c83e 7a54 8d3e 4587 76be
00000070: 4b19 bf3e 4c12 a83e ba81 a43e d2ca 9abe
00000080: bd91 8f3e d9bc 21bd 7c0a 00be 2bf5 443d
00000090: 98b4 c8be 5875 f7bd f2b8 1cbe 6959 5ebe
000000a0: e917 ffbc 3b85 3bbe 25df b3be 59f8 abbe
000000b0: 666e aebe 910e 8abc 0a9e 65bc cb5a 733d
000000c0: 95f3 d0be 1a4a a73e db4d 663e d721 1d3e
000000d0: 345f 923e 8580 93bd 9642 8ebe 8fd3 653e
000000e0: 1abf 353e 901a 913d 1e58 893e 7e8e 72be
000000f0: 7c6b 3b3d 78dd 4b3e 4062 0dbe 0da0 07be
00000100: 32ae b4be bae3 293e 11cb c23e 6a25 933e
00000110: 8cd6 76be f779 b6bd 17a2 713d 0f38 3abe
00000120: 3565 b23d dc8c c8be 6435 e9bd 8cb1 b53e
00000130: 8d61 abbd 0980 93bd e96f 1b3e fe80 853d
00000140: a855 d13d e09a 9d3d d75e b7bb 7025 a0be
00000150: 7b23 1f3e ded7 423e 4499 783e 159a c0be
00000160: ac11 cf3e f3cc 91be 0626 fd3d 6a8d c83e
00000170: 318b 31be c3e7 4c3e 609b e93d 6780 8b3e
00000180: 0687 a6bd ede0 46be 1308 c3be 8b8c c3be
00000190: afb4 f3bd 32c9 893e 86c7 8a3e def4 893e
000001a0: f442 cdbe 4420 a2be 9d0b 713e 76aa 673e
000001b0: ad64 90be 5274 91be 0023 8bbe 54bc 69be
000001c0: 8d64 a2be 7135 97be e93d 2ebe c53f 393e
000001d0: 76dc 943e 1f9a b43b 9345 6f3e 664e abbe
000001e0: 1c35 72bd 7760 68bd efba cfbc 3a82 aabe
000001f0: 4a54 3c3c f689 2ebe b73e 87be eb87 1cbe
00000200: 2570 903d fe29 8bbe 34a3 bdbe b2c4 14be
00000210: cd67 553e d9d4 41be 3d95 9c3e df17 4d3e
00000220: 514a 0dbe 9946 d33d 31e5 a53e e26a 5cbe
00000230: b110 19be 24f7 9fbe 4583 cc3d 5073 0b3e
00000240: 3194 413d f2ba a6bd 742f 1d3d c0b8 d53d
00000250: 562c 95be 8177 963d 97c7 bd3b 3863 983e
00000260: d7e3 123e bb03 9e3e aab0 c1be ec66 0b3e
00000270: 0600 dbbc 5324 b6be 4527 aa3e 1731 c7be
00000280: d6c9 83be d74b 4abe d236 4d3d af32 863e
00000290: 8a69 b23e 726b 8cbe 6637 ccbe b980 a7be
000002a0: 5ba6 19be 36f4 813e 38ff 00be 287c c7be
000002b0: 56d3 de3d fcbb a03d fc87 d63d cca5 f7bc
000002c0: 0f81 9abe 26ad 0dbe be72 c9be e533 2abe
000002d0: 1c29 98be af95 ce3e 27ed bcbe 5a62 443c
000002e0: 8420 73bc 7c14 663d 08ce dd3b e5fa b63d
000002f0: b025 083d 6640 b53e 1dd7 503e eb75 33be
0.11498438 0.083770536 -0.34411928 0.056232274 0.36145368 0.21366532 0.2851208 -0.3922717
0.14613116 0.3295158 0.2461406 -0.07622603 0.11677898 -0.3175347 0.34793973 0.13974561
-0.15803602 -0.40599114 0.367023 0.19172978 0.31072563 0.22229189 -0.14429782 0.27547666
0.31671703 0.39214945 0.27603513 -0.24075039 0.37323985 0.3282646 0.32130224 -0.30232865
0.28040877 -0.03948674 -0.12504 0.048085373 -0.39200282 -0.120829284 -0.15304926 -0.21713795
-0.031139331 -0.18312542 -0.35131183 -0.33587912 -0.34068602 -0.016852649 -0.01401473 0.05941276
-0.40810838 0.32673723 0.22490637 0.1534494 0.2858826 -0.072022475 -0.27785176 0.22443984
0.1774868 0.070851445 0.2682504 -0.23687169 0.045756802 0.19908702 -0.1380701 -0.13244648
-0.3528915 0.16590777 0.38045552 0.28739482 -0.2410528 -0.08909982 0.05899247 -0.18185447
0.0871071 -0.39169967 -0.113871366 0.3548702 -0.08368216 -0.07202155 0.15179409 0.06518744
0.10221416 0.07695556 -0.0055960226 -0.31278563 0.15540878 0.1902766 0.24277216 -0.37617555
0.4044317 -0.28476676 0.12360768 0.3917039 -0.17338254 0.20010285 0.114065886 0.272464
-0.081312224 -0.1942174 -0.38092098 -0.38193163 -0.11899697 0.26911312 0.2710535 0.2694463
-0.40090144 -0.31665242 0.23539586 0.2262362 -0.2820181 -0.28409058 -0.2717514 -0.22825748
-0.3171734 -0.2953296 -0.17015804 0.18090732 0.29074448 0.0055115367 0.23366384 -0.3345825
-0.05913268 -0.05673262 -0.025357692 -0.3330248 0.011494705 -0.17044815 -0.26415035 -0.15286224
0.0705264 -0.27180475 -0.37038577 -0.14528158 0.20840378 -0.18928851 0.3058261 0.20028637
-0.1379788 0.103162 0.32401422 -0.21525148 -0.14947774 -0.3124324 0.09985975 0.13618207
0.047260467 -0.08141126 0.038375333 0.10435629 -0.29135388 0.07347012 0.005791615 0.29763198
0.14344727 0.3086222 -0.37830096 0.1361348 -0.02673341 -0.35574588 0.33233085 -0.3890464
-0.25739926 -0.19755493 0.05010111 0.26210544 0.34846145 -0.27425724 -0.39886016 -0.32715395
-0.15004866 0.2538163 -0.12597358 -0.3896191 0.10880153 0.07848355 0.10475156 -0.030230425
-0.3017659 -0.13835582 -0.39345354 -0.16621359 -0.29718864 0.40348575 -0.36899683 0.011986339
-0.014839295 0.05617188 0.0067689456 0.08934573 0.033239067 0.35400695 0.20394559 -0.17525451

regressor.0.bias f4 [32]
00000000: 38d1 303e 9614 6fbb 991c d3bd 3b0b 953e
00000010: cc9c 8abe c1c7 553e ff7c 5d3e 9288 2e3e
00000020: d9b3 cb3e b9a9 27be a7c6 31be a8b1 35be
00000030: 7853 fd3c ea6b 853e 5be6 adbc 1cbf 923d
00000040: 5886 2c3e 5f0e 99be 413a 5fbe fe65 823e
00000050: de50 a83e a863 c23e bbd9 6fbe 5bd1 c8be
00000060: 7151 86be 53ae ca3e 2d0a 7c3e 4fee 1e3e
00000070: 4840 aa3c c4ad 8e3e c8fb f93c 66e6 c73e
0.1726731 -0.0036480776 -0.10308189 0.2911013 -0.27072752 0.20876981 0.21629713 0.17044285
0.3978565 -0.16373338 -0.17360936 -0.17743552 0.03092359 0.26058894 -0.021228006 0.071653575
0.16848123 -0.29893777 -0.21799566 0.2546844 0.32874197 0.37966657 -0.23422901 -0.39222226
-0.2623401 0.39586124 0.24613257 0.15520595 0.020782605 0.27866948 0.030515566 0.39042968

regressor.2.weight f4 [32, 32]
00000000: 67b5 d93d f374 b33d cfab 84bd 3f43 413d
00000010: 00fb 5f3d e5ab 82bc 9479 e53d b94c 0f3e
00000020: bc90 223e 60ae a73d 4183 013e 160a c4bd
00000030: e9b3 2b3e d975 0a3c 89f5 0c3d c86d 34be
00000040: 8dc0 c2bc 3c9f 14be e534 d1bd 1a9f fc3b
00000050: 0c16 a53c fe4c 01be bd3d 873d bfc5 b93d
00000060: 75ba 193e 83af b83d e221 04be 4736 f53d
00000070: dfa8 cd3b 7840 153e 65e7 32bd 9361 32be
00000080: fa2a a0bd e32e 903c 0772 023e 554f 9bbc
00000090: 9c04 0f3e d830 09be d4d8 d03d 1aba ca3c
000000a0: fb2a e13d b31e 2cbe 44cd 0f3e 8544 303e
000000b0: d942 d63d 5a3f f4bd 4608 09bc 5908 47bd
000000c0: 5f1a d33d 4a26 14bc f433 ef3d a2ce 06be
000000d0: f754 953d 5c0c 12bc aeb7 2f3d 519b 243e
000000e0: 74f8 9dbc a072 923d 2a95 013d 8540 06be
000000f0: 1c24 13be d8b1 fb3d 42af 273d 8b63 d33c
00000100: d6aa 1fbd f07e b7bd eb09 23be 24fd 96bd
00000110: c979 1dbe 9406 9f3d 036f de3d 56db b1bd
00000120: 768e 21be 7a54 8fbd c0d0 87bc 1736 793d
00000130: 33b9 b03d 5f65 153c 94ea f13c 3b41 123e
00000140: 9849 c6bd 51c4 2b3c e47e ca3d 3075 0e3e
00000150: af17 123e d0a4 d2bd bf59 ddbd 527e ac3d
00000160: 2019 20be 4d6a 843c 37ce 34be 5a7f 9f3d
00000170: 45d5 b13d 063d 1d3e 7943 0cbe 5928 c03d
00000180: 1088 913d 8143 18bd fcaa 2d3c 0c16 efbd
00000190: d7fa dcbb b3d4 fc3d fc9d 233e 9351 d0bd
000001a0: 6710 283e 5467 7cbd 3631 0bbd 0409 00be
000001b0: 5de7 0ebe 05b5 00be 7d24 2abe 8972 c93d
000001c0: e99e 09be 3079 24be 52ff bbbc 0845 e13d
000001d0: 7adf 07be f2c6 5a3d 91b7 e6bc 036a 2dbe
000001e0: 2f60 11be 53f3 05be 5707 1e3e 7629 903d
000001f0: 626d 1d3e 01ea 79bd 7894 5bbd 2bb0 b33c
00000200: a6db b03c c611 e2bc ef2a 07be 70c7 b1bd
00000210: fa62 07be 196b febd a6ee 0b3c e34d 15be
00000220: bbfa 22be 9949 8cbc f78d fcbd 62a6 123e
00000230: 667a e7bd 8cb4 07be e1d9 ce3d 8068 d4bd
00000240: aab6 c4bd 9327 eebd 2d5b 56bd 75b0 d43b
00000250: c3de bf3d 59cf 1b3e 9f76 efbb 2563 f93d
00000260: aaf3 2ebe b1c2 3abd 1301 11be 6b40 343e
00000270: dd9d b9bd 3ada 293e 073c 1ebe e963 833d
00000280: 6730 e13d 87a3 1cbe 463c 213d 9895 043e
00000290: 48b0 2ebd dee5 43bc 0713 d43d efde 133e
000002a0: a651 bdbd ec41 0c3e 94dc 88bd 90f7 333e
000002b0: d417 2e3e 5541 7ebd b01c 1f3d 6368 0b3d
000002c0: 8a14 373c 4672 333e fe14 cebd f0be 83bd
000002d0: fe06 abbb d4e4 d43d 989f c23d 2a42 f7bc
000002e0: e3b7 713c 607f cdbd c67d 9cbd 0d27 1d3e
000002f0: 954a 383d b5e1 153e a6b7 d03d 8551 163e
00000300: 2ce4 98bd 77ea 063e 0f06 9f3d d1f3 ec3d
00000310: e244 733d c2f2 913d 3401 893a fabc 67bd
00000320: deca 863d dac6 0c3e c2b6 8cbd 489f 0a3d
00000330: 730f 73bc b136 c1bd 479b 393d 886c bf3d
00000340: 3d5e b63d ec7d 543d 53b2 673d 4897 563d
00000350: b4a2 193e cc59 253c d53c afbd d2e6 c5bd
00000360: c11c dc3d d3e1 083c f63d fc3d f40d 89bd
00000370: fc9d 15bd b9ab c9bd 3951 20be 651b dc3d
00000380: 7950 cfbd 2e80 0bbe f1cb 813d a4f1 c2bd
00000390: e475 99bd ef04 0e3e a890 bc3d 4a17 4a3d
000003a0: 2098 7b3d 7f15 10be 4492 1f3c 4a4e 21be
000003b0: c8a0 0a3e 5d8b 25bd 315c 823d 5666 6fbd
000003c0: 6d3a 17bd aab8 a2bd 6fc4 fc3d c6f1 193e
000003d0: e1a8 3fbd 8e69 2bbe c475 37bd a303 223d
000003e0: 1d00 633d 0180 d13d 3b68 a03d 075a 973d
000003f0: 8c0e c039 9be6 c83d 45f6 adbd 0f47 26be
0.10630303 0.08762541 -0.064780824 0.04718327 0.05468273 -0.015951106 0.1120483 0.13994111
0.15875524 0.08187556 0.12647726 -0.09572236 0.16767849 0.008450949 0.034413848 -0.17620003
-0.023773456 -0.14513868 -0.10215167 0.007709396 0.020152114 -0.12627026 0.066035725 0.0907092
0.15012534 0.09017851 -0.1290355 0.11973243 0.0062762345 0.14575374 -0.043677706 -0.17420034
-0.07820697 0.017600482 0.1273881 -0.018958727 0.13966602 -0.13397539 0.10197607 0.024746943
0.10994526 -0.16808586 0.14043146 0.17213638 0.10461969 -0.11926146 -0.008363789 -0.048591945
0.10307764 -0.009042332 0.11679831 -0.13164762 0.072915964 -0.0089140795 0.04289978 0.16074874
-0.01928351 0.07150769 0.031636395 -0.1311055 -0.14369243 0.122897804 0.040938623 0.025804302
-0.03898128 -0.08959758 -0.15921752 -0.073725015 -0.15378489 0.077649266 0.108610176 -0.08684413
-0.15777001 -0.069985345 -0.016579032 0.0608426 0.08629074 0.009118407 0.0295308 0.14282696
-0.09682006 0.010483817 0.09887484 0.13911891 0.14266847 -0.10285342 -0.10808133 0.08422531
-0.15634584 0.01616397 -0.1765679 0.07787962 0.08683256 0.1535531 -0.13697614 0.09382696
0.0710603 -0.03717375 0.010599848 -0.11674127 -0.0067437696 0.12345257 0.15978235 -0.10171809
0.16412507 -0.06162198 -0.033982478 -0.12503439 -0.13955446 -0.12569053 -0.16615482 0.09836299
-0.13439526 -0.16061854 -0.022948895 0.10999495 -0.13268843 0.053412385 -0.028163703 -0.16934972
-0.14196847 -0.13081102 0.15432487 0.07039158 0.15373757 -0.06101418 -0.053608388 0.02193459
0.021589112 -0.027596366 -0.13199972 -0.08680618 -0.1322135 -0.12422771 0.008540785 -0.14580493
-0.15915959 -0.017124938 -0.12331765 0.14321283 -0.113026425 -0.13252467 0.10100151 -0.10371494
-0.09605153 -0.11628642 -0.052333046 0.006490762 0.0936866 0.15215816 -0.007307842 0.121771134
-0.17085138 -0.04559583 -0.14160566 0.17602699 -0.09063313 0.16587153 -0.15452586 0.06415541
0.1099556 -0.15296756 0.03936412 0.1294769 -0.042648584 -0.01195666 0.10355192 0.14440511
-0.09244089 0.13697022 -0.06682697 0.17574906 0.17001277 -0.062074024 0.038845718 0.034035098
0.0111743305 0.1752406 -0.10062598 -0.06432903 -0.0052193394 0.10395208 0.09503096 -0.030182917
0.014753315 -0.100340605 -0.07641177 0.15346928 0.044993002 0.14636882 0.10191278 0.14679535
-0.07465395 0.13175379 0.077648275 0.11569942 0.059391864 0.071263805 0.0010452629 -0.056576706
0.065816626 0.13747731 -0.06870796 0.03384331 -0.014835226 -0.0943426 0.0453141 0.093468726
0.08904693 0.0518779 0.056566548 0.052390367 0.15003473 0.01009221 -0.08556525 -0.09663166
0.10747672 0.008354622 0.123165056 -0.066921145 -0.03652762 -0.098472066 -0.15655984 0.107474126
-0.10122771 -0.13623115 0.06337727 -0.095187455 -0.07493189 0.1386907 0.092072785 0.049338616
0.061424375 -0.140707 0.009739462 -0.15752521 0.13537896 -0.04041611 0.0636524 -0.058447205
-0.036920954 -0.07945378 0.12342154 0.15033635 -0.046791915 -0.16739485 -0.044790044 0.03955425
0.05542003 0.10229493 0.078323804 0.07390218 0.00036631932 0.098096095 -0.08494238 -0.16238044

regressor.2.bias f4 [32]
00000000: ab6b 91bc d373 bfbc 3030 753d d780 2ebd
00000010: 8a1f 8e3d e550 1a3e fe66 293d 6928 94bc
00000020: a6de b5bd 704e 543d a6d3 1e3e 503b 17bd
00000030: 65db 1ebe 656e 1fbe d537 fe3d cf13 373d
00000040: eb93 bdbd f6cb f7b8 c804 0a3e 8c5b 173e
00000050: eae0 cc3d e7f3 dcbc 9b16 243d 4d68 303d
00000060: 8f45 853d e80f e8bd 66a5 223e 7846 d4bd
00000070: d7ed 59bd f988 0e3e 5da5 8d3c 0652 c23d
-0.017751535 -0.023370659 0.05986041 -0.04260334 0.06939609 0.15069921 0.041357987 -0.018085675
-0.088803574 0.051832616 0.15510425 -0.0369218 -0.1551338 -0.15569456 0.12412993 0.044696625
-0.09256729 -0.000118158685 0.13478386 0.14781016 0.100038365 -0.02697177 0.04006062 0.04306822
0.06507408 -0.11331159 0.15883407 -0.10365003 -0.053205337 0.13919438 0.017290765 0.09488301

regressor.4.weight f4 [1, 32]
00000000: b8e3 e6bc fee5 623b efef 00be f889 793c
00000010: 55af 26be e7f0 343e 57de dbbd 0c51 21be
00000020: f2b1 beba ac0e 09be 4044 b2bd ca4c 2a3e
00000030: 3f4c a03d aff5 e4bd 5ab5 02bb bff6 b1bd
00000040: 917f 913d 51d7 1abe 965e 0c3e 8e88 f5bd
00000050: 2b0a 343e 6485 16be 1c13 ad3d 2dd9 cbbd
00000060: 5377 93bd 5dc8 f23d d660 ab3d 569f 43bc
00000070: d53d 11be 3eaf e7bd 123b 313e 7be9 15be
-0.028184757 0.003462195 -0.12591527 0.015230648 -0.16277821 0.17670022 -0.10735767 -0.15753573
-0.0014548881 -0.13384503 -0.08704424 0.16630855 0.07827043 -0.11179673 -0.001994452 -0.08689641
0.071044095 -0.15121199 0.13707957 -0.11988936 0.17582004 -0.14699322 0.084509104 -0.09953532
-0.07200494 0.118546225 0.08368079 -0.011939844 -0.14183743 -0.11312722 0.1730769 -0.14639847

fnn.0.weight f4 [64, 3]
00000000: 698c a23e ef06 d5be c4f0 ca3e 6387 11bf
00000010: 62da 813c f2d8 a03e 0dd8 0e3f a703 75be
00000020: 22c2 4a3e a894 92be b161 823e 6cb5 093f
00000030: e260 46bc ec5e e83e b0cf b4be d340 e2bd
00000040: 954f 623d 7227 d2bd af8c 89be 12c5 b6be
00000050: 6062 9f3d e465 86bd ed9e 5b3e 8757 903e
00000060: 70cd 34be ff63 9a3e 1551 d3be 6087 8abe
00000070: ef45 7fbe 2ae7 33bb e3aa c03c 0251 b9be
00000080: 10c7 d03e 73fb adbe 7979 9e3e 2dc8 aebe
00000090: 67a8 8c3d 4156 17bf 0e83 ed3e 9ddd c5bc
000000a0: f573 dc3d 252d 72bc c3db 123f 37fc b7be
000000b0: 4cf8 0dbf d0a8 c1bd f82b 643d a1bc d6be
000000c0: 7840 053e 6735 5f3e 1d47 8dbe db85 c93c
000000d0: db68 03bf 8f54 b63e 35cf bcbe 5226 923e
000000e0: 3f67 a9be ce6d f0be facc 63be 00cf d9be
000000f0: 7652 f93e dd4f 3d3e d215 a3bd fe1e 923d
00000100: 97e1 72bd 9ff1 97be a651 0fbf d444 f73e
00000110: f4b9 8fbd cce0 a43e 079f 6ebd 1d05 d33e
00000120: 79b3 b3be 8bd7 cdbe c8b0 86bd d3fc 1dbe
00000130: a77f b83d 80dd b03e 2cd5 6e3e 9e16 723e
00000140: 89c3 24be da75 dd3d 3772 b93d 5cbd fcbd
00000150: c2e9 91be feb7 1cbf df67 073f e93a 3fbe
00000160: 5a3f 0bbf 9263 b4be 3df6 ad3e c2b8 a33e
00000170: c303 023f 30cb 04bf 92a0 0f3f 8421 febe
00000180: 5e25 593e 6c4a a0be d349 c13e 94ae b13e
00000190: 4c35 133f 796c fa3d 5c4e 5fbe b6d2 a93e
000001a0: 7c21 49be 26fc 26be 7939 573e a67e bfbe
000001b0: 2822 803b 35d1 0cbf 4279 77be 847c 15be
000001c0: 074d 8f3e 46db 5dbe 5865 abbe 0637 a1be
000001d0: 15ff bebe 5259 b4bc 5847 8f3e 5ca9 05bf
000001e0: f203 c03e 6690 953e 1419 62be 74a2 173f
000001f0: c26f aebd cfba d5bd b463 e7be 5d19 8ebd
00000200: 3eee 5c3e b572 9fbe 1b41 da3e 1b15 2dbe
00000210: d4a8 6cbe be72 8e3d b588 cdbe cc90 bc3e
00000220: 777a 0fbf 1cf1 08bf 83c4 2bbe 9fd9 ba3e
00000230: 52af cfbd 17b9 113e 2691 18be e71f 9fbe
00000240: 6a04 263d a749 52be d686 e13e ca0c 143f
00000250: 43a2 ad3e 075b a2bd 97a7 823e e3ce 8abd
00000260: f494 a5bd a1e4 d2be 58e5 cc3e deec d9be
00000270: 2342 49be fb9f 1ebe 4ed1 8ebe b319 4b3e
00000280: 5de3 373e 25c9 95be 47f2 843e 2309 bebd
00000290: 4f41 bebe 36a1 e13e 521c 623e 7c78 ed3e
000002a0: 701d 96be 9028 95be 9784 193d 6cc5 20bd
000002b0: 5fdf 3fbe a192 8a3e 6fb5 b83e 7d37 45be
000002c0: c0fc 523e c48a d139 98d9 0dbf 3107 0ebe
000002d0: 5b0b 4f3e 22b6 01bf 31f4 08bf 9545 f1be
000002e0: 7761 a53e 9969 06bf b492 abbe 7c68 833e
000002f0: 566c 98be 194b d1be 59d9 853e 8006 3c3e
0.3174775 -0.41606852 0.39636815 -0.5684721 0.015851203 0.31415516 0.5579842 -0.23927175
0.19800618 -0.2862904 0.25465158 0.5379245 -0.01210806 0.4538492 -0.35314703 -0.110475205
0.055251677 -0.1026143 -0.26865146 -0.35697228 0.077824354 -0.06562403 0.21447344 0.28191778
-0.17656493 0.30154416 -0.41272798 -0.27056408 -0.24929021 -0.0027451017 0.023518985 -0.36194617
0.40776873 -0.33980903 0.3095205 -0.34137097 0.06868058 -0.5911599 0.4638905 -0.024153525
0.107643045 -0.014781271 0.5736658 -0.35934612 -0.55456996 -0.094560266 0.055705994 -0.41940787
0.13012874 0.21797715 -0.27593318 0.02459996 -0.5133187 0.35611388 -0.36876836 0.2854486
-0.33086583 -0.46958774 -0.22246161 -0.4254074 0.48695725 0.18487497 -0.07963146 0.071348175
-0.05929717 -0.2967653 -0.5598396 0.482947 -0.070178896 0.32202756 -0.05825713 0.4121484
-0.35097864 -0.4020351 -0.06576687 -0.15428476 0.09008723 0.3454399 0.23323506 0.2364144
-0.16090216 0.10813494 0.09054988 -0.12340805 -0.28498656 -0.6121825 0.5289287 -0.18674816
-0.5439354 -0.35232216 0.33976927 0.31976897 0.5078699 -0.5187254 0.56104386 -0.49634945
0.2120566 -0.3130678 0.37751636 0.34703505 0.575032 0.12227721 -0.21807235 0.33168572
-0.1964168 -0.16307124 0.21018018 -0.37401313 0.0039103217 -0.55006725 -0.2416735 -0.1459828
0.27988455 -0.21665677 -0.33475757 -0.31487292 -0.37303987 -0.022015247 0.27984118 -0.52211547
0.3750301 0.2921173 -0.22079879 0.5923226 -0.0851741 -0.104360215 -0.45193255 -0.069384314
0.21575257 -0.31142202 0.42627797 -0.16902582 -0.23111278 0.06955479 -0.40143362 0.3682922
-0.5604624 -0.53492904 -0.16774182 0.36494157 -0.101408616 0.14230762 -0.1489912 -0.31079027
0.040531553 -0.20535909 0.44048184 0.57832015 0.33912858 -0.07927518 0.25518486 -0.06777742
-0.08085051 -0.41190055 0.40018725 -0.42563528 -0.19654135 -0.15490715 -0.27894062 0.19834022
0.17957826 -0.29255024 0.25966093 -0.092790864 -0.37159202 0.44068307 0.22081116 0.46380985
-0.29319334 -0.2913251 0.037479963 -0.039250776 -0.18737553 0.27064994 0.36075923 -0.19259448
0.20604229 0.00039966975 -0.55410147 -0.13869931 0.20219176 -0.5066854 -0.53497607 -0.471234
0.32300922 -0.5250488 -0.33510363 0.25665653 -0.29770154 -0.40877607 0.26142386 0.18361855

fnn.0.bias f4 [64]
00000000: eb39 9a3e 394d 04bf 0fa0 40be c747 20be
00000010: 8349 07be 0720 66bd 5bf8 da3e 350d febe
00000020: 83d6 9d3e 7914 a23e 9b5e c1be 16dd 2ebe
00000030: bfd7 0a3e 1c8b 823e 0c1e 2ebe a47a 0cbd
00000040: 8f43 b0be e06e 07be be51 a63e 36d0 9ebd
00000050: 46da 05bf 7c46 5bbe a4a5 13be 2f25 b0be
00000060: 9b75 123f 27fc a93d 93af 303e dc5a a93e
00000070: 860a 503e 578c 423e 705b 823e 18ee f2be
00000080: b548 18be d74b a2be 74e0 813e bdad a8be
00000090: a84b 06bf dc8d 2e3e f196 b33e 8f69 713e
000000a0: 9b62 f6be 4278 c13e 56e5 823d b54f b8be
000000b0: 8ee7 e5bd 3ffb 09bf 4212 7abd e937 2dbe
000000c0: 3274 c2be ca34 3c3e 3e87 8a3e 566c 05bf
000000d0: 3d69 0f3e a8ec c33d 0178 043f 8f87 51bd
000000e0: bf9f 923e d89b f8be 2ccf c63e b50e d0be
000000f0: e459 963d 050c eabe 2a33 aa3e 19b0 023f
0.30122313 -0.5168033 -0.18811058 -0.15652381 -0.13211636 -0.056182887 0.42767605 -0.4961945
0.30827722 0.31656244 -0.3776749 -0.17076525 0.13558863 0.25496757 -0.1700365 -0.034296647
-0.34426543 -0.13225889 0.3248424 -0.07754557 -0.52286184 -0.21413606 -0.14418656 -0.3440337
0.572107 0.08300047 0.17254476 0.33077133 0.20316514 0.18998848 0.25460386 -0.47447276
-0.14871486 -0.31698486 0.25366557 -0.32945052 -0.5245919 0.17046303 0.35076097 0.23575424
-0.48122105 0.37787062 0.063913986 -0.35998312 -0.11225806 -0.53898996 -0.06105257 -0.1691586
-0.37979275 0.18379512 0.27056307 -0.5211843 0.14004989 0.09566623 0.5174561 -0.05115467
0.28637502 -0.485564 0.38829935 -0.4063622 0.07341364 -0.45712295 0.3324216 0.51049954

fnn.2.weight f4 [64, 64]
00000000: c96a 463d bcc0 d03d ef00 94bb 20af c8bc
00000010: e88c 443d 6459 b7bd 57e5 e13c 0295 d23d
00000020: 9301 aa3d df38 183e c09b 95bb 6884 f03d
00000030: 9633 b7bc c721 ed3d 1082 cb3b 805a 35bb
00000040: a849 5dbd 18d7 f8bc 57d1 0d3e bee0 efbd
00000050: 14bd 9b3d a2ee bebd 8a76 d1bd 7879 a7bd
00000060: 8ed8 ecbb ddfd 82bb 97d1 bfbc 9c25 af3b
00000070: ad67 003e 12d9 f63c 516e 173e 5613 f23d
00000080: 87f6 b63d ad44 f8bc 43bf 333d 1e38 c0bd
00000090: 50dc 9ebc 4bd4 3b3d 77c7 8f3c 2fe5 0e3d
000000a0: 58fa ccbc a32a 8c3d 09a1 9bbd 9cfd 54bd
000000b0: d2a3 ffbd ee2e e33d ec9c 63bd 7068 1f3d
000000c0: 30b3 b6bc 7501 293e 44cd ea3d a8b8 bc3d
000000d0: 888c 0c3e 4ad0 6d39 baea b13d fa38 e33d
000000e0: 4dbf ec3d 58c5 b2bd 27e3 1d3e fccd 1f3d
000000f0: 6ef5 44bd 64f7 603d 7641 3b3e 956d ff3d
00000100: 0808 aa3d 3037 36bd bc43 7a3d a07e 83bb
00000110: c641 eb3d 34f3 f6bd 9039 3f3d 1c66 5abd
00000120: fdb0 003c 40b3 a4bb 8ada a23d e8cf ca3d
00000130: d3f3 9cbd 5339 273c 305b e5bc c077 403b
00000140: 2afc 823d 40a6 d93c 451c 7d3c e466 b6bd
00000150: e0b7 cd3b d643 dbbd c624 afbd c05d 37bd
00000160: 7a7a 403d 8a39 d63d fdad cfbd b4a7 debd
00000170: a08a db3c a6ba de3c ece6 783c 0eed 923d
00000180: e46c d3bd 0c6e 603d 4641 803d ec08 b93d
00000190: 3408 fdbd 0cdf 363d 252f cbbd 70dc 9bbc
000001a0: f0ac b43d 8657 56bb 7ffa 7bbd 6041 063d
000001b0: ca04 fd3d f8ef e7bc 20ec b0bb ec4d 813d
000001c0: 183a ea3d f08c bbbd ffb4 953c b0f5 a93c
000001d0: 50f9 f9bd c7fe e63c 0c68 e4bc a2a6 ffbd
000001e0: 6bf4 8d3d 302d f53d 75e4 233d 7af6 f3bd
000001f0: 24d2 c5bc f04e 68bc 9111 d43d 8f5a 9bbd
00000200: bef5 ffbd c4b3 fbbd b41e ddbd 60bd 903c
00000210: 4e71 e93d 14f7 253d e879 853d 0c9b d93d
00000220: 40fd 10bd b67d a93d 7c72 9fbd 38d0 dfbc
00000230: 71b5 66bb 59bf da3d 3aa8 e63d 842f febd
00000240: d098 fe3c e0df bd3d 7947 7ebd c8b7 503d
00000250: 36d3 d93d ced5 e13d 38ee cfbd 9075 3c3d
00000260: 31b1 e1bb 5e12 c93d f52f c03d 1461 f43c
00000270: 9e44 513d 1ec7 bdbc 492f a33d f21f 873d
00000280: 2081 063d 98e4 fb3d 6132 93bd 5299 e2bd
00000290: 08ee 3e3d f0cb 21bc 2b1f bfbd a5e6 823d
000002a0: 28b0 f1bc d68c 12bd 18a2 8abd e04f 433d
000002b0: 60d9 f5bb 92f5 c93d 1839 3a3d 5885 78bd
000002c0: 6415 4c3d 0686 60bd 7a6d 6abd 4e62 c3bd
000002d0: 8592 073d 829f 823d a6c7 bc3d 92cb f4bd
000002e0: 0c1c 07be ac75 ce3d 3275 71bd 982d d63c
000002f0: 6835 45bc 40b8 883b 3e89 a83d a66e 003d
00000300: cfa4 70bd b823 55bd 2187 883d e04b 19bc
00000310: 000a ea3c e056 853d 2922 d4bb e855 e7bc
00000320: 9418 493d a625 e93d ae87 963d 8446 52bd
00000330: 7e1b ce3b 9e4a 0a3e 66e0 f2bd 8e09 a43d
00000340: 10e2 1fbd 507e 7abd 5e8b a8bd 18c7 d9bc
00000350: 986d ac3d 0644 863d f623 ddbd 0b60 b4bd
00000360: 5cb7 b9bd f1d0 e33d 4502 d03d bf7f 8cbc
00000370: dbb9 89bd 0c66 f73b bdcc 39bd 00e4 ec3d
00000380: 0c14 813d 433e 673d 8182 623d 64c8 373d
00000390: 6c81 d6bd c358 fb3b be63 8bbd c4ed 013e
000003a0: 7c90 77bd 6ef5 4abd 4db3 55bc bce9 f03d
000003b0: fc95 c73d a090 cfbc e098 adbc e419 483d
000003c0: 301f c63c 78c5 9ebd c113 8c3b 328c afbd
000003d0: 84da dc3d 32fc 62bc b1f6 d53d ea23 bd3d
000003e0: 4290 003d 5233 b2bd 11db 0a3e d0b0 753d
000003f0: d6f9 1fbd e060 95bd f65b 123e 887d 003d
0.048441682 0.10193011 -0.004516713 -0.024497569 0.04798594 -0.08952597 0.027575178 0.10282327
0.083010815 0.14865445 -0.004565686 0.117440045 -0.022363465 0.11578708 0.006210573 -0.002767235
-0.054025322 -0.030376002 0.13849388 -0.11712788 0.07604423 -0.09322859 -0.10227688 -0.08177465
-0.007227964 -0.003997548 -0.02341537 0.0053450596 0.12539549 0.030132804 0.14788176 0.11820094
0.0893374 -0.030306185 0.043883573 -0.093857035 -0.019392163 0.045856755 0.017551167 0.034886535
-0.025021717 0.0684407 -0.075990744 -0.051999673 -0.12482418 0.110929355 -0.055569574 0.03891796
-0.02230224 0.16504462 0.114649326 0.09214908 0.13725483 0.00022679675 0.08687349 0.11094852
0.11559925 -0.087290466 0.15418683 0.0390148 -0.048085622 0.05492343 0.1828669 0.12472073
0.08302313 -0.044486225 0.061099753 -0.0040128976 0.11487155 -0.12058106 0.046685755 -0.053320035
0.007854697 -0.005026251 0.07951839 0.09902936 -0.07663693 0.010206538 -0.027997583 0.0029368252
0.06395753 0.026568532 0.0154486345 -0.089063436 0.006278023 -0.10706298 -0.08551936 -0.04476714
0.046991803 0.104601935 -0.101406075 -0.108718306 0.0267995 0.02718861 0.015191775 0.07174121
-0.103235036 0.05479245 0.0626245 0.09034905 -0.1235508 0.044646308 -0.099211015 -0.019026011
0.08822048 -0.0032705977 -0.06151819 0.03277719 0.12354429 -0.028312668 -0.005399242 0.063136905
0.11436862 -0.09157741 0.018274782 0.020747036 -0.12205756 0.02819766 -0.027881645 -0.124829546
0.06931385 0.119715095 0.040012795 -0.11912246 -0.024148054 -0.014178976 0.10354913 -0.07585632
-0.124980435 -0.12290147 -0.10796872 0.017668426 0.11398564 0.040518835 0.065173924 0.10625276
-0.035397768 0.082759306 -0.07785508 -0.027320966 -0.0035203362 0.10681028 0.112625554 -0.12411407
0.031078726 0.092712164 -0.06207988 0.050956517 0.106359884 0.11027108 -0.101528585 0.046010554
-0.006887578 0.098179564 0.09384147 0.029831447 0.05109083 -0.023166236 0.07968003 0.0659789
0.032837987 0.1229946 -0.071873434 -0.110644 0.046613723 -0.009875283 -0.09332117 0.06391648
-0.029502943 -0.035778843 -0.06769198 0.047683597 -0.0075027198 0.09861292 0.045464605 -0.06067404
0.049825087 -0.054815315 -0.05723331 -0.095402345 0.033098716 0.0637808 0.092177674 -0.119528905
-0.13194293 0.10081038 -0.058949657 0.026144788 -0.012036659 0.004172355 0.08229302 0.031355523
-0.058750924 -0.052036017 0.06666399 -0.009356469 0.028569221 0.06510711 -0.006473799 -0.028239205
0.049095705 0.11384134 0.073500976 -0.05133678 0.0062898984 0.13505027 -0.11859207 0.08009635
-0.03903395 -0.061155617 -0.08229707 -0.026584193 0.08419341 0.06555943 -0.10797875 -0.08807381
-0.09068176 0.11123837 0.10156683 -0.017150758 -0.06724902 0.0075500067 -0.04536127 0.11566925
0.06302652 0.05645586 0.05530024 0.04486884 -0.10473904 0.0076704933 -0.06806134 0.12688357
-0.060440525 -0.049550466 -0.013043237 0.11763331 0.09745404 -0.025337517 -0.02119106 0.048852816
0.024184793 -0.07752508 0.004274816 -0.08571662 0.10783866 -0.013854073 0.10447443 0.09235366
0.031387575 -0.08701195 0.1356013 0.059983075 -0.03905662 -0.07293868 0.14292893 0.031369716

fnn.2.bias f4 [64]
00000000: 5503 e83d 11a9 c6bd 1cea 08be 43c4 4c3c
00000010: 70e1 3bbc ae5c 843d ac6a bf3d 526e bbbd
00000020: 3f95 9ebb 219a 683d 2f84 993c ae43 6ebd
00000030: b673 893d c01e 79bd a5f5 9c3d daa2 a43d
00000040: 34e7 9ebd 8eb8 d13d ca9f 0e3c e4a6 c03a
00000050: 58bf 9cbc ce5d c2bd e6c2 13be 7657 ecbd
00000060: 0039 79bd bb81 223e a202 92bd ce08 a1bd
00000070: 7a0e fdbd 54d2 313c 6639 8ebd 9fe5 8b3d
00000080: fd18 7dbd 4d81 f8bc 8a89 0abe 3dda 6ebc
00000090: a964 143e da89 e0ba 2e89 0ebe c5c4 963c
000000a0: a0b5 7ebd 2371 4ebd a045 253e aedb 963d
000000b0: 7f6c e9bc 07a3 233e ed5f 733d c8d3 e13c
000000c0: a9e5 5fbc 4037 f6bc 90bc 993c 464a fabd
000000d0: 1476 30bd 3864 133e f359 0c3c 8254 5e3d
000000e0: 980c 31bd bdcb 063e bf80 103c be5c d33d
000000f0: 4082 013e 28c6 693d 6651 a7bd e5fd 2d3d
0.113287605 -0.097002156 -0.13370556 0.012497964 -0.011467323 0.0646299 0.09346518 -0.09151901
-0.004839569 0.056787614 0.018739788 -0.058170013 0.06711523 -0.06082034 0.076640405 0.08038874
-0.07758942 0.10240279 0.008705089 0.0014698175 -0.019134209 -0.09490548 -0.14429817 -0.11540119
-0.060845375 0.15869801 -0.071294084 -0.078630075 -0.12356277 0.010853369 -0.06944542 0.06830906
-0.06179141 -0.030335093 -0.1352903 -0.014578399 0.14491524 -0.0017130927 -0.13919517 0.018404374
-0.06218493 -0.050400864 0.16139841 0.07366119 -0.028494118 0.15980159 0.059417654 0.027566805
-0.013665595 -0.030055642 0.018766671 -0.12221198 -0.043081358 0.14393699 0.008566367 0.05427981
-0.0432249 0.13163657 0.008819758 0.103204235 0.12647343 0.057073742 -0.081698224 0.04247846

fnn.4.weight f4 [1, 64]
00000000: a229 073e 7f8b 5ebc 20e7 adbd 7487 de3d
00000010: 88b3 cdbd 2a56 03bd 67bb cbbd c0c9 973b
00000020: acb6 c3bd b80b a23d b357 97bb d28d 5ebc
00000030: 221d 823d 22cc f63d aa51 6b3d 5141 18bd
00000040: 6446 643d f59c 9c3d bafd 9bbd 0d06 9e3d
00000050: 5cff 2f3d a885 d2bd 77c2 d23d a9ac 30bc
00000060: b00a 4d3c 219d d53d 0a97 b63d 8c77 423d
00000070: 80ab b13b e578 953d 9cc0 0cbd f9f3 e73d
00000080: ab52 f23d a946 35bf a5fc c2bd 329b 0f3e
00000090: 7a97 d73d fe6f adbd 0812 cdbc 32a8 a93d
000000a0: 209c 92bd cf73 43bd 0124 7e3d b010 073e
000000b0: 2de9 98bc 97e3 303e 04b5 a3bd dc01 573d
000000c0: 4f43 acbc c01a 753b e835 53bd 3884 11bd
000000d0: 8890 ba3d edf1 223e 6170 cc3c 59de 25bd
000000e0: 8428 d23d b02f 873d 3556 b53d ee1b 853d
000000f0: bea5 383d 5ac6 e23d 44fb 3f3d 3af9 b1bc
0.13199475 -0.013583063 -0.08491349 0.108656794 -0.100440085 -0.032064594 -0.099478535 0.004632205
-0.09556326 0.079123914 -0.004618609 -0.013583617 0.06353213 0.12050654 0.057450928 -0.037171666
0.055731192 0.07647125 -0.07616754 0.07715998 0.04296814 -0.10279399 0.102909975 -0.010783353
0.012514755 0.104303606 0.08915527 0.04747729 0.0054220557 0.072984494 -0.034363374 0.11325831
0.11832174 -0.70810944 -0.09520844 0.14024046 0.10526939 -0.084686264 -0.025033012 0.08284034
-0.07158685 -0.047717866 0.062046055 0.1318996 -0.018665874 0.17274319 -0.0799351 0.052492008
-0.021028189 0.0037399977 -0.05156508 -0.035526484 0.091095984 0.159126 0.02495593 -0.04049525
0.10261634 0.066008925 0.08854333 0.06499468 0.04507994 0.11072989 0.046870485 -0.021725286
