NodeRegression/temp_state_dict256.pt (torch, 276050 bytes, 9 tensors)

lstm.weight_ih_l0 f4 [20, 3]
000000 a7 e8 b4 3e ef ae 4d 3f 19 e2 58 bf 05 0e 9c bd
       0.3533375 0.8034505 -0.8472 -0.076198615
000010 10 44 92 3f 77 1a 8e bd f6 72 69 3d 1a 8b f9 3e
       1.1427021 -0.069386415 0.0569944 0.4873894
000020 56 d4 63 bd 93 04 b4 3e 06 45 49 3e c2 6b 69 bd
       -0.05562242 0.3515974 0.19655237 -0.05698753
000030 8b 73 a5 bb 75 38 80 3e 81 88 26 bf 02 07 e2 be
       -0.005049174 0.25043073 -0.6505204 -0.44145972
000040 35 da 80 3f 22 b7 8a bf a6 30 88 be 66 d4 b0 3e
       1.0066592 -1.0837138 -0.26599616 0.34537047
000050 48 4e e7 be b3 98 c7 3d 06 cd 09 3f a1 97 32 be
       -0.4517691 0.09745922 0.53828466 -0.17440654
000060 bb 5a ae 3e aa 76 f3 bd d5 13 e1 3e 25 93 30 be
       0.34053597 -0.11887868 0.43960443 -0.17243631
000070 24 65 4e be 15 a1 8b be e6 68 33 be a5 14 e3 be
       -0.2015577 -0.27271333 -0.17520484 -0.44351688
000080 7a 26 d8 3e 3e 69 1b 3e 98 a3 22 bf a5 d4 e2 3e
       0.42216855 0.15176865 -0.63530874 0.4430286
000090 32 76 d7 be 4a 04 b7 be ca 43 53 3f b1 a2 1a 3e
       -0.42082363 -0.3574546 0.8252531 0.15101124
0000a0 1e 0a 6c be 5c 3f eb be 6e e1 50 bc af ab 92 3e
       -0.23050734 -0.45946777 -0.012749059 0.2864661
0000b0 0a 54 06 bf ed 8a cf 3e b9 22 68 3f f2 95 4d bf
       -0.52471983 0.4053568 0.9067798 -0.80306923
0000c0 65 48 9a bd a9 e6 ac 3e ad db 65 bd 40 ae 67 3e
       -0.075333394 0.3376973 -0.056117702 0.22625065
0000d0 55 86 26 be c7 bb 4c bf 69 9a 6b 3d 30 a7 05 bf
       -0.16262181 -0.79974025 0.057520304 -0.5220823
0000e0 da c5 9d 3e 6d da 51 3d 83 08 05 3f a4 c3 2f bf
       0.3081501 0.051233698 0.5196611 -0.686579

lstm.weight_hh_l0 f4 [20, 5]
000000 a7 67 34 be c6 55 f9 be 56 67 e7 3e 36 7f 8e be
       -0.17617665 -0.48698252 0.45196027 -0.2783143
000010 7f b1 a5 be 06 f9 24 bf d3 66 ae be d7 b7 df 3c
       -0.3236198 -0.6444248 -0.34062824 0.027309341
000020 61 6d 53 3b 6f bc bf 3e c6 7f ae 3e b9 66 d2 be
       0.003226124 0.3744845 0.34081858 -0.41093996
000030 c6 b0 a1 be 1c 70 29 3d 7d c2 d1 3d 93 fc d2 be
       -0.3158018 0.04136668 0.10242174 -0.41208324
000040 c4 31 11 be 74 84 2c be 65 a7 90 3e be 43 a3 be
       -0.1417914 -0.16847402 0.28252712 -0.3188762
000050 ee 12 a3 be 57 2e 51 3e c8 e9 62 be 05 e0 ac 3e
       -0.3185038 0.20427833 -0.22159493 0.33764663
000060 6b 10 08 3e b1 2f 34 3e df 31 38 3e b9 c2 22 be
       0.13287513 0.17596318 0.17987774 -0.15894593
000070 9d 06 8d 3e f1 1f cc be 9a 2c 16 3e 0f a4 df 3d
       0.27544108 -0.3986812 0.14665452 0.109199636
000080 59 1a 90 3e 43 3c fc 3e f2 07 0b be 57 6b b3 be
       0.28145102 0.49264726 -0.1357725 -0.3504283
000090 86 6e 7b be 52 f1 8f be fa d7 15 3e f5 ec 16 3a
       -0.2455388 -0.281138 0.1463317 0.0005757355
0000a0 17 f3 8b be d5 af 30 3e 82 f4 cb be 35 1e 1a be
       -0.273339 0.17254575 -0.39834982 -0.15050586
0000b0 b0 db 6d 3e b5 86 eb 3d d1 35 48 be c5 b5 cf 3d
       0.23228335 0.11500303 -0.1955178 0.10142092
0000c0 e4 e7 aa be 47 1a cd 3d 67 34 bc be 21 62 18 be
       -0.33380044 0.10014778 -0.3675873 -0.14881183
0000d0 1c e2 99 be d3 25 14 3e df 7b 30 be a5 8a c3 bd
       -0.3005532 0.14467554 -0.17234753 -0.09547929
0000e0 67 ec 15 bf a7 30 31 be 49 4b 84 3e c9 5a 21 3d
       -0.58563846 -0.17303716 0.25838688 0.03939322
0000f0 24 76 fb bd e9 6e 3b 3f 17 e3 89 be b6 2c b1 3d
       -0.12278393 0.7321611 -0.26931068 0.08651106
000100 24 49 77 be ca e0 7e 3e fa e2 07 3e 18 75 79 3e
       -0.24148995 0.24890438 0.13270178 0.24361074
000110 8a 4d a0 3e ac 35 43 3d b0 11 96 be 38 52 5a 3e
       0.31309158 0.047658607 -0.2931037 0.21320426
000120 5d ea 85 be ae 48 80 3d 50 93 c8 3e 93 80 1d be
       -0.26155367 0.062638626 0.3917489 -0.15381078
000130 6c 0c a4 be 61 e5 84 3b 30 cc ab be 03 57 5b 3d
       -0.32040727 0.0040556644 -0.3355422 0.053549778
000140 f1 43 fc be 83 02 41 3e e7 17 24 be 3a b1 eb be
       -0.49270585 0.18848614 -0.16024743 -0.4603365
000150 20 67 2b 3f 4b 46 af 3e 8a 1d 75 bc ca a2 0d be
       0.6695423 0.34233317 -0.014960656 -0.1383163
000160 ce 15 d8 be 90 29 00 be b5 05 75 3e e0 ee f1 bd
       -0.42204136 -0.12515855 0.23927958 -0.1181314
000170 8d 27 12 be 11 b0 df be b1 d4 25 3e 41 cc 06 be
       -0.142729 -0.43689016 0.16194417 -0.13163854
000180 a5 8f c4 be ca b0 9d 3e 59 e8 92 bd c7 fd 2f be
       -0.38390842 0.30798942 -0.07173223 -0.17186652

lstm.bias_ih_l0 f4 [20]
000000 22 b7 4c 3e 45 ac 11 3f d2 9c 54 3d 81 19 27 3e
       0.19991735 0.5690349 0.051907368 0.16318323
000010 51 3c c9 bc ce 61 22 3e 54 6a e9 be 33 5a 16 3e
       -0.024564894 0.15857622 -0.45588934 0.14682846
000020 72 9a dc be 66 d2 67 3e be 3e 73 be 79 e6 d4 be
       -0.43086582 0.22638854 -0.23754403 -0.41582087
000030 55 67 ba be 96 fd bf bd 94 30 9c 3e 52 b8 93 3d
       -0.3640696 -0.093745396 0.30505812 0.07212891
000040 26 4e 0d 3f 7f db a2 be f3 38 63 be 00 74 a5 be
       0.5519737 -0.31808087 -0.22189693 -0.32315063

lstm.bias_hh_l0 f4 [20]
000000 ac 1a cb 3e bb 21 26 3e b7 b2 20 3e a7 42 d1 bd
       0.39668787 0.16223805 0.15693174 -0.10217791
000010 4a bf 61 3c 7c 81 f2 3d d0 7d d8 be 44 08 95 be
       0.013778517 0.118411034 -0.42283487 -0.2910787
000020 1b de 43 3e e3 5a 48 3d 6f 85 c3 be d9 53 99 3e
       0.19127695 0.0489148 -0.3818774 0.29946783
000030 2e d5 aa bd f4 7f d9 be 82 c3 8a 3d ff 23 c1 3e
       -0.08341442 -0.42480433 0.067755714 0.37722775
000040 c3 b3 a8 3e cc e2 1a 3e 47 dc b4 bd 8b 40 e3 bd
       0.32949647 0.15125579 -0.08831077 -0.11096295

regressor.0.weight f4 [256, 6]
000000 d1 33 e4 3c 06 d0 c8 bd c0 b9 1a be 84 36 43 bd
       0.02785674 -0.09805302 -0.1510992 -0.047659412
000010 aa 1b c5 3d 8e 67 f4 3d 6e 38 cd be 9c 83 9c 3e
       0.09624417 0.11933814 -0.40082115 0.3056916
000020 89 08 90 3d 2a d1 cc 3e c5 e2 b8 be d5 f7 63 bd
       0.07032878 0.4000333 -0.3611051 -0.055656273
000030 f4 89 d0 3e d5 4b ba 3d b1 ce a4 be af eb cb bd
       0.4073025 0.09096495 -0.32188943 -0.099570625
000040 f1 9c b5 bd f7 56 94 3e 25 54 91 3e 33 fb a3 be
       -0.08867825 0.289726 0.2838451 -0.32027587
000050 28 d3 4c be d6 10 88 be a1 23 53 be cd ad c8 be
       -0.20002425 -0.26575345 -0.2061906 -0.391951
000060 ba 5b 02 3d 72 47 86 3e c8 d7 72 3e 3d bb 8d 3e
       0.03182576 0.26226383 0.23715127 0.27681914
000070 18 af 8f 3e 25 cc 2f 3e b8 50 6d 3e 6e 88 b5 be
       0.28063273 0.17167719 0.23175323 -0.3545565
000080 93 cc 1e 3e 45 ce a6 3e 22 0e 8f 3e 47 8e 3e be
       0.15507726 0.32579246 0.2794047 -0.18608962
000090 57 4c 7c 3e 97 10 42 be f9 72 80 be 3a 8b bb bb
       0.24638496 -0.18951641 -0.25087717 -0.005723384
0000a0 a0 ff 05 3d 33 77 70 3d 08 c2 aa be 54 1d 21 3c
       0.032714486 0.058707427 -0.3335116 0.0098336525
0000b0 f4 69 84 bd 99 7c b4 be 88 0a 27 3d a7 7f a0 be
       -0.064655215 -0.3525131 0.040781528 -0.3134739
0000c0 84 76 c1 3e 59 06 5d bd 1d d4 35 be ff 3c b2 3c
       0.37785733 -0.05396113 -0.17756696 0.0217576
0000d0 88 48 0c bd c3 02 fd bd 68 eb 82 be 29 d1 b3 3c
       -0.03424886 -0.123540424 -0.25570226 0.021950321
0000e0 1d 8f 8a 3e 1c 0d cf 3e f9 2e 12 3e c2 d1 b8 bd
       0.27062312 0.4043969 0.14275731 -0.09024383
0000f0 53 e7 3f bd 0e 91 84 be 06 3e 94 be 8b f4 c8 bd
       -0.046851467 -0.25891918 -0.2895357 -0.09812268
000100 77 e1 2f 3e 6f 31 a1 bc 0f 6e 91 3e c8 b9 c4 3e
       0.17175852 -0.019676892 0.2840428 0.3842299
000110 ab c3 81 be f1 34 28 3e 51 f4 21 be c3 ff a8 3e
       -0.25344595 0.16426446 -0.15815856 0.3300763
000120 2d 0e a1 3e 91 67 2e 3e ec 10 cb be 93 51 b4 be
       0.31456128 0.17031695 -0.39661348 -0.35218486
000130 16 24 8f 3d cc 95 dd 3c 8c 92 55 be 36 9a 27 be
       0.06989305 0.027048968 -0.20856684 -0.1636742
000140 83 d7 16 be 15 37 23 be 33 3c c0 3e ba 2c a1 be
       -0.14730649 -0.15938981 0.37545928 -0.31479436
000150 5a 16 9d be 6d a9 41 bd af a9 72 be 0e df a7 3e
       -0.30681115 -0.047280718 -0.23697542 0.32787365
000160 82 2d 25 3e 26 6c 21 3e 00 c1 89 bc e3 57 5c be
       0.16130641 0.15763912 -0.016815662 -0.21517901
000170 f0 9e 64 bd eb bf 3a 3c 93 18 16 be 18 32 ad be
       -0.055815637 0.011398296 -0.14657812 -0.3382728
000180 1f 28 2d be 6d 30 d4 be 34 99 a6 3c 2d 17 4d 3e
       -0.16909836 -0.41443196 0.020336725 0.20028372
000190 50 79 c8 3d 3a 77 ef 3d e4 99 f4 3d 9b a1 af be
       0.097887635 0.116926625 0.11943415 -0.34302983
0001a0 e8 91 38 be 2f 08 27 bd 03 cf 8a be 63 89 aa 3d
       -0.18024409 -0.04077929 -0.27111062 0.08326986
0001b0 0e 9a af be 76 2e 0c be 00 76 d1 3d fc 76 6e 3e
       -0.34297222 -0.13689598 0.10227585 0.23287576
0001c0 11 d9 d7 be d4 b3 ff bd 65 e3 09 3c e4 92 b3 3e
       -0.42157796 -0.12485471 0.0084160315 0.35073006
0001d0 b0 31 86 bd 5a 08 9d 3e bc 1f 14 3c 8f cc ad be
       -0.06552446 0.30670434 0.009040769 -0.33945128
0001e0 6c 59 95 3d 01 1d 5d bd 77 f8 3d 3e 9d 32 cf 3e
       0.072924465 -0.05398274 0.18551813 0.40468302
0001f0 ec a2 2c bd 9c d6 cb be 1d 6e b8 be a2 0f b3 bc
       -0.042147562 -0.3981217 -0.3602151 -0.02185804
000200 05 dd d0 bd 46 fa ca be 9a 53 28 be 81 75 0e 3e
       -0.10198406 -0.39644068 -0.16438141 0.13912012
000210 b6 dd 6b bd a7 5c 89 3e ba ab 98 3d 0e 3a ab bd
       -0.057584487 0.268285 0.07454629 -0.083606824
000220 c7 72 7d be 5e 56 2f be b4 69 b7 be 90 56 e4 3d
       -0.24750815 -0.1712279 -0.35822833 0.11149323
000230 98 54 03 3e bd 21 ca 3d 1a 76 ca 3e 3f 89 94 3d
       0.12825239 0.09869716 0.3954323 0.0725274
000240 b2 3b 37 be 92 45 a4 3e 72 dd bc be 99 02 15 be
       -0.17893866 0.32084328 -0.368877 -0.14551772
000250 ca 5b 14 be 49 ed ba 3e b1 27 f9 bd 14 7d c3 be
       -0.1448814 0.3650916 -0.12165774 -0.38181365
000260 8f 09 ae bc db bb b0 3e 19 5b bf be d5 6a 88 3e
       -0.021244792 0.34518322 -0.3737419 0.26644006
000270 f9 2c e8 bc 13 cb 05 3e e5 f1 73 3e 5c d2 aa bd
       -0.028341757 0.13065748 0.23822744 -0.08340904
000280 d7 f4 90 3e d0 3c 61 be 4f bc c1 be c2 d8 20 bf
       0.28311798 -0.21995854 -0.3783898 -0.62830746
000290 a7 e1 03 3e 7f d9 38 3e 20 4b 88 3e af 4f 65 3e
       0.12879048 0.18051718 0.26619816 0.22393678
0002a0 71 f5 9d be 14 74 84 3e 2f e2 ca bd 29 a7 07 bd
       -0.3085132 0.2586981 -0.09906422 -0.0331184
0002b0 4d 41 8a be b5 f1 db bd 68 4e bb 3e 6f 0f 33 be
       -0.27002946 -0.10739461 0.36583257 -0.17486356
0002c0 40 44 af 3e 10 bd 6c be 1e 03 3f be 64 83 a8 3d
       0.34231758 -0.23118997 -0.18653533 0.08228186
0002d0 a8 f9 c4 bd 08 c7 8c be 47 f1 2d bd 9a bd 7d 3e
       -0.09617931 -0.274956 -0.042466428 0.24779359
0002e0 83 96 3d be dc 78 ac 3e c9 fc b9 3d 3e 19 5f 3d
       -0.18514447 0.33685958 0.09081418 0.054467432
0002f0 29 47 c3 be 52 4a 6f 3e 44 06 a5 3d bb a6 87 3e
       -0.38140228 0.23368195 0.08057836 0.26494393
000300 5e 04 35 3e e5 84 a3 be 41 c9 12 be 39 d5 fa 3d
       0.17677447 -0.31937328 -0.14334585 0.122477
000310 12 94 08 3e 45 ab 77 3e d2 42 06 be 07 9a 5e 3e
       0.13337734 0.24186428 -0.13111427 0.21738444
000320 15 c2 2d 3d 13 ec 07 3e ff c4 7e be 7a f3 ae 3e
       0.04242142 0.13273649 -0.24879836 0.34170133
000330 67 c9 38 3e 96 d1 1b be a6 0c 5d 3e 91 0c a9 3d
       0.18045579 -0.1521667 0.21586856 0.0825435
000340 11 88 30 bc 4f 58 cd be b2 2b 96 bc 5d cf 36 be
       -0.010774628 -0.40106437 -0.018331382 -0.1785254
000350 de 49 02 3e 48 08 e1 bd 3d 50 01 3e a1 7f 7b be
       0.1272349 -0.10987908 0.12628265 -0.24560405
000360 dd ee 76 3e 10 5a 9c 3c 83 53 ba be 25 af d9 3d
       0.24114557 0.019085914 -0.3639184 0.10629109
000370 10 6f 80 3e b0 28 47 be bb 1c b6 3d 1f f6 ee 3d
       0.25084734 -0.19449115 0.08892199 0.116680376
000380 61 1d 18 bc e7 f1 31 3e f6 8a c8 3e e2 8e c1 bd
       -0.009284348 0.17377435 0.3916852 -0.09451081
000390 49 6a 9c be c3 46 39 3e 0a 14 c7 bd 92 42 86 be
       -0.3054984 0.180934 -0.09720619 -0.26222664
0003a0 40 85 c4 3d ab 53 45 3d af 5f 51 3d d6 be f1 3d
       0.09595728 0.048175495 0.05111664 0.11803977
0003b0 7d 00 b4 3e 71 82 b2 bd 5c 32 ba 3e 16 55 8e 3e
       0.35156623 -0.08716286 0.36366546 0.2779929
0003c0 7b 43 21 be 8f b6 4b be 8a 90 73 bd 9c 5f 24 be
       -0.15748398 -0.1989386 -0.059464015 -0.16052097
0003d0 91 d9 21 bd f3 98 b8 3e 98 a6 61 3d 18 ca 4c bd
       -0.039514128 0.3605419 0.055090517 -0.04999742
0003e0 92 6d 8f bb bc 85 95 be f9 a8 24 3d b9 17 14 3e
       -0.0043770755 -0.29203594 0.040200207 0.14462174
0003f0 1e f2 80 bd f4 89 2c 3e c8 df c3 3e 35 dd a8 be
       -0.0629618 0.168495 0.3825667 -0.32981268

regressor.0.bias f4 [256]
000000 8a 78 69 3c ce 46 95 3e f1 2a 9e bd 77 6d 87 bc
       0.01424993 0.29155582 -0.07723034 -0.01653169
000010 91 54 80 bd 35 73 91 3c a7 70 12 be e9 b8 0d be
       -0.0626613 0.01775513 -0.14300786 -0.13840069
000020 35 ba c6 be 13 d1 36 be ae 1a ae be f6 f3 65 be
       -0.3881394 -0.17853193 -0.3400473 -0.22456345
000030 05 d1 a8 be 0f 7c 42 3e a9 fe 94 3e a4 4f c8 be
       -0.3297197 0.18992637 0.2910054 -0.3912326
000040 ac 1e 65 3e 62 09 3d be b5 68 32 3e f6 9d b0 bd
       0.22374982 -0.1846061 0.17422755 -0.08623879
000050 f6 44 47 3e eb a1 29 3e c3 84 6b be a8 d7 c9 3e
       0.194599 0.16565673 -0.22999863 0.39422345
000060 0c 33 9a 3c df 1c c4 3e 16 40 1f 3c 05 b2 a3 be
       0.01882317 0.38303277 0.009719869 -0.31971756
000070 1a fe 8d 3e 27 da 15 3c b0 f7 bf be d6 70 74 3e
       0.27732927 0.00914625 -0.37493658 0.23871168
000080 17 68 bd be e7 07 41 3e 96 65 0f 3e 3a 26 a1 3e
       -0.36993477 0.18850671 0.14003596 0.31474477
000090 78 18 66 3e e8 b0 2f be 02 12 5d 3e 31 6b 27 be
       0.22470272 -0.17157328 0.215889 -0.16349484
0000a0 e5 7d d0 be a0 09 06 bd 9d 65 72 be 01 d6 27 3e
       -0.4072105 -0.032724023 -0.23671575 0.1639023
0000b0 e6 cb 53 3e 70 90 60 3e a0 4f dd 3d 4a 61 be 3e
       0.2068325 0.21930099 0.10806203 0.371836
0000c0 a8 18 ad 3e 9a 62 32 3e da 11 72 be f8 c6 4e be
       0.33807874 0.17420426 -0.23639622 -0.20193088
0000d0 a0 16 6c 3d 2b 38 ca be 91 b5 d2 3d a0 4c c9 3e
       0.057638764 -0.39495978 0.10288537 0.39316273
0000e0 19 f1 f3 3d d4 6c 4c be b2 22 cf 3d 87 9c a5 3e
       0.1191122 -0.1996339 0.101140395 0.32345983
0000f0 f2 76 a4 3e 10 54 7e 3e c3 6b 9a 3c e0 06 87 3e
       0.32121998 0.24836755 0.018850213 0.26372433
000100 ef fc 5f be 81 55 cf be 42 ba cf be dd e1 29 be
       -0.2187383 -0.40494922 -0.4057179 -0.16590066
000110 46 7a 83 3e 0c 08 74 3e 7e 0c c6 3e 39 f0 86 3e
       0.25679225 0.23831195 0.38681406 0.2635515
000120 4e ed 87 bd 43 f4 07 3e 09 98 98 be 8d eb b2 be
       -0.06637059 0.13276772 -0.29803494 -0.34945336
000130 f5 d1 37 ba 66 0c 29 3e 3b a0 cb 3d 1a 71 f0 bd
       -0.0007012182 0.16508636 0.09942671 -0.117403224
000140 e4 12 3d 3e 9b 67 b1 3e 71 1e ce 3d 9a 0e 19 bd
       0.18464237 0.34649357 0.100644 -0.03736744
000150 1c 20 09 3e 36 bf 1b be 4d 17 94 be 8f 6b a6 be
       0.13391155 -0.1520966 -0.28924027 -0.32503936
000160 48 49 fa 3d 3c d4 e5 3c 7c 0a 52 3e 39 06 c5 3e
       0.122210085 0.028055303 0.20511812 0.3848131
000170 f7 95 ac be 20 b8 a6 bd a2 f2 8c be d0 02 ca 3e
       -0.33708164 -0.08140588 -0.27528864 0.3945527
000180 3d e5 8c 3e c5 ee 8c 3e 73 9f 7f be 0e 99 47 3e
       0.27518645 0.27525917 -0.24963169 0.1949198
000190 e3 7d a4 be 1c 16 80 be 85 24 c2 3e 70 f6 59 3e
       -0.32127294 -0.25016868 0.37918487 0.21285415
0001a0 42 50 62 3e a9 4e c4 3e cf 05 ba be cc ff a8 bd
       0.22100928 0.38341263 -0.36332557 -0.082519144
0001b0 20 18 3c 3e 39 d1 b4 3e e6 b6 2b be f5 b5 ba 3e
       0.18368578 0.35315874 -0.16768989 0.36466947
0001c0 f4 79 cd 3e ba d2 4d 3e 58 3b ea bc 90 2d a3 be
       0.40132105 0.20099917 -0.02859275 -0.318707
0001d0 57 16 75 3e cc de ba 3e 8f 8a 97 be 08 93 c4 3e
       0.23934303 0.36498106 -0.295979 0.38393426
0001e0 e5 36 ce 3e 5e eb 7f 3e d0 2c 62 be df c9 e2 bc
       0.40276256 0.24992129 -0.22087407 -0.02768415
0001f0 f4 16 f9 bd fd 86 9f bc 9c 42 29 be ed f4 56 3e
       -0.12162581 -0.019473547 -0.16529316 0.2099187
000200 c2 09 69 be 76 46 fb 3d 08 eb eb bc 4b fc 5c bd
       -0.22757629 0.12269299 -0.028798595 -0.053951543
000210 50 dd 3b 3e 57 0f c9 3e 9b 15 6c 3d 74 58 31 be
       0.18346143 0.39269516 0.057637792 -0.17318898
000220 6b aa 06 3e 9a a7 9d be bf 1d 53 3c 7a 08 c4 bd
       0.13150947 -0.30791932 0.01288551 -0.09571929
000230 b1 af ca 3e 42 c8 7b 3e 6e 9e bd 3e 77 6e a1 3e
       0.39587167 0.24588111 0.37034935 0.3152959
000240 d2 7c b0 be 8c 05 00 be ae a7 c2 3e 8c 6f 9e be
       -0.3447023 -0.12502116 0.38018554 -0.3094448
000250 0f ea 8a 3e 4c 2c cf 3e e3 aa 27 3e 8e bc a5 3d
       0.27131698 0.40463483 0.16373782 0.080926046
000260 0d d1 a4 bd c3 03 97 be 46 a0 a0 be 0d 87 2a be
       -0.08047686 -0.29495057 -0.3137228 -0.1665308
000270 4d 2c 94 3e 20 f4 47 be ee fe 23 be eb 77 e6 bd
       0.2894005 -0.1952672 -0.16015217 -0.11253341
000280 d8 e8 b6 3e 3a 0a 91 be 1b be f1 bd f9 b9 0f be
       0.3572452 -0.28328115 -0.11803838 -0.14035787
000290 dc 86 0d 3e a4 1c 85 bd f6 c1 ba be 18 3b 04 3e
       0.13820976 -0.064996034 -0.36476105 0.12913167
0002a0 2d 04 c4 3e 60 fa b6 3e b8 35 8c 3e 8d 0d 13 3e
       0.38284436 0.35737896 0.27384734 0.14360638
0002b0 a7 80 23 be b0 bb 0e be b0 65 3b be 73 b2 a0 be
       -0.15967046 -0.13938785 -0.1830051 -0.31386146
0002c0 3e bd 82 3e 4e c6 98 be 11 f8 83 3e fe cb a1 3d
       0.25535005 -0.29838794 0.25775197 0.079002365
0002d0 02 6c ed bc 3c 4a 89 3e df f0 b7 be bf f8 ca 3e
       -0.028982166 0.2681445 -0.35925958 0.39642903
0002e0 1d fc 9c bd 1d 69 b4 be b8 6c 51 be f9 15 74 3d
       -0.07665274 -0.35236445 -0.20451629 0.059591267
0002f0 56 e1 66 be d8 e4 87 3e b9 a6 c3 3e 62 0b 48 be
       -0.22546896 0.2654178 0.38213137 -0.19535592
000300 db 13 33 bc b2 33 24 bc 37 9b 51 be ea 46 5c 3e
       -0.010930027 -0.010022091 -0.20469366 0.21511427
000310 05 03 61 3b f0 36 a4 bd 6b 26 40 3e 73 fc 2d 3e
       0.0034334075 -0.08018291 0.18764655 0.16990833
000320 24 68 d0 be df da 00 bc 97 23 9f be c5 79 c0 3e
       -0.40704453 -0.007864683 -0.3108184 0.37592903
000330 ff 1a 13 3e 5a 0a 79 be a6 c0 8e be 89 9c 93 be
       0.14365767 -0.24320355 -0.27881354 -0.28830364
000340 fa f9 ed 3c 50 ea 15 be 2e c4 a9 3d ce 7e c1 3d
       0.029049862 -0.14640164 0.082893714 0.09448014
000350 50 70 32 be 67 d1 8a bd b2 03 da bc 88 8d 42 3e
       -0.17425656 -0.067782216 -0.02661309 0.18999302
000360 7b d8 cf 3e a0 6a 2f 3e 44 aa c1 3e 74 78 b4 be
       0.4059485 0.17130518 0.37825215 -0.35248148
000370 ea 9d 64 be 7e 85 61 be 99 0f 9a bb 0f b5 96 be
       -0.22325864 -0.2202358 -0.0047015664 -0.29435012
000380 35 19 a0 3d bf 24 b9 be ea e8 72 be 23 89 b0 3d
       0.07817308 -0.36160848 -0.23721662 0.08619907
000390 7a f3 c1 be d2 64 d1 3d 1f b0 be be 09 ac cd 3e
       -0.3788107 0.10224308 -0.37243745 0.40170315
0003a0 86 1e 62 be 3f 3d a7 3e fd 82 a8 3e 3e 83 ad 3e
       -0.22081956 0.32663915 0.32912436 0.33889192
0003b0 4a 24 6a 3e 1a 88 4b 3d 4d fa 07 bb 5d fc 24 be
       0.22865406 0.049690343 -0.0020748556 -0.16111894
0003c0 f1 f1 c5 3e c6 03 53 bd cb 92 6f 3e e7 4e ff 3d
       0.3866115 -0.05151727 0.23395841 0.12466221
0003d0 aa c6 d1 3b 5f 8d c1 be c8 a4 22 3e 54 a0 b2 3e
       0.0064018564 -0.3780317 0.15883172 0.34887946
0003e0 c4 36 78 be 0c f0 c8 be cc 45 a1 be 7a 16 52 3e
       -0.24239641 -0.3924564 -0.31498563 0.20516387
0003f0 fa 71 48 be 6c 46 ed 3c 3c 31 cc 3e c8 d2 60 3e
       -0.19574729 0.028964244 0.39881313 0.21955407

regressor.2.weight f4 [256, 256]
000000 08 a5 20 3d a9 5d 23 bc c2 57 3c bd c8 df 49 3c
       0.039219886 -0.009971061 -0.04598213 0.01232142
000010 dd aa 06 3d 00 70 d2 3a 94 47 36 3d 18 59 09 3d
       0.03287779 0.0016055107 0.044501856 0.033532232
000020 b0 1f 53 bd e0 28 3b 3d b6 42 4c 3d 3f 39 38 bd
       -0.05154389 0.04569328 0.049868308 -0.04497647
000030 e4 2b 77 bd 32 d5 c6 3c 93 f1 ab bc 5c bc 8c 3c
       -0.06034459 0.024271581 -0.020989215 0.01717966
000040 72 c5 6a bd b0 41 fa 3b 11 c5 30 be d0 4d a3 3c
       -0.057317205 0.007637225 -0.17262675 0.019934565
000050 b0 69 e8 3c 03 d6 e1 ba 40 d5 82 bb 99 bf f2 bc
       0.028370708 -0.0017229918 -0.0039927065 -0.029632377
000060 07 46 46 bd 52 aa 91 ba 30 db 10 3c dd d5 19 3d
       -0.048406627 -0.0011113381 0.008841321 0.03755747
000070 7a 3c 4b bc 9d 8d 0a 3d 50 ad 07 3c 0d 54 e5 ba
       -0.012404555 0.03382646 0.008281067 -0.0017496363
000080 64 57 4e 3d de 2f 34 bd f8 c0 5c bd de a6 00 bc
       0.05037631 -0.043990962 -0.053894967 -0.007852284
000090 58 82 56 bc 28 08 0b bd 9f c2 62 3d 15 d4 54 bd
       -0.0130926 -0.033943325 0.055361386 -0.05196007
0000a0 4e 38 b9 39 12 52 09 bd 50 40 7e bc ce d9 43 bc
       0.000353279 -0.033525534 -0.015518263 -0.011953784
0000b0 bf ca 6c bd cb d1 69 3d 26 2a 24 bb 9f 15 40 3d
       -0.05781054 0.05708484 -0.0025049536 0.04689562
0000c0 fd 74 7d 3d a6 9c 13 3d 67 08 e6 3b 40 e1 61 bc
       0.061879147 0.036038063 0.0070200446 -0.013786614
0000d0 c2 c2 14 bc 01 a3 16 bd f4 e4 80 3c b5 6a 53 3d
       -0.009079637 -0.036776546 0.015734173 0.051615436
0000e0 3b d4 17 bd 96 1e 7a bd c0 81 3a 3d b3 6b 18 bd
       -0.037067633 -0.061064325 0.045533895 -0.037212085
0000f0 b6 f4 5d bc 07 2f 21 bd 5b 8e 43 3d c4 0a 90 3c
       -0.013547113 -0.03935149 0.047743183 0.017583258
000100 4a 9c 63 bd 58 59 bd bc 10 fb fd 3c 44 5f 04 3d
       -0.05556897 -0.023113891 0.031003505 0.032317415
000110 ca ce 07 bd 14 28 3e 3d 07 25 c3 3b e7 29 05 3d
       -0.033156194 0.04642494 0.0059553417 0.032510664
000120 f5 0a 4e 3d 2c ec ba bc be ec 6e 3d 4e ad 3a bd
       0.05030342 -0.022817694 0.058331244 -0.045575432
000130 f2 2a 2a 3c a7 9f e7 3c c8 bc cc 3c 22 8e 74 bd
       0.0103862155 0.02827437 0.024992362 -0.05970586
000140 ef 0b 75 3d 13 b4 19 3c 9e 2b e9 bc bc ab 92 bc
       0.059825834 0.009381312 -0.028463181 -0.017904155
000150 80 1e 6e 3a 3b 1c a8 bc bc 52 8d 3c 68 bd 42 3d
       0.00090835243 -0.020521274 0.017251365 0.047543913
000160 62 8c a5 3c d4 7d 36 bd 30 52 a1 bc 33 19 f0 3c
       0.020208541 -0.044553593 -0.01969251 0.02930889
000170 00 aa f6 bb 84 65 7c 3d d8 83 39 3c ef 16 5c bc
       -0.00752759 0.06162025 0.011322938 -0.013433202
000180 1b a1 09 bd 81 45 32 bd 6c 36 df bc 73 ba 4a bd
       -0.033600908 -0.043523315 -0.02724763 -0.049494218
000190 e8 f9 01 3c dc d8 97 3c 4e 37 13 3b bf 63 47 bc
       0.007933117 0.018536024 0.0022463384 -0.012169777
0001a0 26 1f 24 bd d2 a0 2f 3c 93 71 f3 3c 03 87 36 3d
       -0.040068768 0.010719495 0.029717242 0.04456235
0001b0 b4 91 5b 3d 49 06 21 3d 4d 7d 1f 3d 94 71 b3 bc
       0.05360575 0.039312635 0.038937856 -0.021904744
0001c0 15 f3 3b 3c 4a 0d fe 3c 10 d4 1e bd c0 89 3a 3d
       0.0114715295 0.031012196 -0.038776457 0.045541525
0001d0 cd dd 57 3d e4 40 4a 3d 16 c0 85 3d 6e af 29 bd
       0.05270176 0.04937829 0.06530778 -0.04142707
0001e0 58 43 6a bd 81 c4 eb bc e8 f2 3a 3d f4 bd 2c bd
       -0.05719313 -0.028780224 0.04564181 -0.04217334
0001f0 21 81 60 bd d3 e4 ed bb f4 6a 2f bd 70 8a c6 3b
       -0.054810647 -0.007259944 -0.042826608 0.0060589835
000200 54 16 76 3d 83 0e 3d bd bc e0 36 bd da 97 25 bd
       0.060079888 -0.046156418 -0.044647917 -0.04042802
000210 61 e4 49 3d 9b 33 31 bc 52 32 de ba c0 91 8b 3b
       0.049290065 -0.010815526 -0.0016952252 0.004259318
000220 ff cd 70 3d 98 4c 51 bc 00 80 d2 b9 40 38 c3 3c
       0.058790203 -0.012774609 -0.0004014969 0.023830533
000230 d6 24 57 bd 9d 6a fc 3c ef 01 3d bc d7 f2 56 bd
       -0.052525364 0.030812556 -0.011536106 -0.052477684
000240 32 b2 07 3d 80 0e 41 bb d6 e6 13 bd a0 57 16 3c
       0.033128925 -0.0029458106 -0.036108814 0.009176165
000250 da c0 22 bc 0a 4f 34 bb af e3 2d 3c 2f 8f d0 bb
       -0.009933675 -0.0027512931 0.010613366 -0.006364725
000260 d6 8e 7a 3d e0 63 71 3d 30 1d 40 bd 36 e2 1d bd
       0.061171375 0.05893314 -0.046902835 -0.03854581
000270 38 6e 5a 3c a0 d7 09 bd d0 da 38 bc 60 82 63 3b
       0.013331942 -0.0336529 -0.011282638 0.003471516
000280 af 11 ef 3b 60 68 5c bc 78 4d f1 3c a6 98 61 3d
       0.007295809 -0.013452619 0.029455885 0.055077218
000290 6b 80 31 bd f8 38 7a bd 34 16 aa bc 6c 9b 3e 3d
       -0.04333536 -0.061089486 -0.02076254 0.04653494
0002a0 06 82 b4 3c 42 cc 15 bd 04 b9 fd bc b2 26 f2 bb
       0.022034656 -0.03657175 -0.030972011 -0.0073898667
0002b0 c0 ae aa 3a f4 f1 4d 3d cb 78 2d 3e 40 c8 82 bc
       0.001302205 0.050279573 0.1694061 -0.015964627
0002c0 72 6c 51 3d 29 bb 85 3b e2 a0 7b 3d f4 80 11 3d
       0.051128812 0.004081149 0.061432727 0.03552337
0002d0 aa 96 2d bd d0 b5 55 bd c0 f6 7f bc 9d 9a c8 3c
       -0.042380013 -0.052175343 -0.015622795 0.024487788
0002e0 76 74 81 3d 3c 02 a1 bc a1 56 27 be e0 44 cc 3b
       0.06321041 -0.019654386 -0.1634164 0.0062337965
0002f0 a8 0e f1 bc 61 7c 39 bc 98 02 60 3d ec 9e 62 bd
       -0.029425934 -0.011321158 0.054689974 -0.05532734
000300 05 2b ad bc e6 49 7a 3d 1b 5d 12 3d 50 fd 13 3c
       -0.021138677 0.06110563 0.035733324 0.009032562
000310 e6 36 4b bd aa 72 8f 3c 7c 64 33 3c 09 7e a0 3c
       -0.049612902 0.01751073 0.01094925 0.019591348
000320 e0 2f 26 3b 50 70 ae bc 78 74 6d bc 8b fd 1d be
       0.0025358126 -0.02129379 -0.0144931 -0.1542875
000330 f3 e1 6a bc 6a 0d 50 bd 16 05 38 bd ee d1 3e bd
       -0.014336097 -0.050794043 -0.044926725 -0.046586923
000340 c8 43 7c bd cc f8 25 3d 59 c9 c1 3c d7 72 18 3c
       -0.06158808 0.040520474 0.02365558 0.009304724
000350 a9 59 81 3d 1c 38 df 3c c0 8d 09 3c eb e6 80 bd
       0.063159294 0.027248435 0.008395612 -0.06294044
000360 cd 49 3a 3d 65 7d 69 bd 81 a5 e2 3c 38 25 1e bd
       0.04548054 -0.05700435 0.027666809 -0.038609713
000370 20 01 29 3d 00 9e f1 3a a8 8c f6 bc f4 f1 a1 bc
       0.04126084 0.0018433928 -0.030096367 -0.019768693
000380 b2 25 47 3d a6 bd 01 3d 48 5c bc 3b 0e c5 6c 3b
       0.048619933 0.031675003 0.0057483055 0.0036128196
000390 70 31 27 bd 11 53 22 bd f0 f7 5b bd a4 de 20 3d
       -0.04081863 -0.03963 -0.05370325 0.039274827
0003a0 e6 fb 48 3d c5 38 6b 3d 9a cc 3b bd 30 f3 57 3d
       0.049068354 0.057427187 -0.04584942 0.052722156
0003b0 1b 4a 92 bc c2 bb 44 3d 7b 9e 4e 3c 1a b7 67 3d
       -0.017857602 0.048030622 0.012611027 0.056571104
0003c0 c9 3b 03 3c 5a ac 44 bd 41 ac 29 3a 07 58 57 3c
       0.008009859 -0.04801593 0.0006472506 0.013143546
0003d0 89 8a 2e 3d c0 58 cf 3c 58 df 02 bd 1d e0 91 3c
       0.042612586 0.025310874 -0.03195128 0.01780706
0003e0 d0 0b 34 bc 60 c6 a8 3c 10 a3 82 bc be c1 52 bd
       -0.010989144 0.020602405 -0.015946895 -0.0514543
0003f0 01 3d 62 3c 5a 68 63 3d 94 33 d3 bc d7 17 ae 3c
       0.01380849 0.05551944 -0.02578143 0.021251602

regressor.2.bias f4 [256]
000000 48 6e 14 bc 00 cb b7 bb 50 69 89 3c 31 7d a1 bc
       -0.009059496 -0.0056089163 0.01677385 -0.019713016
000010 58 5b 9f 3c a6 ea e5 3c 80 cd 9e bc 05 9c 53 3d
       0.019452736 0.02806599 -0.0193851 0.051662464
000020 44 69 b9 bc e2 8d 51 bd ff fb 02 3d ad a1 7b bb
       -0.022633202 -0.0511607 0.031978603 -0.0038395927
000030 c3 e1 a4 3a 48 c2 e9 bc 86 7d b6 3c c4 5e 86 bd
       0.0012579489 -0.028535023 0.022276651 -0.06561044
000040 a8 29 43 3c 04 9b 26 bd 4f 3d 91 bc bc 73 f3 bc
       0.011911787 -0.04067518 -0.01772943 -0.029718272
000050 b0 ed eb bc 23 c4 50 bd e9 e1 99 3c a0 55 fc bc
       -0.028799862 -0.0509683 0.01878448 -0.030802548
000060 24 7f 17 3d 14 f3 db bc 62 51 00 bd be 01 47 bd
       0.036986485 -0.026849307 -0.031327613 -0.048585646
000070 ac 3c 8f bc 8a 30 18 bd f3 ff 40 3d 9d 89 db bc
       -0.017484985 -0.037155665 0.047119092 -0.026799018
000080 10 39 21 3d ea 78 0b bd 7c e9 5a bc 2e 05 47 bd
       0.03936106 -0.03405086 -0.013361331 -0.048588924
000090 a0 69 ff 3c 7a 0c cf 3c a8 1d 78 bd 9a d9 68 bd
       0.031178296 0.025274504 -0.060575157 -0.056848146
0000a0 dd 27 09 bd 09 a3 bb 3b 8c 28 67 3d a0 4c 6f 3c
       -0.033485282 0.0057262224 0.056435153 0.014605671
0000b0 40 fb dc bc 14 8a 91 3c c8 02 a4 3c 82 c2 4a bd
       -0.026975274 0.017766036 0.020020857 -0.049501903
0000c0 90 3e cd bc b6 4a 20 3d 9c 89 ea bc dc f0 e9 3c
       -0.025054246 0.03913375 -0.02863007 0.028557234
0000d0 87 7c 52 3d 24 73 89 3b e2 56 5b 3c e0 ed 8a 3c
       0.05138829 0.004194634 0.013387414 0.01695913
0000e0 f0 e9 4b 3c 30 7a c5 3c 5e d1 07 3b a0 c0 98 bc
       0.012445912 0.024106115 0.0020724158 -0.018646538
0000f0 eb 9e 70 3d a8 1b c0 3c 72 23 a1 3c 16 6a 35 bd
       0.058745306 0.023450688 0.019670222 -0.044290625
000100 54 f2 3e bd 2d 54 7b 3d 22 be 44 3d ec 3a de 3c
       -0.04661782 0.061359573 0.048032887 0.027127706
000110 8a 33 39 bc cc 01 f5 3c a6 d8 4b bd 9d ec 6f 3d
       -0.011303792 0.029908083 -0.04976716 0.05857526
000120 d9 cb cf bc ca 96 51 3d b2 a0 42 bd 1c d8 92 bc
       -0.025365757 0.051169194 -0.047516532 -0.017925315
000130 70 6b 42 3d 75 e4 52 3c 60 1d db 3c 20 b2 c7 bc
       0.04746574 0.012871851 0.026747406 -0.024376929
000140 d4 ae fa bc 30 36 6e bd b4 14 90 bc a4 c3 66 3d
       -0.030600943 -0.058157146 -0.017587997 0.05633892
000150 af 45 6a ba 4d cd 5b 3d fa 98 6a 3d 7d be 0a bd
       -0.0008936775 0.053662587 0.057274796 -0.03387307
000160 2c be 57 bd c7 f1 b9 3c 38 24 79 bc 1a 96 1d bd
       -0.052671596 0.022698296 -0.015206389 -0.038473226
000170 f8 78 78 bc 20 cc c7 bc db 76 83 bc e8 9d cf bc
       -0.01516556 -0.024389327 -0.016047886 -0.02534385
000180 b8 70 ef bc 4e 81 7e 3d a8 ca 2e bd 30 d7 0d 3d
       -0.029228553 0.062135033 -0.042673737 0.034629047
000190 c0 89 19 bd a8 e0 83 bc 01 b4 11 3d 73 2b 03 3d
       -0.037484884 -0.016098335 0.035572056 0.03202386
0001a0 b0 44 77 bc b8 bb 6e 3c 65 70 75 bd 57 97 1e 3d
       -0.01509206 0.014571123 -0.05992164 0.038718548
0001b0 40 14 0a bb 18 a2 b5 bc 88 8b b3 bc 00 bc f9 ba
       -0.00210692 -0.022172019 -0.02191712 -0.0019053221
0001c0 88 74 05 bc 0c f2 44 3d 39 45 47 3d 70 47 13 3c
       -0.008145459 0.048082396 0.04865 0.0089892
0001d0 03 f8 7a 3c 6c 47 17 bd ad 17 ec 3c ae 7c 4b 3d
       0.01531792 -0.036933348 0.028819883 0.04967945
0001e0 ac b5 2b 3d 56 94 16 3d b7 f1 32 bd c6 58 27 bd
       0.041921303 0.036762558 -0.04368755 -0.040856145
0001f0 8d f6 59 3c f0 7a 4e bc 91 c4 80 3a 69 95 44 bd
       0.013303411 -0.012602553 0.0009824206 -0.04799405
000200 34 91 7f bd 22 88 41 bd 04 fe 41 3d 28 83 ee 3c
       -0.062394336 -0.047248967 0.04736139 0.029115275
000210 03 9e 45 bd 80 1f f4 bb c0 7a f8 3b e8 0a 7a bd
       -0.048246395 -0.007450044 0.0075829923 -0.061045557
000220 40 be 2f bb fe e1 d6 bc 8c 5a bb bc 04 67 e0 ba
       -0.0026816279 -0.026230808 -0.022870325 -0.0017120545
000230 52 57 7d bd 66 39 33 bd 18 2b 2a 3b 00 58 93 b8
       -0.061850853 -0.04375591 0.0025965627 -7.0258975e-05
000240 58 26 fc bc 8a 31 5b bd 1c 3d 88 bd 98 50 c0 3c
       -0.030780002 -0.05351404 -0.06652281 0.02347593
000250 ff be fd bc be f1 39 3a 1e 16 56 bd 79 c6 24 3d
       -0.030974863 0.00070932123 -0.052267186 0.04022834
000260 e5 0d 32 bd 60 74 ad 3c 2a 68 6c 3d 5e b9 74 3d
       -0.043470282 0.021173656 0.057716526 0.059747092
000270 f0 1f 09 bd e0 c5 2f 3b 27 d2 20 bd 76 85 74 3d
       -0.033477724 0.0026820824 -0.039262917 0.05969759
000280 6c d4 2b bd c0 0f 8b 3a b4 47 be 3c a6 fd 12 bb
       -0.04195063 0.0010609552 0.02322755 -0.0022429018
000290 d3 dc 76 bc d2 1b 4a 3d 58 8a 48 bd 69 3a 53 bd
       -0.015067297 0.049342938 -0.04896006 -0.051569376
0002a0 a0 67 1a bd 30 05 d3 bc d7 9f 3c 3d 61 ae 97 bc
       -0.03769648 -0.02575931 0.046050873 -0.018515768
0002b0 ff 24 fd 3c 9c 3d 5d bd b3 e8 c0 bc 92 cc 22 bd
       0.03090143 -0.054013833 -0.02354846 -0.039745875
0002c0 ed 2b 2a 3c 37 d7 1c bd b4 08 56 bd d2 51 2d 3d
       0.010386449 -0.038291182 -0.052254394 0.042314358
0002d0 80 f6 b7 3a c8 cb 71 3c 4b 2e 13 3d 3e 6f 39 bd
       0.0014035255 0.014758058 0.03593282 -0.045272104
0002e0 62 42 74 bd fb 55 74 3c 2a 7c 4e bd 0f 8d 5e 3d
       -0.05963362 0.0149130775 -0.05041138 0.054333743
0002f0 70 7b c7 bb c8 cd 86 bd 52 e4 1e bd 85 8e 1a bc
       -0.006087713 -0.065822184 -0.038791962 -0.009433393
000300 4e 31 13 bd 60 fc 50 3b 63 fa 06 bc a0 23 ff 3c
       -0.035935692 0.0031888708 -0.008238408 0.031144917
000310 28 70 2d bd 0a f8 7a 3d 30 38 14 3c 2b 9a 6e bd
       -0.04234329 0.061271705 0.009046599 -0.058252495
000320 6f 8a 2b 3d 6e ac 75 3d 78 a5 bf 3c 38 1f 3e 3c
       0.041880067 0.059978895 0.023394331 0.011604123
000330 3c d9 a3 3c 14 a5 26 3d 1c 7b fe 3c 98 f5 74 bd
       0.020001046 0.040684775 0.031064562 -0.05980453
000340 5f 3c 2a bd 7c 4b eb bc 66 1d 6b 3d 16 21 ba 3c
       -0.04156148 -0.028722517 0.057401083 0.022720855
000350 92 ec 07 3d f0 ed 08 3d 90 20 c4 3c 70 3e e5 bc
       0.033184595 0.03343004 0.023941308 -0.027983874
000360 08 2e 16 bc 10 0a 0b bd e0 8b 67 3b b0 b9 9c 3c
       -0.009166248 -0.033945143 0.0035331175 0.019131511
000370 ce a9 1e bd 52 d0 12 3d 26 08 4c 3d 76 49 66 bd
       -0.038736157 0.0358432 0.04981246 -0.0562224
000380 ee c9 ad 3c c4 31 79 3d c0 aa 3d bb eb a8 51 3d
       0.021214452 0.060838476 -0.0028940886 0.051186483
000390 55 be 55 bd 3e fd 41 bd f8 19 bf bc e8 a2 e3 3c
       -0.052183468 -0.04736065 -0.023327813 0.02778764
0003a0 40 32 8b bb 6c bc 23 b9 de 37 36 bd 6d 84 19 bd
       -0.0042479336 -0.00015615084 -0.044486873 -0.037479807
0003b0 eb 06 70 bd 00 64 5c ba 5b 7e 21 bd 14 66 87 bc
       -0.058600347 -0.0008407235 -0.039427143 -0.016528167
0003c0 8f 65 22 3c 3c 1d a3 bc dc 4f 27 3b 35 87 06 3c
       0.009911909 -0.019911401 0.0025529778 0.008210947
0003d0 04 23 42 3b fb 68 da 3b 15 df 18 bd d1 5b 40 3d
       0.0029622922 0.0066653467 -0.037322123 0.046962563
0003e0 6d 7a 43 3d 6e e1 98 3c 90 2f bb 3b 20 c8 db 3b
       0.047724176 0.01866218 0.005712457 0.0067072064
0003f0 ec d2 1b bd d0 ef 8c 3b 2c 05 37 3d 8c 7f 5f bd
       -0.038042948 0.004301049 0.044682667 -0.054564998

regressor.4.weight f4 [1, 256]
000000 a7 65 eb 3c aa 5d 6d bd d0 4d 17 3d 7a a9 27 3d
       0.028734995 -0.057950653 0.036939442 0.04093311
000010 e0 49 3e 3c 01 a0 71 3d 86 ef 64 bd 0e 35 57 bd
       0.011614293 0.058990482 -0.05589249 -0.05254083
000020 ce 0c 1c 3d 8a 4e 5d 3d 0e 5d 71 3d b4 80 48 3d
       0.03809815 0.05402998 0.058926634 0.048950866
000030 e3 69 68 3d 12 a1 0f 3d 63 7b f9 3c 05 df b0 ba
       0.056741606 0.035065718 0.030454343 -0.0013494199
000040 96 40 70 bd 8c df cd 3c 5c 4d 8f bc 00 be aa 3b
       -0.058655344 0.02513101 -0.017492943 0.005210638
000050 66 3b 7a 3d 55 3e ba 3c a2 cf 44 3d 32 cc 36 bd
       0.061091803 0.0227348 0.048049577 -0.04462833
000060 34 a3 30 bd 78 56 3c bd 6b 86 0f bd 20 d0 21 3d
       -0.043124393 -0.0459809 -0.0350403 0.039505124
000070 78 fb af bc 40 bb bf bc 36 b6 43 bd 9c 7f 9a bc
       -0.021482214 -0.023404717 -0.04778119 -0.018859677
000080 f4 50 dc bc 27 16 60 bd 4a db 6e bd 78 49 4a 3d
       -0.02689407 -0.054708626 -0.0583146 0.04938647
000090 dc 61 59 bc ad 41 db ba 28 e3 aa bc c0 a9 7b bd
       -0.01326796 -0.0016727947 -0.02086027 -0.061441183
0000a0 40 cb 35 bd 45 a3 4a 3d 60 f3 47 bd 28 50 54 3c
       -0.044383287 0.049472112 -0.048816085 0.012958564
0000b0 8c 84 21 3d 0a b5 12 bd aa a5 7a bd 39 53 08 ba
       0.039433047 -0.035817184 -0.061193146 -0.00052003894
0000c0 a0 58 1d bd 5d 7f 38 bd 8e e0 41 bd b4 07 8d bc
       -0.038414598 -0.045043338 -0.047333293 -0.017215587
0000d0 d6 2a c0 3c 11 ca 99 bc 8f 0e 62 3d 6e 50 35 bd
       0.023457926 -0.01877311 0.055189665 -0.044266157
0000e0 ed db e2 3c 80 c4 18 bd f9 f4 f3 3b 14 bf ef bc
       0.02769276 -0.037296772 0.0074449745 -0.029265918
0000f0 90 3e 7f bc 88 6b 66 3d 43 03 6c 3b b1 14 0c 3d
       -0.015578881 0.056254894 0.0036012686 0.03419942
000100 1a a5 26 3d 32 c2 e3 3c 6d c0 86 bc 40 4f 47 bb
       0.040684797 0.02780256 -0.016449178 -0.0030412227
000110 f3 c3 07 3d c0 f9 bd ba 9d 33 97 3c 7b be 58 3d
       0.033145856 -0.0014493987 0.018457228 0.05291603
000120 0b 56 c3 bc 5a c0 73 bd 48 39 53 3c 4e f2 5f bd
       -0.02384474 -0.059509613 0.012892075 -0.05467444
000130 48 8e 06 bc a6 5e 9f 3c 32 16 c7 ba bd 10 c5 3c
       -0.008212633 0.019454312 -0.001518911 0.024055833
000140 d0 f7 ae 3c 40 ed 7e bb 98 f5 7c 3a 02 53 29 bd
       0.0213584 -0.0038898736 0.00096496334 -0.041338928
000150 3d 1a 46 bd 2b 2c 08 3a 00 82 e2 ba ed 28 37 bd
       -0.048364867 0.000519457 -0.0017281175 -0.044716764
000160 d7 2e 2e bd 38 1f 7a bd 04 f8 15 bd 2c 9e 0e 3d
       -0.04252514 -0.06106493 -0.03661348 0.034818813
000170 b6 64 13 3d a2 61 1f 3d 67 0a a1 bc 00 60 41 37
       0.035984717 0.03891147 -0.01965828 1.1526048e-05
000180 d3 bb 2e 3d e0 45 43 3c 42 d3 10 bd 5d fa 55 3d
       0.042659592 0.011918515 -0.03535772 0.05224072
000190 7e 60 f8 3c 80 d9 79 bd 83 e2 6c 3d 0a 92 74 3d
       0.030319449 -0.06099844 0.057833206 0.059709586
0001a0 20 b2 d8 bb 8e f9 6d bd ca 1c 75 3c 4e 6a c4 3b
       -0.006613031 -0.058099322 0.014960477 0.005994118
0001b0 b8 c0 6f 3d 30 95 7b bd 99 52 17 bc e8 84 ee bc
       0.0585334 -0.061421573 -0.009236001 -0.029116109
0001c0 c0 14 42 3b 16 0b 6d bd ab a1 cf bc ce d3 34 bd
       0.0029614419 -0.0578719 -0.025345644 -0.044147305
0001d0 7c a7 13 3d f2 c3 5f 3d ce f3 b3 bd 80 12 ad 3b
       0.036048397 0.054630227 -0.087867364 0.0052817464
0001e0 88 62 53 3c 31 19 47 bd be 20 25 bb 40 0c 30 bb
       0.01290191 -0.04860801 -0.0025196518 -0.002686277
0001f0 36 68 07 bb 40 05 83 bc a0 55 7e bd 10 93 0c 3d
       -0.002066148 -0.015993714 -0.062093377 0.034319937
000200 22 15 3b 3d 36 7d 6a bd 7a d6 49 3d 61 e0 ff 3c
       0.04567445 -0.057248317 0.049276806 0.031234922
000210 74 92 38 3c 0c 9e fd bc 40 23 a8 3b 2c da c8 bc
       0.011265386 -0.030959152 0.0051311553 -0.024518095
000220 50 df 79 bc e0 ae 80 ba 42 d9 25 bd 10 f7 2a 3d
       -0.015250996 -0.0009817742 -0.040490396 0.041739523
000230 fe da 15 bd 60 f7 66 3c e6 e9 73 bc 24 d9 4b 3d
       -0.0365858 0.014097065 -0.014887309 0.04976763
000240 68 98 23 3d 9c fc 88 bc 56 d0 5b 3d 42 5b 4c 3d
       0.039940268 -0.016722016 0.05366548 0.049891718
000250 f8 72 2d bd 37 a9 13 3d e6 ff 6d bd 1b ab c0 bc
       -0.04234597 0.036050048 -0.058105372 -0.02351909
000260 af 49 0e bd 75 45 a8 bc 4e 43 15 bd 35 3a 27 3d
       -0.03473824 -0.020540932 -0.03644114 0.040826995
000270 5e 13 34 bd 3e 1a 2f 3d b0 4b 09 3c 83 90 b7 3b
       -0.043963782 0.042749636 0.008379862 0.005601944
000280 12 7e 4e bd a4 ca 15 bd 60 cd 4a bb 9d 0c 4b bd
       -0.0504132 -0.036570206 -0.0030945167 -0.049572576
000290 c6 48 68 bd 60 a0 56 bb ca dc 2a 3d 0e cd 2c bd
       -0.056710027 -0.00327494 0.041714467 -0.042187743
0002a0 98 3f f4 bc ec 32 59 3d 78 41 e6 bc ae ba 9a bc
       -0.02981548 0.05302708 -0.02810739 -0.018887844
0002b0 07 a7 24 bd 18 f6 79 bd 70 5e a8 bc 16 a6 c7 3c
       -0.040198352 -0.06102571 -0.020552844 0.024371188
0002c0 ab 86 53 3d ec 60 48 bd 6c 4a db 3c 0c 17 2a bc
       0.0516421 -0.048920557 0.026768886 -0.010381471
0002d0 8c ad 34 3d d8 db 6e bc f9 6d f7 ba b6 52 29 bd
       0.04411082 -0.014578782 -0.0018877379 -0.041338645
0002e0 c8 80 48 3d 28 04 96 3c c0 fd 45 bb ad 21 73 3d
       0.04895094 0.018312529 -0.0030211061 0.059358288
0002f0 b0 aa 2c 3c d7 4e 5f 3d 85 05 e9 3b e8 02 35 bc
       0.010538742 0.054518547 0.0071112537 -0.011048056
000300 ae 44 2f bd 10 64 2c 3d 84 11 3a bc 26 40 1c 3d
       -0.042790107 0.042087615 -0.011356715 0.038147114
000310 94 45 bd bc ae 69 4a 3d e4 3e 31 3d c3 50 39 ba
       -0.023104466 0.04941719 0.043272868 -0.00070692244
000320 08 8c e4 39 38 19 e4 bc 94 0b ac bc c0 51 c0 bc
       0.0004359188 -0.027844056 -0.021001615 -0.023476481
000330 8a eb 5e bd 28 d8 64 3d f8 53 31 3c 12 b5 a2 3c
       -0.054423846 0.055870205 0.010823242 0.019861732
000340 3f 91 42 3d 76 5b 69 3d a4 48 5f 3d df c2 1c bd
       0.0475018 0.05697199 0.054512635 -0.03827178
000350 f7 b9 65 bd 5c 0d d1 3c 00 26 ef 3a 1c 8e 72 3d
       -0.056085553 0.025519066 0.0018245578 0.059217557
000360 14 8d e8 3c 28 33 59 3c 2a ab 35 3d 24 1a 94 3c
       0.028387584 0.0132568255 0.044352688 0.018078871
000370 c4 6b e9 bc 2a 0c 3c bd ee d9 0d bd b4 ea 49 3d
       -0.02849377 -0.045910038 -0.034631662 0.049296096
000380 9f 2a 62 3d 4c 7d ee 3c 1c 9b 17 bd 42 f2 00 3d
       0.055216428 0.02911248 -0.03701316 0.031481035
000390 42 04 54 3d 48 de e4 bc ea e5 33 3d 18 f3 d5 bc
       0.051761873 -0.027938023 0.043920435 -0.026116893
0003a0 00 6b ce bb c5 ba 0a 3d 29 f8 3a 3d ef 55 39 bd
       -0.0062993765 0.033869524 0.04564682 -0.04524797
0003b0 f7 af 16 bc 40 32 c0 3a f7 b4 67 bd 44 e7 df 3c
       -0.009197227 0.0014663413 -0.056569066 0.027331956
0003c0 be 59 6c 3d 26 0e 39 bd 6b a9 dd 3b 6f a0 14 bd
       0.057702772 -0.04517951 0.006764581 -0.036285814
0003d0 5c 7a d5 3c 56 cd 75 bd 5c 03 5a 3d 6e 69 44 3d
       0.026059322 -0.060010277 0.05322586 0.047952108
0003e0 1e 56 d9 3c ce e3 1b 3d c7 4c 9e 3c 6c 80 03 bd
       0.026530322 0.03805905 0.01932372 -0.032104895
0003f0 60 d1 1a bc 8a 6c 37 3d 30 97 2f 3d 7a c1 7f 3d
       -0.009449333 0.044781245 0.042868793 0.062440373
