NodeRegression/temp_state_dict128.pt (torch, 105106 bytes, 9 tensors)

lstm.weight_ih_l0 f4 [120, 6]
00000000: 97cb eabe 7079 e2be dbb0 cbbe 829a e1be
00000010: 1dd2 0cbf 078c 083f 93c2 a1bc d3a8 26be
00000020: 1457 98be c785 41bd 6da2 66be 92a9 7b3f
00000030: 4a2a 633e 5d64 983c 7cc8 16be ee5d 4e3e
00000040: 2687 413d 9cc7 0641 dffc 32bf 49d5 b1be
00000050: 320a 00bf d41d f5be b9e1 c2be ea9f 073f
00000060: 08b9 16bf 8ab2 c9be e377 15bf 5964 f6be
00000070: d04c fbbe e77b 323e 889a e2be 7f86 84be
00000080: cd6f b2be 203d 69be 386d d9be 7b71 103f
00000090: 6335 e93d efef a33e 6898 273e bcd7 b83e
000000a0: 48e4 693e 2de0 8cbf 7522 d13e 7956 ae3e
000000b0: bfd5 b93e a040 943e ea9b b33e 869b b2be
000000c0: 2e05 383e 5caf 903d 363c 103d c6b3 babd
000000d0: 770e 503e 3173 dfbe 582b d0be 3f75 b2be
000000e0: cdaa a6be 2d33 fcbe 129f 13bf 1ffe d43f
000000f0: da0a 103d 5c86 7bbe 4078 63be 1ca4 92be
00000100: cf35 b3be 9bdd fb3e 2c30 abbe fd6c f1be
00000110: 3b43 09bf af9e 68be 8fc6 b1be ba44 183f
00000120: 7098 4f3f e3a5 373f dabb 263f c572 203f
00000130: 24c5 143f ad07 00bf 7786 14be b61d 193e
00000140: 85f5 36be c1de 8b3d c074 243e e762 f63e
00000150: 284a 053f 7528 b93e d448 ff3e 6b14 0d3f
00000160: 0cfd 2b3f fd7e d0be d5f5 20bf ed0d c3be
00000170: 5890 0ebf 2d8f e5be e8be e9be 2b62 073e
00000180: 7e86 6b3e 9213 8dbd 36da 183e 3893 a73c
00000190: 811a 143d f101 57bd 9e6d a13e ea07 a13d
000001a0: c4e7 0a3e 4b00 983d c8c4 fabc 0086 973f
000001b0: 214c e5be 53ba 93be 1071 bdbe fa23 cdbe
000001c0: 2097 d0be 7c63 ad3e 9304 bebe 19ad d0be
000001d0: 82dd d4be 37f0 09bf 7401 c1be 439f fb3e
000001e0: 67b6 15bf 4edb 2abf 92c1 e9be 40ce 14bf
000001f0: 676a eabe 3d48 113f 7e26 d6be 640b 11bf
00000200: c169 01bf d8ea 1fbf eabb a3be b8ea 303f
00000210: f246 26bf 8b53 17bf b100 2cbf 1b27 fcbe
00000220: 4324 d9be 5b90 0cbc 08ac 843e bcec 6c3e
00000230: 862a b73e b288 773e a28e e03e 4037 fbbe
00000240: e56a 6fbe c514 c0be 272c cebe 8822 99be
00000250: c02a b0be a368 5b3f e1c9 cabe 9337 1cbf
00000260: 3233 1bbf 1b10 90be 179b 0cbf c9cb a43e
00000270: 9ca4 17bf 2fde d0be 6cf4 e4be 21e8 22bf
00000280: 3ead 27bf 520c ba3b e329 e9be cff4 b7be
00000290: 1e4c 18bf 7322 32bf 86fa 34bf ef21 173f
000002a0: 149c 08bd 164b 0f3e 848a 56bd dc48 15be
000002b0: c86d e93c 3240 1140 8a68 19bf 224a f8be
000002c0: 0be0 bdbe da19 83be 1cd6 93be 2cf6 1e3f
000002d0: 5d83 b3be 0681 d2be 233c e0be 64b2 08bf
000002e0: 1cf7 01bf 58e1 e73e 54ba e4be 596a b5be
000002f0: 4cc6 f3be 6259 14bf dadb b9be ae0c 9d3e
00000300: 567c edbe e9a3 b9be 5287 91be 35ef c9be
00000310: 4b52 24be c8a7 f53f 52b2 64be 6386 07bf
00000320: 0da6 0ebf ec9d c9be 37d9 c6be 15bd 013f
00000330: 7d70 eebe f0a8 b4be 76fd fabe 4efb 04bf
00000340: 08e1 bebe 9be3 b63e 4423 99be ded0 84be
00000350: a4fc d4be 6378 9bbe 7ad8 f9be cda3 e03e
00000360: 87a2 a8be 4f78 51bd ccaa 96be 29ef 46be
00000370: e3bd 96bd d16d bbbf 8d18 d43e 3a51 d53e
00000380: acf5 2a3f 3b7a 303f b2ce 293f fab9 fdbe
00000390: 4e96 cdbe 058f 99be 08aa d1be 9a86 efbe
000003a0: c977 2dbe 3707 883e ddaf 03bf c472 b0be
000003b0: a9bf 8cbe 6c09 b0be be65 06bf c7de 053f
000003c0: 41d9 c7be d14d bebe fe59 d3be cee1 bcbe
000003d0: 3230 d1be d1bc d93e 96c2 02bf 68ba acbe
000003e0: 5ff3 dfbe edd6 08bf 7f96 eabe 4b05 0c3f
000003f0: c582 2a3f 2752 523f 7f0f 193f db0d 353f
-0.45858452 -0.44233274 -0.39783368 -0.44063193 -0.5500811 0.53338665 -0.0197461 -0.16275339
-0.29753935 -0.04724672 -0.22522898 0.9830562 0.22184101 0.018602544 -0.14724916 0.20153019
0.04724803 8.423733 -0.699171 -0.34733036 -0.50015557 -0.4787432 -0.38062838 0.52978384
-0.58876085 -0.39394027 -0.5838606 -0.48123434 -0.4908204 0.17430077 -0.44258523 -0.25883862
-0.34850922 -0.22777224 -0.4246614 0.5642316 0.11387136 0.32018992 0.16366732 0.36102092
0.22840989 -1.1005913 0.408466 0.34050348 0.36295888 0.28955555 0.3507989 -0.3488428
0.17970726 0.07064697 0.03521367 -0.0911632 0.20318018 -0.43642572 -0.4065807 -0.34855077
-0.32552186 -0.49257794 -0.576646 1.6640052 0.0351666 -0.24562973 -0.2221384 -0.2864083
-0.3500199 0.4919251 -0.3343519 -0.47153464 -0.5361821 -0.22716783 -0.347218 0.5947987
0.81091976 0.717375 0.6513039 0.62675124 0.5811331 -0.5001171 -0.1450442 0.1495274
-0.17867096 0.06829596 0.16060162 0.48122332 0.5206628 0.3616368 0.4986025 0.5510928
0.67182994 -0.40721884 -0.6287511 -0.38096562 -0.55689 -0.44835797 -0.45653462 0.13221042
0.23000523 -0.06888498 0.14926991 0.020455942 0.03615809 -0.052492086 0.31528944 0.078628376
0.13564974 0.07421931 -0.03061141 1.1837769 -0.44784644 -0.28853092 -0.37000322 -0.4006651
-0.407403 0.33864963 -0.37112865 -0.40757063 -0.41575247 -0.53882164 -0.3769642 0.49144945
-0.5848145 -0.6674088 -0.45655495 -0.5812721 -0.45784304 0.5675085 -0.41826242 -0.56658006
-0.5055199 -0.6246772 -0.31979305 0.6910815 -0.64952004 -0.5911185 -0.67188555 -0.49248585
-0.42410478 -0.008579339 0.259125 0.23137182 0.3577463 0.24173239 0.4385882 -0.4906559
-0.23380621 -0.37515846 -0.4026806 -0.29909158 -0.34407616 0.8570654 -0.39607146 -0.610223
-0.6062499 -0.28137287 -0.5492415 0.32186726 -0.5923555 -0.40794513 -0.4471773 -0.6363545
-0.6549872 0.005677738 -0.4553977 -0.35928962 -0.59491146 -0.69583815 -0.7069477 0.59036154
-0.033351973 0.13993487 -0.052378193 -0.14578575 0.02849473 2.2695432 -0.5992514 -0.4849406
-0.37084994 -0.2560566 -0.2887429 0.6209438 -0.3506116 -0.41114062 -0.4379588 -0.533972
-0.50767684 0.4528911 -0.44673407 -0.354327 -0.47612226 -0.5794889 -0.36300546 0.30673736
-0.46383923 -0.36257866 -0.28423554 -0.39440313 -0.16047017 1.9191828 -0.22333649 -0.5293943
-0.55722123 -0.39378297 -0.38837597 0.5067914 -0.46570197 -0.3528514 -0.490215 -0.5194596
-0.3728106 0.35720524 -0.29909718 -0.25940603 -0.41599 -0.30365285 -0.4879797 0.4387497
-0.329365 -0.051140126 -0.29427183 -0.1942717 -0.07360437 -1.4642888 0.4142498 0.41663533
0.66781116 0.6893651 0.66331017 -0.4955595 -0.40153736 -0.29991928 -0.40950036 -0.4678238
-0.16940226 0.26568004 -0.5144022 -0.3446256 -0.27489975 -0.34382188 -0.52498996 0.52293056
-0.3903294 -0.37168744 -0.41279596 -0.36891025 -0.40857083 0.42526868 -0.51078165 -0.33735967
-0.43740365 -0.5345295 -0.45817944 0.54695576 0.6660579 0.82156605 0.5978927 0.70724267

lstm.weight_hh_l0 f4 [120, 30]
00000000: 7d0b f83e ace4 1f3f a60d 2dbf 3ea7 fd3e
00000010: 8ac4 fbbe 5cce 553f 773d 02bf 2767 e63e
00000020: 02ab 55bf 6adb 01bf 8469 39bf 8925 3fbe
00000030: 12e1 ba3e 7403 56bf 0bff b2be b2cb 033f
00000040: 9310 343f 09cc 233f 6d73 2cbf db9b 203e
00000050: 78c7 013f 497d e23e 63ad 03bf 42d8 3b3f
00000060: 4206 bd3e 9f95 743e 3a53 953e d82f 833e
00000070: 0072 4f3f 8020 0abf e209 fcbe 9b34 b33e
00000080: 4988 9cbd c301 c2be c0e5 dc3e 5294 423e
00000090: 3467 063e de35 89be 2492 26be 6f29 ff3e
000000a0: d0b9 c2be c95b e53e 6364 9d3e a9db 94be
000000b0: a1e1 b03e 1e20 ccbe 337e 713e 915c 123e
000000c0: 108c 13be dc78 1cbf cb50 2ebf 3507 c5be
000000d0: d4a6 aa3e 22f6 9a3e 0675 b2be 768f e9be
000000e0: 2a80 dabe 3b57 0bbf d5ab 343e f98e 0a3f
000000f0: cac3 77be 551b c83e 896f c13e 26cb c9be
00000100: 31a1 113f 2ad2 8e3e 5e17 453e b880 a6be
00000110: 22d0 3ebd 6338 ff3e 84da 67be 926d d03e
00000120: 46ea b3bd adef 31be 878b f53e 7625 97be
00000130: e523 f43d 55a7 bfbe 73eb 9abe 6e95 5abe
00000140: 67c5 0cbf d154 9ebe e496 ff3e 3e78 583e
00000150: 424d 07bf bf5f 95be d77c a2be 868a 6abe
00000160: 1bf8 533d ba99 e13e 597f 543e ff74 fc3e
00000170: eae8 2abf da79 3a3e f6ee aebe 5802 003f
00000180: 5bd5 9bbe c114 003f 7156 2bbf 8043 cabe
00000190: bb4c ffbe ae36 5dbe cc08 fc3e 660a eebe
000001a0: e45c bebe 1aba ce3e 7aa5 f03e 3f8c 073f
000001b0: ed0d 2fbf 69d1 573e 623a ab3e 73ab f13e
000001c0: b18f cdbe 013b 533f 5c65 d03e 4a38 c23e
000001d0: 22b3 6a3e 7750 e73e c6dc 1f3f 4501 33be
000001e0: a0e0 aebe 9065 173f ef5b d4be 8a5a 8dbe
000001f0: 55ec 813e 591c eb3e 6947 04bf 1750 93be
00000200: d713 00bf e60d b3be fb26 31bf 4407 5c3e
00000210: bc74 103f c460 15bf 7634 bd3e bcb3 f2be
00000220: 0b24 0d3f 3447 283f c47b 31bf e0b4 10bf
00000230: af61 d3be 3480 df3e 33a8 a73e 91f4 173f
00000240: 0846 a7be a42b 00bf e429 7cbe 46e5 a8be
00000250: af72 d73e cc65 123f 8d32 a2be 8883 e73e
00000260: 957c c8be 9ae7 b6be 0411 063f 53d4 5e3e
00000270: 8d87 843e bbc3 90be 671a d2be 2f9a 8d3e
00000280: 0220 bebe bd3e 253f 3cbe 9a3e 1538 2ebe
00000290: ff76 0f3f 2f24 07bf 3e73 3f3e 0074 923d
000002a0: 4ead cfbd 0693 30bf bbfd 27bf 1847 debe
000002b0: ee17 083f 0772 d33d cdf2 9cbe f8b3 f1be
000002c0: 9583 16bf f86f fdbe 5823 d03e 0280 0d3f
000002d0: f95e 123f c0c7 91be 482a 903e 676e b63e
000002e0: 5b80 c2be dce9 42be 9f22 d9be 22c0 c93e
000002f0: bf66 963e cb97 bfbe b73e c53e 0747 11bf
00000300: 0231 62bd 06ab 193e 5022 13bf 635d d53e
00000310: fa51 c1be 941d 8a3d 48f1 813e 72a1 abbd
00000320: e2a0 173f df27 ce3e fb38 cebe e0a0 81bd
00000330: 1bad eb3e e1d5 263f 3da2 1c3f 352f 013f
00000340: fdac 42be 35e1 24bf f73b ed3e 1a2a f7be
00000350: 05a1 10bf 10f1 8d3e 0e94 29be 8952 bfbe
00000360: 6bd0 813e 742e 0e3f 3be2 9c3e 682d 0cbf
00000370: 8465 cb3e acaa 20bf a953 e0be a302 9c3e
00000380: 0a72 40bf 3a26 59bd 2d43 a4be 4b76 95be
00000390: 1de1 e83e 17c2 333f 3f25 323f 105c 243f
000003a0: e986 903e 51e9 8fbe c176 f23e bfaa 213e
000003b0: 6153 46be 2210 3d3f ba60 d1be 3598 0dbf
000003c0: 6b2d b1be 5d7c 803e 5fe4 aabd 5954 d9be
000003d0: 9397 123f 1e8e b73e e05f 9d3e e4b1 7bbe
000003e0: c80f 87be edbc e03e 1ed0 b4be 71a7 033f
000003f0: d265 6bbe ba09 8fbe fd12 873e 15cd c3be
0.48446265 0.624583 -0.6759895 0.49541658 -0.49173385 0.83518004 -0.5087504 0.45000574
-0.8346406 -0.50725424 -0.7242663 -0.18666662 0.3649984 -0.8359902 -0.34960207 0.5148269
0.7033779 0.6398321 -0.67363626 0.15684454 0.5069499 0.4423621 -0.5143644 0.7337686
0.36918837 0.23885201 0.2916506 0.2562244 0.81033325 -0.5395584 -0.4922629 0.35001072
-0.07643182 -0.3789197 0.43144035 0.19001892 0.13125306 -0.2679891 -0.16266686 0.498363
-0.3803239 0.4479659 0.3074065 -0.29073837 0.3454714 -0.39868253 0.23583297 0.14293124
-0.14408898 -0.61121917 -0.6809203 -0.3848206 0.33330405 0.3026591 -0.34854907 -0.45617265
-0.42675906 -0.5442998 0.17643674 0.5412441 -0.24195781 0.39083353 0.37780407 -0.39412802
0.56886584 0.27894717 0.19247195 -0.3252008 -0.04658521 0.49847707 -0.22641951 0.40708596
-0.087849185 -0.17376585 0.47958013 -0.29520768 0.11920909 -0.37432352 -0.30257758 -0.21346065
-0.5498871 -0.30924085 0.49919808 0.21139619 -0.5285226 -0.2917461 -0.3173587 -0.22904405
0.051750284 0.44062597 0.20751704 0.4930801 -0.6676165 0.18210545 -0.34166688 0.50003576
-0.30436215 0.5003167 -0.66928774 -0.39504623 -0.49863228 -0.2160289 0.4922546 -0.46492308
-0.37180245 0.4037636 0.4700125 0.52948374 -0.68380624 0.21075977 0.3344298 0.47201118
-0.4014869 0.8251191 0.4070233 0.3793357 0.22919896 0.45178577 0.6244625 -0.17480953
-0.3415575 0.5913935 -0.4147639 -0.27608138 0.2537562 0.45920065 -0.51671463 -0.2877204
-0.50030273 -0.3497154 -0.69200104 0.21487147 0.5642812 -0.5835078 0.36954087 -0.4740275
0.5513312 0.6573365 -0.69329476 -0.56525993 -0.41285464 0.436525 0.32745513 0.59357554
-0.32670617 -0.5006659 -0.24625355 -0.32987422 0.42079684 0.5718658 -0.31679192 0.45217538
-0.3915755 -0.35723573 0.52369714 0.21760683 0.25884667 -0.2827433 -0.41035768 0.27656695
-0.37133795 0.64548856 0.30223262 -0.17013581 0.5604095 -0.52789587 0.18696305 0.071510315
-0.10140477 -0.6897434 -0.65621537 -0.43413615 0.53161514 0.10324483 -0.30653992 -0.47207618
-0.5879453 -0.49499488 0.40651965 0.5527345 0.57176167 -0.2847271 0.28157258 0.35631105
-0.37988552 -0.19034523 -0.42409226 0.39404398 0.29375264 -0.37420496 0.3852441 -0.56749004
-0.05522252 0.15006647 -0.5747423 0.4167281 -0.37757856 0.06743923 0.25379395 -0.083804026
0.5922986 0.40264794 -0.40277848 -0.063295126 0.46030506 0.65170103 0.61185056 0.5046266
-0.19011302 -0.6440614 0.46334812 -0.48274308 -0.56495696 0.2772298 -0.16560385 -0.37367657
0.25354323 0.5553963 0.3064135 -0.54756784 0.39725888 -0.62760425 -0.43813828 0.30470762
-0.7517401 -0.05301497 -0.320825 -0.29191813 0.45484248 0.7021803 0.69588083 0.64202976
0.28227928 -0.28107694 0.47356227 0.1578779 -0.19367744 0.7385274 -0.4089411 -0.55310374
-0.34604964 0.25094882 -0.083443396 -0.42447165 0.57262534 0.35850614 0.3073721 -0.24579579
-0.26379228 0.4389414 -0.3531503 0.5142737 -0.2298806 -0.27937108 0.26381674 -0.38242403

lstm.bias_ih_l0 f4 [120]
00000000: 92ec 06bf bc34 b8bc fca3 3c3e 4cea 2bbf
00000010: 6cda e9be 26ad b0be 9c27 833e 04f9 d03e
00000020: 6dee 15bd 47b9 89be 723d 4fbc 2f29 d9be
00000030: 2fad 453f 0bc3 1f3e 45c1 1b3f 593d 8abe
00000040: 9bb7 a4bc f7a5 843e 2007 b5bd 0169 cbbe
00000050: d980 e2be 7807 9fbe 2738 00bf d813 b93e
00000060: 7aaa e3be 11b1 c5be dcb8 e0be 77cc 14bf
00000070: 9ee6 9bbd fb21 1cbf 3cae 05bf 9347 0bbf
00000080: b534 b3be 6c30 09bf db51 b1be 8a8c 9cbe
00000090: cfe5 50be c454 283f da5a a2be 8ce1 9abe
000000a0: 405e cbbe cde7 07bf c348 563f 5b94 adbe
000000b0: 0bf5 b73e 4d49 dfbe 2b3b 4dbe ed1d ebbd
000000c0: af62 afbe 1dfc f5be f1b8 febe d9e0 60be
000000d0: 82ed 19bf 2e7a db3d 7691 fbbe 37d4 a7be
000000e0: 8ad1 96be fbe2 f3be a621 d5be 07dc 08bf
000000f0: 64c8 cbbd 5d22 28bd e8d3 1fbe 68b8 eabd
00000100: 67ec bf3e d4c8 a83e 2ae8 0c3f c4b7 293f
00000110: 5c20 c3bd 9e99 ebbe 6104 8cbe 9a7f 8dbe
00000120: 0db8 56bf 1739 7ebd 1689 2cbf 57e5 04bf
00000130: 95a0 d03d 1d44 a33d 06f5 91be 1ce7 033f
00000140: 8545 d83e c3d8 a63e 18cb 0a3f 558c a6be
00000150: 425b 843e 98f6 9fbe d676 d4be df9e 1c3e
00000160: 9878 2c3e 4b50 e2bd c5e9 68be c618 e5be
00000170: 987b 563e aa79 bfbe ea3f edbe 3624 dabe
00000180: ce8c 06bf 3bbf 0abf 1409 aabe 9ac9 f0be
00000190: 9ca4 82be c670 b3be 686a 313f 54e4 ccbc
000001a0: 23bf fcbe 61db c4be c7eb 3abe 21a3 993e
000001b0: 6bce 8bbe 01a7 20bf 154f 07bf 6ee0 aebe
000001c0: 54b6 0abf bf49 013e 343b e6be 5630 a4be
000001d0: 4153 ddbe 91cb abbe 38de 5e3e f596 83be
-0.5270473 -0.022486083 0.1842193 -0.67154384 -0.45674455 -0.34507102 0.25616157 0.40814984
-0.036604334 -0.26899168 -0.012648927 -0.42414233 0.7721738 0.15601747 0.6084178 -0.2699993
-0.020107081 0.2590787 -0.088392496 -0.3972855 -0.44238928 -0.31060386 -0.5008568 0.36147952
-0.44466 -0.38611653 -0.43891037 -0.5812449 -0.07612346 -0.6098935 -0.52218986 -0.5440609
-0.3500115 -0.5358951 -0.34632763 -0.30575973 -0.20400165 0.6575434 -0.3170994 -0.30250204
-0.39720345 -0.53088075 0.83704776 -0.3390225 0.3592914 -0.43610612 -0.20042102 -0.11480317
-0.34254977 -0.4804391 -0.49750474 -0.21960773 -0.60128033 0.10716663 -0.49134415 -0.32779095
-0.2945674 -0.4763411 -0.41627234 -0.53460735 -0.09950331 -0.041048396 -0.1560818 -0.11460954
0.37485048 0.3296572 0.55041754 0.6629603 -0.095276564 -0.46015638 -0.2734709 -0.27636415
-0.8387459 -0.062066164 -0.67396677 -0.51912445 0.101868786 0.07971976 -0.2850725 0.5152452
0.4224054 0.3258725 0.54216146 -0.3252894 0.25850874 -0.31242824 -0.41496915 0.1529498
0.16842878 -0.11050471 -0.22745426 -0.44745463 0.20945585 -0.3739751 -0.46337825 -0.42605752
-0.525586 -0.54198045 -0.3321005 -0.4702881 -0.25516212 -0.35046977 0.6930299 -0.02501122
-0.49364576 -0.38448623 -0.18254004 0.3000727 -0.27305922 -0.6275483 -0.52855045 -0.341556
-0.5418446 0.12625788 -0.44967043 -0.32068127 -0.4322758 -0.33553746 0.21764457 -0.2570111

lstm.bias_hh_l0 f4 [120]
00000000: 6d04 07bf 50d8 8f3c 4daa d5bd a859 c3be
00000010: 4361 21bf 8e0d d0be 0f2c eb3d 4511 ac3e
00000020: 00e1 4d3e 77ea 8bbe 7435 8dbe 4e9e eebe
00000030: 97be 633f b84b 72bd 79fb bf3e 9abf 03bf
00000040: 46d5 7a3e 4510 703e df1d 98be 2cc9 2abf
00000050: 238c f1be 6dfd c4be c150 0cbf 0631 de3e
00000060: bd1c 1fbf f126 d8be 2fd7 22bf 6c57 22bf
00000070: 909a 123e 4349 9ebe aa67 92be 0969 0ebf
00000080: 513f 58be 620a dcbe d9fe 93be e6f9 05bf
00000090: 6949 223d 7d8e b63e a4f3 76be 7d0b 08bf
000000a0: b089 e0be 8eba 97be 5fd7 413f 5fbc c4be
000000b0: cf2b ae3e 697a e4be c50e 4ebe 9121 9cbe
000000c0: 4bcd f5be e8bd 37bf bce7 05bf 610d 82be
000000d0: 5ed3 3bbf 936b 0abe c6a9 8bbe 8046 0dbf
000000e0: b025 eebe b21a d5be 1afe fcbe fa26 88be
000000f0: 1d41 6b3d 07ec 183e 1f62 1abe 412c 0abe
00000100: 989c d53e ce28 973e a573 193f 536a 3b3f
00000110: ede2 853d d346 cfbe 19bd 38be 436c 2fbe
00000120: 91da 55bf 600d d1bd 8db1 3abf 0ab4 4ebe
00000130: eab9 33be 9e70 ba3e 603f d8be 0654 223f
00000140: 1e93 f83e 25fc 9b3e eaef d63e 4966 fdbe
00000150: f207 ca3e 14b0 c4be 98f7 a5be 1b9a 793e
00000160: 7ed2 b93e 5c50 6ebe 0527 c1be 34b9 3dbe
00000170: 6a6f 353e ebc9 aebe 26a1 03bf cf58 66be
00000180: 07e8 5abe 6c97 b4be d65d acbe a5db 01bf
00000190: fe2b 4abe 5d55 d7be 539a 1d3f 04c3 bcbd
000001a0: d76d ddbe 9962 0bbf 665d e3be 69de 4f3e
000001b0: dff2 0cbe 1c59 ddbe 4a20 b9be 72f7 bebe
000001c0: 374c 00bf 3b57 903d 78ce dabe a213 95be
000001d0: 1f00 b8be a27d 97be 18fa 673e 7738 87be
-0.5274113 0.0175592 -0.10432873 -0.3815434 -0.63039035 -0.4063534 0.11483013 0.33606926
0.20105362 -0.2732732 -0.27579844 -0.46605152 0.8896269 -0.059154242 0.37496546 -0.51464236
0.2449542 0.23443706 -0.2971029 -0.66713214 -0.47177228 -0.384746 -0.5481072 0.43396777
-0.62153226 -0.4221721 -0.63609594 -0.63414645 0.14316773 -0.3091527 -0.28594714 -0.5562902
-0.21117903 -0.4297667 -0.2890537 -0.5233444 0.03962079 0.35655585 -0.24116379 -0.5314253
-0.43855047 -0.29634517 0.75719255 -0.38424966 0.34017798 -0.44624642 -0.20122822 -0.3049436
-0.4800819 -0.7177415 -0.52306724 -0.25400832 -0.73369396 -0.13517599 -0.27277964 -0.551857
-0.46513128 -0.4162193 -0.49412614 -0.26592237 0.057435144 0.14933787 -0.15076493 -0.13493444
0.41721034 0.2952332 0.59942085 0.7320911 0.06537423 -0.40483722 -0.18040885 -0.17131142
-0.8353663 -0.10207629 -0.7292717 -0.20185867 -0.1755139 0.36414045 -0.4223585 0.6340946
0.48549742 0.3046581 0.41979915 -0.494921 0.39459187 -0.38415587 -0.32415462 0.24375193
0.36293405 -0.23272842 -0.37725082 -0.1852768 0.17718282 -0.34138426 -0.5141777 -0.22494815
-0.21377574 -0.35271776 -0.3366534 -0.50725776 -0.19743344 -0.42057315 0.61563605 -0.09216884
-0.43247864 -0.54447323 -0.44407195 0.20299686 -0.13764523 -0.43232048 -0.36157447 -0.3729816
-0.50116295 0.07047888 -0.42735648 -0.2911654 -0.35937592 -0.29588038 0.22653997 -0.26410267

regressor.0.weight f4 [128, 31]
00000000: 30b4 f0be 58b0 a3be a125 223f 7892 c5be
00000010: 0c1e 943e 5e19 12bf 4654 af3e f5b6 1fbf
00000020: 0eec 123f 691d a73e 1eca 043f b75b c43e
00000030: 3501 1ebe f65b 073f 3d8c de3e 21ad 4abe
00000040: 7015 b2be 019b 53bf f00a 143f 7adc 07bf
00000050: 582f 9ebe 8c54 1bbf 3506 df3e 1d69 4cbe
00000060: 3291 e8be f287 ccbe 8942 c7be 4716 bbbe
00000070: e66f 16bf 1f40 8e3e a323 7f3e 0ca7 8abe
00000080: 53b1 723e 5233 2bbe 43e7 b3be 75dd ab3e
00000090: 24a4 723e 7113 ebbe 6337 2fbe f6b0 9cbe
000000a0: 6651 2ebf bfac b8be 4dbf 833e 1e5a f43e
000000b0: 26cc e6be a571 9b3e 7bfc 77be 830d ad3e
000000c0: d056 e13e 0890 2abe 84b9 a5be 7cb3 e3be
000000d0: b18f 333f 0b59 1c3e ed7b 893e 994a 29be
000000e0: ea4b 65be f3aa e8be df16 c4be f530 aa3e
000000f0: 20d1 cb3e 7fb0 10bf 2222 90be bc2d 303e
00000100: e2ca edbe f71f c8be e0f3 cf3e e697 783e
00000110: ec0b d0be ce67 e7be 651c 8ebe 689a 00bf
00000120: 0664 c4be 0f6f 643e 943f 333f 0991 77be
00000130: ffe4 ce3e 11e1 a9be 6524 9f3e 8228 e23e
00000140: 3949 cebe c879 b9be 086e e3be c00e 003f
00000150: bbb3 bd3e 143d eb3d 1b59 a6be 6e06 86be
00000160: c499 d5be 794c 85be 8785 0b3e b600 353e
00000170: ee0a febe e800 ea3e af28 043f abd3 bcbe
00000180: 204f 933e 9342 88be 6b02 df3e f838 9dbe
00000190: b68a 043f ad4c 0bbf 7dc4 43be ba15 23bf
000001a0: cc71 04bf a626 093f 0f58 e9be 256d e4be
000001b0: 4a2d e83e dfb4 063f 53e9 603e 36c6 d2be
000001c0: 0cd5 8f3e 50c5 793e dac1 6d3e 15b1 a7be
000001d0: deee 803e 906b a73e 6b46 913e 4b49 fe3e
000001e0: 7891 7f3e 8243 013f ad4e fcbe 4886 d7be
000001f0: 44be 3cbe 4769 e33e 43d1 a4be aa49 ebbe
00000200: e301 c23e 4e84 e23e f8a6 37bf 3c36 0dbe
00000210: 0745 c0be 07ac 01bf 7d3d e4be f01f 863e
00000220: 8d57 2a3f f489 e5be 6723 463e d2da 1cbe
00000230: 30b8 be3e 860f 5d3e 5f9b 60be ae96 d7be
00000240: 951b c5be 7a28 163f 4d23 863e 3654 993e
00000250: 376c 22be 07e6 68be 0b05 4dbe ebaa 97be
00000260: b4e5 283e 6256 943e fa09 34bf 4184 d03e
00000270: 88a4 033f 7b93 dabe d5cd e33e fabe bfbe
00000280: 145d 213f 35a2 82be 4cd2 003f 3c67 06bf
00000290: 02c9 8fbe 115b 0fbf 28cf 06bf e976 aa3e
000002a0: e9f4 19bf f3e1 90be 5b59 443e 6593 ea3e
000002b0: 3dee 473e 728b 11bf 6077 fc3e 721d dc3e
000002c0: 3c9b de3e 4c2c 06bf e319 073f b60f 813e
000002d0: e2d8 a13e b762 4e3e bafa 933e 8a57 f43e
000002e0: 1a78 04bf bf79 fabe 8cee abbd f330 ad3d
000002f0: a7d1 d4bc ba67 213e a4bd 0a3e 468a bbbd
00000300: 0f4e 23be 397c 193e 07c5 80bc 1206 d63d
00000310: 0026 0c3e d2f1 0c3e 467a 243e 4fd4 5a3d
00000320: 8426 c5bd 0c1c 253e 2c19 b33d 4b34 ea3c
00000330: a981 c63d 4ee7 56bd 1214 fbbc 3d7e 043e
00000340: 0359 b13d 60de 87bd 7e9b 293d 2141 abbd
00000350: c38a 223e f143 f8bd f874 e93d 349e 0bbe
00000360: 92d2 063d 6ce8 bbbe 72bc c63e c6f7 01be
00000370: 74c4 64be 6ac8 913e 7da2 9a3e 15e8 24bf
00000380: 9906 06bf 42ed 00be cdcb d2be 42a1 4dbe
00000390: ecd5 c43e 8ada 1c3f bc94 ffbd c47c 8b3e
000003a0: 1afb 41be bcfc d43e 3d94 293f c561 70be
000003b0: eb49 95be b569 87be 6825 e03e d21b 873e
000003c0: fb6d fd3e 002a fdbd 1077 0dbe 271f d7be
000003d0: aef4 b4be cf78 393e 5613 103f c747 fbbe
000003e0: c236 e03e 99ad b33e fafb 16bf fc5a 973e
000003f0: da4c 76be 68b5 083f a5a5 d9be 8ac2 e63e
-0.47012472 -0.31970477 0.6333867 -0.3858831 0.28929174 -0.5706996 0.34243983 -0.62388545
0.5739144 0.32639626 0.51870906 0.38351223 -0.15430148 0.52874696 0.43466368 -0.19792606
-0.3478198 -0.8265839 0.5782919 -0.53070796 -0.30895495 -0.60675883 0.43559423 -0.19961973
-0.45423275 -0.39947468 -0.3891795 -0.36540434 -0.58764493 0.27783296 0.24915938 -0.27080572
0.23700456 -0.16718796 -0.35137376 0.33567396 0.23695427 -0.4591327 -0.17110972 -0.3060376
-0.68092954 -0.36069295 0.25731888 0.47725004 -0.45077628 0.3036014 -0.24217407 0.3379937
0.44011545 -0.16656506 -0.323681 -0.44472873 0.7014113 0.15268342 0.2685236 -0.16532363
-0.2239224 -0.45442924 -0.382987 0.33240476 0.39807987 -0.5651931 -0.2815104 0.17204946
-0.4644385 -0.39086887 0.4061575 0.24276695 -0.40634096 -0.45196384 -0.27756038 -0.50235605
-0.38357562 0.2230799 0.7001889 -0.2417642 0.40409085 -0.33179525 0.31082454 0.4417153
-0.4029024 -0.36225724 -0.44419885 0.50022507 0.37051186 0.11486259 -0.32489857 -0.2617678
-0.41718876 -0.26034907 0.13625155 0.17676052 -0.49617714 0.45703816 0.5162458 -0.3688024
0.28771305 -0.26613292 0.43556532 -0.30707526 0.51774156 -0.5441387 -0.19117923 -0.6370503
-0.5173614 0.535746 -0.45574996 -0.4461452 0.45347053 0.5261974 0.21964006 -0.41166848
0.2809223 0.24391675 0.2321848 -0.3275229 0.2518224 0.3269925 0.28374037 0.49665293
0.24957836 0.50493634 -0.49278775 -0.42094636 -0.18431956 0.44416258 -0.32190904 -0.4595464
0.37892064 0.44241565 -0.7173915 -0.1379022 -0.37552664 -0.5065312 -0.44578162 0.2619624
0.6653984 -0.44831812 0.19349442 -0.15317848 0.372499 0.21587953 -0.2193427 -0.42107147
-0.38497606 0.5865551 0.26198807 0.2994706 -0.15861593 -0.22743998 -0.20021455 -0.29622588
0.16493875 0.28972155 -0.70327723 0.40725902 0.5142293 -0.42690644 0.44492975 -0.3745039
0.6303265 -0.2551438 0.5032089 -0.52501273 -0.28083044 -0.5599833 -0.52659845 0.33293846
-0.6013933 -0.28297386 0.19174711 0.45815578 0.19524474 -0.568534 0.49309826 0.42991215
0.4347781 -0.5241134 0.52773875 0.252073 0.3161078 0.20154844 0.28902227 0.47723037
-0.5174576 -0.4892101 -0.083951086 0.08456602 -0.025978876 0.15762225 0.13548905 -0.09157233
-0.15947746 0.14988793 -0.01571895 0.104503766 0.13686371 0.13764122 0.16062269 0.05342513
-0.09626487 0.1612398 0.087450355 0.028589388 0.096926995 -0.052466683 -0.030649219 0.12938781
0.08659556 -0.066342115 0.041408055 -0.08362032 0.15873246 -0.12122334 0.11399263 -0.13634568
0.03291566 -0.3670076 0.38815647 -0.12692174 -0.22340566 0.28473216 0.30202094 -0.6441663
-0.5235382 -0.12590507 -0.41171113 -0.20081046 0.3844446 0.61270964 -0.12479541 0.27243626
-0.18943444 0.4159907 0.6624182 -0.23474796 -0.29157957 -0.26447836 0.4377854 0.26388413
0.4949797 -0.123615265 -0.1381495 -0.42015955 -0.35342926 0.18112491 0.56279504 -0.490782
0.43791777 0.35093382 -0.58978236 0.29561603 -0.24052754 0.53401804 -0.4250919 0.45070297

regressor.0.bias f4 [128]
00000000: 4828 ba3e f6dd d8be f77b 0abf b76c 9ebe
00000010: 5bf7 d1be 3ec3 73be 98ae 18be 776e 14bf
00000020: a1c6 f2be 65f5 853e e329 5a3c d4bc c5be
00000030: cdfd 92be de21 54be 1598 d9be b239 09bf
00000040: 1def e8be 16ba a3be dbb7 78be e411 d2be
00000050: 08d6 8dbe 3ffc b6be 4303 46bd f147 a4be
00000060: dd53 c0bd b925 37be 5a86 59be 8084 f7be
00000070: f88a d9be 9f16 273c 5707 20be 6d33 eebe
00000080: 8fbf d0be f3b0 f2be 10d8 05bf 4370 b8be
00000090: 0dcb 1dbe 9089 fdbe 77bf 95be d7a2 903e
000000a0: b7f7 dbbe 1db6 d7be ed8c fcbe 0f19 1dbf
000000b0: ca81 c7be 75a4 2abe a4fc 09bf fc6e 30be
000000c0: b6da 5d3e 6eaa b4be 8c16 acbe 4563 00be
000000d0: 6ba3 a0bd 14ac cdbe 58d7 a7be 5052 80be
000000e0: b706 cbbe 3d13 70be 7a5b 09be 579a e4be
000000f0: 7242 c7be b4b0 c5be 94c5 213e 1680 ccbd
00000100: 8200 5e3d 2c77 82be 8346 abbe 5858 6dbe
00000110: 959f 2abf ce63 0bbf 1127 f33b 5823 ecbe
00000120: ddcd efbe f08e b2be a064 07bf 478c d6be
00000130: fb9f c13d 9efb 73be 8bfd 12bf b798 6fbe
00000140: b165 18bf c49d 5ebe 1128 1cbf 24f6 febc
00000150: 9eb7 14bf 3461 edbe 43ec b8be 05f9 18bf
00000160: 8d8c dfbe 4806 fbbe 807e d7be 7d33 b43c
00000170: 564e 1abf fb1e bebe f5d2 f5be 0662 bdbe
00000180: 7385 19bf e813 cebe fa43 3d3e 0dbf e4bc
00000190: 9dae b4be f39d 2bbe 44f8 18bf f566 e1be
000001a0: a188 5ebd bb1e 06bf f05a 08bf 0f5e e7bc
000001b0: 36d0 bfbe 00e6 9dbe 8809 18bf 8130 82bd
000001c0: e635 01bf 42fc 59be 9def bcbe 0456 30be
000001d0: 0000 08bf d45a e7be a7c8 07bf 4f68 babd
000001e0: 7289 d03e ce69 99be 0cb1 14bf 54a5 dbbe
000001f0: 3f68 d8be 62fc fabe 8795 64be 677a f7be
0.36358857 -0.42356843 -0.54095405 -0.30942318 -0.4100903 -0.23804948 -0.14910352 -0.57981056
-0.47417167 0.26163784 0.013315651 -0.38620627 -0.2870926 -0.20716044 -0.42498842 -0.5360366
-0.4549493 -0.3197791 -0.24288885 -0.41029274 -0.27702355 -0.35739323 -0.048342954 -0.32086137
-0.09390996 -0.17885484 -0.21242657 -0.48343277 -0.42488837 0.010198264 -0.156278 -0.4652361
-0.40771148 -0.47400627 -0.5228281 -0.3602315 -0.15409489 -0.49519014 -0.2924764 0.28249237
-0.4296243 -0.4213113 -0.49326268 -0.6136636 -0.3896621 -0.16664298 -0.53901124 -0.17229837
0.21665463 -0.35286278 -0.33610952 -0.12537868 -0.078436695 -0.40170348 -0.32781482 -0.250628
-0.3965356 -0.23444839 -0.13413802 -0.44649002 -0.3891788 -0.38611376 0.15798026 -0.09985368
0.054199703 -0.25481546 -0.33452234 -0.23178232 -0.6664975 -0.54449165 0.0074204286 -0.46120715
-0.4683675 -0.34874678 -0.52887917 -0.41903898 0.09454342 -0.23826453 -0.57418126 -0.233981
-0.5953017 -0.2173987 -0.60998636 -0.031123228 -0.5809268 -0.46363223 -0.36117753 -0.59754974
-0.4366192 -0.4902823 -0.420887 0.021997208 -0.6027578 -0.3713301 -0.4801251 -0.36988848
-0.5996925 -0.40249562 0.18482962 -0.027923131 -0.3528947 -0.16759472 -0.59753823 -0.44023862
-0.05432952 -0.5239064 -0.5326376 -0.028243093 -0.3746354 -0.3083954 -0.59389544 -0.06356908
-0.5047287 -0.21287635 -0.3690156 -0.17220312 -0.53125 -0.45186484 -0.53040546 -0.091019265
0.40729862 -0.29963535 -0.5808265 -0.42899573 -0.42267033 -0.49020678 -0.22322665 -0.48335573

regressor.2.weight f4 [128, 128]
00000000: fd3d b4bd 6520 a0bd e684 a53d 410d a5bc
00000010: ab6b 313d b4f9 813c 7f64 8abd fa40 3d3d
00000020: 2f46 693d a986 dbbf 8ec4 95bd 79bf 91bd
00000030: c22f 75bd 77e5 423d 91dc f13c 03b3 9bbd
00000040: 22d5 8ebc 4bf7 233d 144b 7e39 1d0e 17bd
00000050: 93f0 fcbc 7a40 4fbd 5d41 bd3b 8b13 d5bc
00000060: d6b7 1cbd 172e e4bb 3e2f adbd 75df a5bd
00000070: 91f0 a63d cbe4 943d 4f45 52bd 4bc5 4ebd
00000080: 738d 493d 3b04 91bd ffd3 96bd 7f6d b4bd
00000090: b843 19bc fefe 71bc d4c5 983d c0da efbf
000000a0: 7dd2 913c 64e5 33bd d9a8 a1bd 4ab0 48bd
000000b0: 52c6 9fbd 6d1f 963d 74f2 7cbc 12a2 b43d
000000c0: 2eab dabf cbec 17bd fcc0 5f3d 2f43 9c3d
000000d0: bd99 2dbd 1b44 24bd ccd4 453d 9356 9d3d
000000e0: 532b 863d 7a9c 3cbd a8e4 25bd 9d38 db3c
000000f0: acfd 85bd a496 1f3d 99d1 a2bd 403f 6c3d
00000100: 20ee 0ebb 3e8a 87bd c538 a8bc 8a5b 173d
00000110: 53c2 393d 9d00 08bc 0f35 973c ced5 473d
00000120: eb7f 203d b15c e4bc 5c8b 90bc af79 aabd
00000130: 2a3e d7bf 8802 a23c ed44 73bc c1be 4abd
00000140: c073 a8bd 532a 553d 3e71 893d 363e bcbb
00000150: 1ac3 a9bd 6251 63bd d619 8abb b04a ca3c
00000160: d8d9 113c b247 65bc 6431 9f3d c4a3 9bbc
00000170: 81b2 733d 2cb0 d8bc 9226 b0bd bc59 7d3d
00000180: a3a8 99bc cb37 b2bd e3b9 e2bf 6158 a23b
00000190: 4224 833c b5cd 513a 93c7 ae3d 36a4 a93d
000001a0: a629 dbbf 6eca 86bd 139c 843d 0235 9c3a
000001b0: 57db 97bc 44c4 6cbd 50df 5f3c 135a 683d
000001c0: b404 e43c 21e4 8b39 466c 2bbd 5df8 65bd
000001d0: a619 9c3d e3a7 88bd 2d08 a43c 44b5 883d
000001e0: 8859 d4bf 3b4d 173c b8bc eabc e190 b4bd
000001f0: 711a 983d eb3c 2f3d 2b74 17bd 3f19 ddbb
00000200: 8dd6 8dbb e3f2 f0be df25 dfbe afc8 fbbe
00000210: 2a1f d0be 395e fdbe 922d 4fbd 7b09 ddbe
00000220: 47dd cfbe 0a1c 31bc 78d2 493d c510 07bf
00000230: 3e2b efbe e2e4 08bf a090 f5be 5d41 ecbe
00000240: 584b 10bf 3b7e e8be 146d e1be 5eab cebe
00000250: d5b8 09bf 8913 2abd 12d0 10bd a22c 0fbf
00000260: bcba 193c 3bf0 883c c672 cabe 1487 ecbc
00000270: 0b0a 0ebf 77fd 37bd 9b0e 923d 681d d2be
00000280: 65aa 0cbf 99bb d3be b608 0abf ffb6 cabe
00000290: 2b7b 843d 971a c5be 836c 02bf 03a1 b73c
000002a0: 10b9 70bc 8e56 00bf ec5f 9f3d 729a c9be
000002b0: c6b2 96bc bcf2 0d3d b457 8dbd f46e 1fbd
000002c0: 5dba 803d 75b6 e2be 9062 16bc c8ce 3e3d
000002d0: 4dd3 d5bc 62fa df3c 22b0 87bc 09dd 10bf
000002e0: 0209 e5be cf9d b13d faa5 92bc 620e eebe
000002f0: 4365 07bf f497 03bf 6174 77bd a744 2b3d
00000300: 3621 4e3d 878f ffbe f41a 04bf ecda ecbe
00000310: 0763 fabe 3010 e8be e288 823d 9ae9 e1bc
00000320: 40c7 dbbe 6b76 cebe 8cca 06bf ea0a e2be
00000330: e1e4 f03c f8c0 0bbf 23ba 0bbf 0225 01bf
00000340: a1d5 49bd 1253 f3be 075e 07bf e311 8fbd
00000350: ec2f dabe ed38 e4be b8c0 e1bb 91ca dfbe
00000360: 5b8b d7be 6035 af3d 593c 46bc c53b b1bb
00000370: 8f4b 07bf e818 9dbd 1696 edbe 92ba 00bf
00000380: f462 e6be c902 f83c 34e0 03bd d247 06bb
00000390: 2ccc e6be 8721 8abd 4b7b cfbe ed12 a13d
000003a0: 6d7b 3fbd c289 4b3d 7e6f debe 357c 22bd
000003b0: 35f9 cbbc 8373 89bd 47b0 1abd 2580 2c3d
000003c0: e2fb 8b3c 50eb ebbe 9385 cabe 6390 4d3c
000003d0: 937f 09bf 162b 04bf 4341 e0be 4c6c 26bd
000003e0: 7344 aa3d 8f60 0bbf e68f e9be 6ee8 f8be
000003f0: 8802 07bf aebb b43d a8e9 ccbe 6ffa f8be
-0.08800886 -0.07818679 0.08081989 -0.020147922 0.04331557 0.015866138 -0.06757449 0.046204545
0.056951698 -1.715047 -0.073128805 -0.07116599 -0.05986 0.047582116 0.02952412 -0.07602503
-0.017435614 0.04003076 0.00024251296 -0.036878694 -0.030876433 -0.0505986 0.005775614 -0.026010295
-0.038261257 -0.006963502 -0.08456276 -0.08099262 0.08151353 0.07270201 -0.05133563 -0.050481122
0.049207162 -0.07080885 -0.07364654 -0.08809947 -0.009354524 -0.0147702675 0.07459608 -1.8738632
0.017800564 -0.043919936 -0.07893533 -0.048996247 -0.078014985 0.07330213 -0.015438665 0.08819975
-1.708349 -0.037091058 0.054627404 0.07630002 -0.042382944 -0.040104013 0.048298642 0.07682528
0.06551232 -0.046047665 -0.040501267 0.026760394 -0.06542525 0.03896202 -0.07950134 0.057677507
-0.0021809414 -0.066181645 -0.020534882 0.036952533 0.045351338 -0.0083009275 0.018457917 0.048787884
0.039184492 -0.02787623 -0.017644577 -0.083239906 -1.6815846 0.019776598 -0.014847976 -0.049498323
-0.082252026 0.052042317 0.06711052 -0.005744721 -0.08289166 -0.055497535 -0.0042145057 0.024693817
0.008902036 -0.013994144 0.077730924 -0.018998988 0.059496406 -0.026451193 -0.08601107 0.061853155
-0.01875717 -0.08702048 -1.7712978 0.0049543832 0.0160085 0.000800337 0.085341595 0.08283274
-1.7122085 -0.06581579 0.06475081 0.0011917653 -0.018537207 -0.05780436 0.013664082 0.056726526
0.027834274 0.00026682115 -0.041851304 -0.05614506 0.076220796 -0.06672647 0.02002343 0.06675199
-1.6589823 0.009234722 -0.028654441 -0.08816696 0.07426918 0.042782705 -0.03697602 -0.0067473943
-0.004328555 -0.47060308 -0.4358358 -0.49176547 -0.40648776 -0.4948595 -0.05058057 -0.43171296
-0.4059851 -0.010809908 0.049272984 -0.52759963 -0.4671268 -0.5347425 -0.47961903 -0.46143618
-0.56364965 -0.45408806 -0.44028533 -0.40365118 -0.53797656 -0.041522536 -0.03535468 -0.5592748
0.0093829 0.016716113 -0.3954069 -0.028873004 -0.55484074 -0.044919457 0.07131692 -0.4103806
-0.549475 -0.41354063 -0.5391954 -0.3959274 0.06468805 -0.3849685 -0.50946826 0.022415644
-0.01469256 -0.5013207 0.077819675 -0.39375645 -0.018395793 0.034655318 -0.06901494 -0.038924173
0.06285546 -0.4427983 -0.009178773 0.04658392 -0.026101733 0.027341072 -0.016563479 -0.5658727
-0.44733435 0.08672678 -0.01790141 -0.46495348 -0.5288889 -0.5140374 -0.060413722 0.04181352
0.05032464 -0.4991419 -0.5160363 -0.46260774 -0.48903677 -0.4532485 0.063737646 -0.02757721
-0.42925453 -0.4032472 -0.5265281 -0.44148952 0.029406013 -0.5459132 -0.545809 -0.50447094
-0.049275998 -0.47524315 -0.5287785 -0.069858335 -0.42614686 -0.4457468 -0.006889429 -0.43709233
-0.42098507 0.08555102 -0.012099349 -0.0054087364 -0.5284967 -0.07670766 -0.4640357 -0.50284684
-0.4499737 0.030274766 -0.03219624 -0.0020489586 -0.45077646 -0.06744676 -0.40523753 0.07864938
-0.046748567 0.049691923 -0.43444437 -0.039669234 -0.024899105 -0.06711485 -0.037765767 0.042114396
0.01708788 -0.46077967 -0.39555034 0.0125466315 -0.5371029 -0.51628244 -0.4379979 -0.040630624
0.08313837 -0.5444421 -0.45617598 -0.4861483 -0.5273824 0.088248596 -0.40022016 -0.48628566

regressor.2.bias f4 [128]
00000000: b5d4 ccbf f163 d1be 66b6 c7bd b0e1 b6be
00000010: ba83 e1be 8016 b2be d725 c9be 9cee f5be
00000020: 3d68 ccbe a153 5dbc 48b4 66be 96f1 d3be
00000030: e4d1 b8be 575f c8be 16c5 dfbe 0037 c2be
00000040: be82 ccbe 1e35 f5be b498 abbe 0bb9 f3be
00000050: 711f 393f 1e8a e2be 3f47 0abf 42e9 c9be
00000060: dc79 d7be 4b35 e4be 8905 0bbf 3d82 383e
00000070: e157 ecbe e85d 6b3e 40be 8c3e ad8b 9ebd
00000080: 6d5f 04bf c13c 01bf df50 ddbe 9842 b1be
00000090: 0603 e3be 3d68 b0be 567f d6be 1e47 b9be
000000a0: a708 e6be 29f6 fabe a170 8f3e b9d7 e7be
000000b0: c714 d3be 29b7 cabe e352 c1be a6ab f0be
000000c0: a58d debe ed2f aebe 9b7a fabe 1332 9e3d
000000d0: 70c2 d5be f464 cdbe 5f8b ffbe 6e73 dbbe
000000e0: ee24 e2be f6ca cbbe 15e7 e3be 9b0b e8be
000000f0: 4d87 95bd bdf6 d2be dd78 aebc 109e 653e
00000100: aa78 d3be a39d c4be 3a64 fbbe e602 d8be
00000110: a5f5 a4bd 5647 cdbe 36c1 febe 6380 e9be
00000120: 1cfc f7be c83a 67bd 4469 00bf 56b6 bdbe
00000130: 1fcc 3c3e 7b34 cebe f4f0 d3be 2bcc cfbe
00000140: 59ce e5be f440 9fbe cfa2 e5be 6674 053e
00000150: dfb7 bdbe 460e 6cbd acc6 bdbe a101 8cbd
00000160: 895e c4be 13b8 eabe d85e e8be 30a0 b4be
00000170: f86b 283f 0ab4 063e c01d fcbe 635f ecbe
00000180: ef98 babe 6a56 0bbf 8caf bdbe 54f6 b4be
00000190: c742 e6be b3a0 10bf 8440 84bd 9dbc 01bf
000001a0: 23bc 10bf fa63 c5be 487c c8be ffb1 dcbe
000001b0: e481 e7be 41fe d2be 551e e1be 40a4 01bf
000001c0: 0c97 db3d bfc5 8ebd f916 3e3e f51b 09bf
000001d0: 5433 c7be 1951 a8be 51e6 01bf dc6e efbe
000001e0: 5795 cabe 1bf4 bb3d ba27 e5be 523c 21bf
000001f0: 14b0 ce3d e6d1 cbbe 822b 823d b420 c9bd
-1.6002413 -0.40896562 -0.097515866 -0.3571906 -0.44045812 -0.3478279 -0.39286682 -0.48033607
-0.39923277 -0.013508708 -0.2252971 -0.41395253 -0.36097634 -0.3913524 -0.43705052 -0.37932587
-0.39943498 -0.47892088 -0.3351494 -0.47602114 0.723136 -0.44246 -0.5401496 -0.39435774
-0.4208516 -0.4457191 -0.5430532 0.18018432 -0.46160796 0.22985041 0.274889 -0.07741485
-0.5170811 -0.5048333 -0.43225762 -0.3462112 -0.44338244 -0.34454527 -0.41894025 -0.3618707
-0.44928476 -0.4901593 0.28015617 -0.4528177 -0.4122679 -0.39592865 -0.3775855 -0.47005957
-0.4346744 -0.3402094 -0.48921666 0.07724395 -0.41749907 -0.40116084 -0.4991102 -0.42861503
-0.441688 -0.39803284 -0.4451224 -0.45321354 -0.07301197 -0.4120387 -0.021297866 0.22423577
-0.41302997 -0.38401517 -0.49099904 -0.4218971 -0.080546655 -0.40093488 -0.49756783 -0.45605764
-0.48434532 -0.056452543 -0.5016062 -0.37053174 0.18437241 -0.40274414 -0.4139477 -0.40585455
-0.44883993 -0.31104243 -0.44850776 0.13032684 -0.37054345 -0.0576308 -0.37065637 -0.06836248
-0.38353375 -0.45843562 -0.4538486 -0.35278463 0.6578975 0.13154617 -0.49241447 -0.46166524
-0.36444804 -0.5442873 -0.37047994 -0.35344183 -0.44972822 -0.5649521 -0.06457618 -0.50678426
-0.56537074 -0.3855284 -0.3915732 -0.4310455 -0.45216286 -0.41209605 -0.43968454 -0.5064125
0.10722169 -0.06971311 0.18563451 -0.53558284 -0.38906348 -0.32874373 -0.5074206 -0.46764266
-0.39567062 0.09177419 -0.4475687 -0.62982666 0.10092178 -0.39808577 0.06355955 -0.09820691

regressor.4.weight f4 [1, 128]
00000000: 39a7 dc3f 42fb edbe 5349 c8be b576 db3e
00000010: cf56 d3be 8f9b d13e f1a2 b03e aa2a debe
00000020: 5c28 efbe 4e1f 64be 9039 b8bc 0d62 eabe
00000030: 5977 ba3e 66f8 c93e 2dd8 c53e ffc5 bc3e
00000040: f13d c13e 5e17 b23e 714d d23e eb4f d53e
00000050: 7e44 e4be d146 c53e 0aaa e5be fa71 b63e
00000060: 35cd c93e a5fc cabe 1a68 ecbe 84bf da3e
00000070: 3c93 af3e eff6 8e3e 184d 22be 81d6 94bd
00000080: 2ba1 c13e e4a6 bc3e e79d cd3e 1d33 bd3e
00000090: b839 dfbe 1e5a d03e 0170 d6be 4f67 d63e
000000a0: aa7f c53e ce92 d6be 7a16 17be 7ac6 ddbe
000000b0: 2164 f0be af3b babe 316d dd3e 1ab8 ccbe
000000c0: f7a2 b5be bdcb cc3e 3bae 5f3e d104 163e
000000d0: 169e bf3e 8c42 d63e 38c3 d33e a773 c33e
000000e0: 297d d9be 6095 bebd b370 e1be a2d5 eabe
000000f0: 04b3 d9be b220 c43e 7fd8 6e3c 5ec9 643e
00000100: f234 ccbe d3e8 bf3e 7959 edbe 7173 f0be
00000110: c965 193e 54c5 d43e 4d73 d1be 6be6 c63e
00000120: cfb0 a43e 8407 6f3c 3be9 cbbe fdf0 b33e
00000130: 9fce c63e fd5b b63e 2c3a cd3e 6b79 f0be
00000140: 7d96 cd3e e013 de3e 8383 efbe dee9 be3e
00000150: 3ab2 b23e 1dff 91be 2670 95be 062b 72bd
00000160: dd27 d13e 734e d5be 7f76 d7be f059 ca3e
00000170: b6e2 d9be de79 a6be 923b c33e 7ad1 e9be
00000180: f91f ce3e 58ef ecbe 827e cb3e ed54 d33e
00000190: bb6e b13e 4f30 d9be a5e8 a63d dfc6 c6be
000001a0: 203f d6be 7a93 c43e 2591 dcbe 1c98 e7be
000001b0: 7f3a cabe b887 c03e d749 b93e e705 d13e
000001c0: 0976 6b3e 8a52 493c e9f7 e1bd d210 d3be
000001d0: 785e dabe 33e6 d23e 2e61 e4be 00b9 dbbe
000001e0: 8c35 b13e 9d75 1ebd 88fa c53e 61e2 5cbe
000001f0: f865 943e 13fb d8be b486 dbbc d252 b43e
1.7238532 -0.46480757 -0.39118442 0.42864004 -0.41277167 0.40938994 0.34499314 -0.43391925
-0.4671048 -0.22277567 -0.022488385 -0.45777932 0.3641918 0.39447325 0.38641492 0.3686981
0.3774257 0.34783453 0.41074708 0.41662535 -0.44583505 0.3853059 -0.44856292 0.35633832
0.39414373 -0.39645877 -0.46173173 0.4272424 0.34292018 0.2792277 -0.15849721 -0.07267476
0.37818274 0.36846077 0.40159532 0.3695306 -0.43598723 0.40693754 -0.41882327 0.41875693
0.38573962 -0.41908878 -0.14754668 -0.43315488 -0.46951392 -0.3637366 0.4324737 -0.39984208
-0.35475895 0.3999919 0.21843807 0.14650275 0.37425297 0.41847646 0.41359878 0.38174173
-0.42478302 -0.09305835 -0.44031295 -0.45866114 -0.4251939 0.38306195 0.014577984 0.2234244
-0.39884144 0.37482318 -0.46357325 -0.46963075 0.14980234 0.415568 -0.4090828 0.3884767
0.32166144 0.014589194 -0.39826378 0.35144797 0.38829514 0.35617056 0.40083444 -0.46967635
0.40153876 0.43374538 -0.46780023 0.37287802 0.349016 -0.28514948 -0.29187125 -0.05912306
0.40850726 -0.41661415 -0.42082593 0.39521742 -0.4255578 -0.32514852 0.38131386 -0.4566763
0.40258768 -0.46276355 0.39744955 0.4127573 0.34654793 -0.4241967 0.08149842 -0.38823602
-0.41845036 0.38393766 -0.43079486 -0.45233238 -0.39497754 0.37603545 0.36189148 0.40824816
0.22994246 0.012287745 -0.11033613 -0.4122377 -0.426502 0.41191253 -0.44605392 -0.4291458
0.34611166 -0.038686384 0.38667703 -0.21570732 0.28984046 -0.42379054 -0.02679763 0.35219437
