Definitive/NodeRegression/temp_state_dict256.pt (torch, 26543 bytes, 7 tensors)

lstm.weight_ih_l0 f4 [60, 5]
-0.20094009 0.25862032 0.214923 -0.12061223 0.18357697 0.039191015 -0.008354431 -0.0031890995
0.21231817 0.00037595333 0.058557644 0.20906356 0.027493436 0.21534267 -0.17015436 -0.14113721
0.088833265 0.07319971 -0.28520843 0.14809103 -0.20712967 0.22500311 -0.071453474 0.0019229093
-0.2467493 -0.12502281 0.031287875 0.12142327 0.034344915 0.15067333 -0.21876922 0.11509103
-0.0085759545 -0.13350055 0.046694744 -0.1381364 -0.11536133 -0.00016547249 0.05501909 0.17517106
0.29123995 0.21117245 -0.10027647 0.18134929 0.074303456 0.00951451 -0.093744464 -0.057597537
0.055773273 -0.027141303 -0.076172374 -0.20775947 0.19173081 0.15569094 0.105814114 0.08261279
0.052769884 -0.20389421 -0.0033614642 0.23925877 -0.09040303 -0.22892487 -0.07213282 0.093556374
0.07877201 0.13694523 -0.045843598 -0.12575623 -0.3147195 -0.081102245 -0.01858003 0.25693533
-0.14412557 -0.17154191 0.08656693 -0.30204523 0.05718683 0.3424308 -0.014668685 -0.43185964
-0.03184689 -0.007980379 0.24339588 -0.23845284 0.1449551 -0.3217594 -0.2281647 -0.11029332
-0.29551023 -0.06232189 0.11764808 -0.0072742077 -0.13980092 -0.08041492 -0.26784855 0.08668036
0.062719256 0.2828835 0.012016579 -0.002866174 -0.025128564 0.26132408 -0.15229638 -0.2290599
0.12963681 0.031307194 0.27683794 0.11275691 0.002407356 0.0699232 0.06837677 0.18686582
-0.12368137 -0.014262332 -0.2648102 0.021783642 0.21430336 0.016022148 0.08693113 0.1149209
-0.07612349 -0.10916592 0.09610662 0.093642525 -0.051865704 0.12174932 0.061794735 -0.06504514
0.065211 -0.014496998 0.05736768 -0.17772251 -0.15659992 0.044236016 -0.02031388 0.12627643
-0.22520234 -0.044923797 -0.0684455 -0.18602958 0.13023025 0.21942675 0.17910708 0.023348328
-0.25974303 -0.44771972 0.18923189 0.0326309 -0.22517478 -0.40665358 0.14616862 0.30169365
0.2855884 0.055893973 -0.21611375 -0.0495314 -0.02680153 0.2516436 -0.017490856 0.11149983
0.028589837 0.011952928 -0.07818043 -0.016283596 0.032251466 -0.105841786 -0.07873366 0.11233851
0.15851283 -0.1271945 0.20979467 -0.1382939 0.24060854 -0.06572664 0.23628537 0.11751629
-0.14760439 0.10876229 0.19394486 -0.22221084 0.05039381 0.10260905 -0.10767876 0.059577275
0.09902069 -0.2752276 0.1678837 -0.122699045 0.081843436 -0.2187991 0.007776676 0.04040255
-0.18853079 0.007119373 -0.049567547 0.050907668 -0.14238434 -0.3350026 -0.07640734 0.01902353
0.1579829 -0.18836856 -0.10094832 0.15274675 -0.12607008 -0.12747245 -0.056342535 -0.0689828
-0.17588782 0.052663874 0.17847626 0.06512039 -0.15814118 0.20344146 -0.24861741 -0.15037392
0.10723119 0.06158742 0.15031129 -0.07024518 -0.22404332 -0.10213065 0.10794864 -0.13877265
-0.08036941 0.07056307 0.022870984 0.14902242 -0.24256574 0.0027160733 0.2718168 -0.04027718
-0.028130515 -0.10837414 -0.1312865 0.10503609 -0.20520136 0.00066442095 -0.268323 -0.042512015
-0.40809882 0.173632 0.0791436 -0.27539638 -0.20216732 -0.15587503 -0.11371479 -0.047360517
-0.061508406 -0.26335832 0.09919139 -0.25694546 0.17628811 -0.156529 0.106286615 -0.30172595
00000000: 3dc3 4dbe e269 843e c614 5c3e 8b03 f7bd
00000010: 9afb 3b3e c286 203d 06e1 08bc 3600 51bb
00000020: ef69 593e 9a1b c539 24da 6f3d c214 563e
00000030: ea39 e13c ca82 5c3e f23c 2ebe 4686 10be
00000040: 37ee b53d bbe9 953d d706 92be 2da5 173e
00000050: cd19 54be 3767 663e 3356 92bd 210a fc3a
00000060: d9ab 7cbe fb05 00be b727 003d c3ac f83d
00000070: 41ad 0c3d 1c4a 1a3e 0a05 60be d9b4 eb3d
00000080: 2982 0cbc 5eb4 08be fd42 3f3d a173 0dbe
00000090: 9042 ecbd af82 2db9 b35b 613d 0b60 333e
000000a0: 671d 953e 973d 583e c05d cdbd a1b3 393e
000000b0: 692c 983d bfe2 1b3c 19fd bfbd 65eb 6bbd
000000c0: 8472 643d 7057 debc 4300 9cbd e6be 54be
000000d0: 1555 443e 726d 1f3e 12b5 d83d e530 a93d
000000e0: 3c25 583d a5c9 50be 034c 5cbb 4000 753e
000000f0: 3925 b9bd 486b 6abe 5fba 93bd 7c9a bf3d
00000100: 3853 a13d 5f3b 0c3e 7fc6 3bbd 3ec6 00be
00000110: ea22 a1be ef18 a6bd 2635 98bc 078d 833e
00000120: a795 13be afa8 2fbe 014a b13d aca5 9abe
00000130: bd3c 6a3d 1753 af3e ed54 70bc b51c ddbe
00000140: e271 02bd 23c0 02bc c53c 793e fb2c 74be
00000150: 1c6f 143e a6bd a4be 02a4 69be 77e1 e1bd
00000160: 1e4d 97be 3d45 7fbd 7af1 f03d 7a5c eebb
00000170: f927 0fbe 94b0 a4bd 7223 89be 7985 b13d
00000180: f472 803d 1bd6 903e 2fe1 443c 6cd6 3bbb
00000190: 6bda cdbc 45cc 853e 95f3 1bbe ae8e 6abe
000001a0: 83bf 043e f93b 003d b4bd 8d3e 18ed e63d
000001b0: bbc4 1d3b e533 8f3d 1f09 8c3d c159 3f3e
000001c0: a84c fdbd 8eac 69bc 3495 87be 9c73 b23c
000001d0: 5772 5b3e e140 833c f308 b23d a65b eb3d
000001e0: a2e6 9bbd 6292 dfbd 8cd3 c43d a7c7 bf3d
000001f0: 2271 54bd b557 f93d 7a1c 7d3d 6336 85bd
00000200: 588d 853d d184 6dbc 5ffa 6a3d e4fc 35be
00000210: bb5b 20be d330 353d 4b69 a6bc 9c4e 013e
00000220: 719b 66be 0402 38bd 282d 8cbd 8a7e 3ebe
00000230: 145b 053e 68b1 603e d967 373e fe44 bf3c
00000240: 0afd 84be 853b e5be 01c6 413e fba7 053d
00000250: 3894 66be e634 d0be 3aad 153e 9777 9a3e
00000260: a538 923e 14f1 643d ec4c 5dbe 70e1 4abd
00000270: e28e dbbc 6ed7 803e fc48 8fbc 065a e43d
00000280: 3c35 ea3c 37d6 433c 101d a0bd 2d65 85bc
00000290: 1d1a 043d 94c3 d8bd 1d3f a1bd bc11 e63d
000002a0: 3051 223e 463f 02be 6ad4 563e eb9c 0dbe
000002b0: 1662 763e b09b 86bd cbf4 713e 61ac f03d
000002c0: 9b25 17be c3be de3d 7b99 463e 3d8b 63be
000002d0: bd69 4e3d b224 d23d af86 dcbd 4d07 743d
000002e0: 5ccb ca3d a2ea 8cbe b4e9 2b3e a349 fbbd
000002f0: 889d a73d df0c 60be 7dd3 fe3b 257d 253d
00000300: 370e 41be a149 e93b 5707 4bbd 8f84 503d
00000310: 33cd 11be 7685 abbe 747b 9cbd 3cd7 9b3c
00000320: 45c6 213e b0e3 40be febd cebd a569 1c3e
00000330: 8418 01be 2388 02be 6ec7 66bd db46 8dbd
00000340: f01b 34be 13b6 573d 7bc2 363e d75d 853d
00000350: c3ef 21be f552 503e 9095 7ebe 9ffb 19be
00000360: 079c db3d 1743 7c3d 34eb 193e b4dc 8fbd
00000370: 9d6b 65be e029 d1bd 2d14 dd3d 6b1a 0ebe
00000380: b898 a4bd 5f83 903d ee5b bb3c 5599 183e
00000390: 2763 78be 2600 323b 922b 8b3e aff9 24bd
000003a0: f771 e6bc 43f3 ddbd f86f 06be 291d d73d
000003b0: 4e20 52be 892c 2e3a a261 89be 1421 2ebd
000003c0: 54f2 d0be 96cc 313e 0a16 a23d c100 8dbe
000003d0: f304 4fbe b49d 1fbe 4de3 e8bd 1afd 41bd
000003e0: 3df0 7bbd e7d6 86be db24 cb3d 5b8e 83be
000003f0: df84 343e 2349 20be ccac d93d d37b 9abe

lstm.weight_hh_l0 f4 [60, 15]
-0.21309407 -0.039282437 0.068041034 -0.14035738 -0.011327393 -0.08598953 0.09262209 -0.18029267
0.18984531 -0.15926296 -0.18683448 0.31114548 -0.25977254 0.16742443 0.15057707 0.074549
-0.004870182 0.022400925 0.104097046 -0.16651711 0.1538368 0.17163315 0.010496478 0.12983944
-0.035256375 -0.09260525 -0.16645272 -0.11922273 -0.25766417 -0.0063941125 0.11167326 0.27845454
-0.26251847 -0.19662236 0.18038714 -0.12944826 0.01557647 0.14694068 0.22950844 0.0955514
0.07967957 0.033545054 -0.027287977 0.07349025 -0.21154955 -0.30187884 0.25649554 -0.31028476
0.17015259 0.11538328 0.09479167 0.13570768 -0.049312126 0.112921745 0.20143978 0.052606467
-0.089204915 0.045108847 -0.06836971 0.17589298 -0.17005096 -0.03458436 -0.18358934 0.039499003
0.14784943 0.008619026 0.19995056 0.23284473 -0.18437995 0.27078715 -0.033657074 0.2832396
0.008558449 -0.059358217 0.27135506 -0.21293028 0.030275596 -0.060321577 0.045510337 -0.12560882
0.15667826 -0.015797587 0.116544746 0.13853331 0.20568681 0.07887169 -0.22135288 -0.2365754
-0.2571089 -0.16478363 -0.25060943 0.07594023 0.19898945 -0.2159672 0.05139694 -0.19417968
0.24697565 0.090821005 0.02697205 0.27471098 -0.1416978 -0.099305026 -0.25789443 -0.06402489
0.1501262 0.15904309 0.1286577 -0.06338814 -0.19062869 0.20989484 -0.257299 -0.15397139
0.0951075 0.14025305 0.13491918 0.030177034 0.034335393 -0.039098833 -0.18504286 0.15564224
0.29410246 -0.15024203 0.16926417 -0.048504725 -0.15339746 0.069035046 -0.084967196 0.26950097
0.095346175 -0.0041222717 -0.18549179 0.14034343 0.2311939 0.09492416 -0.054882877 -0.081640616
0.0618416 0.22273551 -0.07370216 0.019479375 -0.2560118 0.08289773 -0.12919597 -0.045999642
-0.1016493 0.27684477 0.19878715 -0.13084354 -0.07692705 0.082573995 0.07542331 -0.10309391
0.08399768 0.06233551 0.1183125 -0.18114276 -0.16586632 0.121841274 -0.007540591 -0.13638528
0.19671747 0.0041289893 -0.19308789 -0.057361975 -0.063898355 -0.116967216 -0.21010284 0.19388837
0.25950566 -0.28630856 0.12964433 0.06189437 -0.07394366 0.010884668 0.008833682 0.010596773
0.25766608 0.25286764 0.03990077 0.36181417 -0.14552684 0.043413725 -0.22343968 0.12982213
-0.016127076 -0.19147836 -0.20995589 -0.088773854 -0.12666231 -0.07322038 -0.24891458 -0.100157484
0.14341581 -0.16559543 0.21022266 -0.005817158 -0.0021935275 0.059710354 0.2071877 0.06014519
-0.009364421 0.23465477 -0.0132289445 0.061503544 0.22831751 -0.14899586 0.2006422 -0.1420714
-0.052438308 -0.13637872 0.11583119 -0.12263658 -0.18705338 0.051947117 -0.1749216 -0.060658254
0.2698589 -0.31789902 -0.15257312 -0.14553463 0.30831718 0.17209287 -0.3119625 -0.3284792
0.2198045 0.17761946 -0.07275579 0.00745427 -0.026093587 0.041182127 -0.22777382 0.22536054
0.2041584 0.1259236 0.0127458135 0.07137887 0.23598532 -0.25421116 -0.20617355 -0.24605511
0.15437542 -0.08998011 0.1951085 -0.011121772 -0.14453946 0.09257455 -0.010752356 -0.17844617
0.07633799 -0.119903564 -0.19052757 -0.1249767 0.06508387 0.011110854 -0.045827348 0.06833729
00000000: 5535 5abe 9fe6 20bd 1959 8b3d d8b9 0fbe
00000010: 8896 39bc 471b b0bd a6b0 bd3d a49e 38be
00000020: cf66 423e d415 23be 8a51 3fbe 764e 9f3e
00000030: e800 85be 4f71 2b3e e030 1a3e 25ad 983d
00000040: 0c96 9fbb 2582 b73c d530 d53d 7683 2abe
00000050: 6587 1d3e 9ac0 2f3e 6bf9 2b3c a1f4 043e
00000060: fd68 10bd d2a7 bdbd 9572 2abe 0c2b f4bd
00000070: 8fec 83be b485 d1bb f3b4 e43d 9891 8e3e
00000080: d268 86be 5f57 49be 68b7 383e 168e 04be
00000090: 7334 7f3c 9e77 163e 4304 6b3e 74b0 c33d
000000a0: 0b2f a33d 8a66 093d 098b dfbc 0e82 963d
000000b0: 72a0 58be dd8f 9abe 6253 833e a5dd 9ebe
000000c0: 7b3c 2e3e 124e ec3d 2322 c23d f4f6 0a3e
000000d0: 83fb 49bd 8443 e73d 3b46 4e3e e179 573d
000000e0: 11b1 b6bd 0ec4 383d 6b05 8cbd 4a1d 343e
000000f0: d721 2ebe 54a8 0dbd d8fe 3bbe b5c9 213d
00000100: d765 173e d136 0d3c d7bf 4c3e d96e 6e3e
00000110: 19ce 3cbe 9da4 8a3e 00dc 09bd c804 913e
00000120: bd38 0c3c 9a21 73bd 0def 8a3e 650a 5abe
00000130: 8704 f83c c213 77bd 0c69 3a3d 999f 00be
00000140: 4470 203e f169 81bc 03af ee3d addb 0d3e
00000150: 909f 523e 7b87 a13d 54aa 62be d240 72be
00000160: c7a3 83be 0abd 28be e14f 80be 8d86 9b3d
00000170: e4c3 4b3e 8126 5dbe 9985 523d 0ad7 46be
00000180: 2fe7 7c3e 5d00 ba3d 7df4 dc3c eba6 8c3e
00000190: 3a19 11be 6f60 cbbd bd0a 84be 7b1f 83bd
000001a0: afba 193e 31dc 223e d8be 033e a4d1 81bd
000001b0: 2b34 43be acee 563e b2bc 83be adaa 1dbe
000001c0: b9c7 c23d 7f9e 0f3e 4128 0a3e d435 f73c
000001d0: 45a3 0c3d 1926 20bd e07b 3dbe ae60 1f3e
000001e0: 9994 963e 0cd9 19be 9653 2d3e e4ac 46bd
000001f0: 3914 1dbe 3f62 8d3d 4803 aebd 08fc 893e
00000200: db44 c33d 1f14 87bb 8ff1 3dbe 30b6 0f3e
00000210: 18be 6c3e 9967 c23d decc 60bd 3233 a7bd
00000220: 9e4d 7d3d c714 643e 28f1 96bd 3693 9f3c
00000230: fb13 83be 49c6 a93d f34b 04be 1f6a 3cbd
00000240: 822d d0bd 99be 8d3e dc8e 4b3e d9fb 05be
00000250: ee8b 9dbd 8e1c a93d 8977 9a3d e622 d3bd
00000260: fa06 ac3d 8553 7f3d d34d f23d 7d7d 39be
00000270: dcd8 29be eb87 f93d 1017 f7bb 95a8 0bbe
00000280: 4e70 493e 794c 873b d5b8 45be 64f4 6abd
00000290: 24dd 82bd 828c efbd 3325 57be ac8a 463e
000002a0: eddd 843e 0997 92be 7cc1 043e f384 7d3d
000002b0: c66f 97bd 9b55 323c 26bb 103c 169e 2d3c
000002c0: cfec 833e de77 813e fd6e 233d b53f b93e
000002d0: fd04 15be 97d2 313d 5fcd 64be 18f0 043e
000002e0: ee1c 84bc e712 44be adfe 56be 11cf b5bd
000002f0: c4b3 01be 91f4 95bd 77e3 7ebe 5e1f cdbd
00000300: 98db 123e d991 29be 9c44 573e dc9d bebb
00000310: 49c1 0fbb d892 743d 0329 543e ce5a 763d
00000320: 3a6d 19bc 5749 703e 37be 58bc 24eb 7b3d
00000330: 11cc 693e 5f92 18be 2675 4d3e 2a7b 11be
00000340: 8dc9 56bd dda6 0bbe e738 ed3d e328 fbbd
00000350: ec8a 3fbe 80c6 543d a61e 33be ca74 78bd
00000360: f22a 8a3e a9c3 a2be 213c 1cbe 0807 15be
00000370: c0db 9d3e 1d39 303e 8cb9 9fbe 6d2e a8be
00000380: 6e14 613e e0e1 353e fd00 95bd f342 f43b
00000390: 38c2 d5bc 97ae 283d 8a3d 69be eac4 663e
000003a0: e60e 513e 1ef2 003e d1d3 503c 162f 923d
000003b0: 23a6 713e f727 82be 291f 53be dff5 7bbe
000003c0: 9714 1e3e 7e47 b8bd 86ca 473e 1838 36bc
000003d0: 2702 14be ba97 bd3d a62a 30bc 98ba 36be
000003e0: 1857 9c3d 0090 f5bd a919 43be c9f3 ffbd
000003f0: b14a 853d 4d0a 363c 75b5 3bbd 6cf4 8b3d

lstm.bias_ih_l0 f4 [60]
-0.26490027 -0.20421349 0.20698527 -0.14556909 0.00058287935 -0.167995 -0.09438967 -0.3280242
0.03420056 -0.025447281 0.12058352 0.012225973 -0.010974991 0.15714183 -0.040619884 0.022059785
-0.08983091 0.12584443 -0.12549463 -0.07495948 -0.028350083 0.17914507 -0.115021 0.016409805
-0.23609504 -0.2064275 0.15417816 -0.11534762 -0.12934661 -0.29774392 -0.043594163 -0.05271542
0.17787188 0.16809694 0.12510216 -0.12013545 -0.036000848 0.14206561 0.2135576 -0.30120566
-0.018087374 0.0025243221 0.041767363 0.17403783 0.035001706 -0.16539837 0.17536536 -0.09032107
-0.079734154 -0.24533361 -0.10927933 -0.41492325 -0.057715077 -0.12804367 0.2032435 -0.14320959
-0.15053193 -0.036149528 -0.15667556 -0.28935578
00000000: 02a1 87be 571d 51be f2f3 533e 1010 15be
00000010: 5fcc 183a e206 2cbe 5f4f c1bd caf2 a7be
00000020: e315 0c3d d176 d0bc 7ef4 f63d 734f 483c
00000030: 73d0 33bc cae9 203e 0961 26bd b9b6 b43c
00000040: 45f9 b7bd 5ddd 003e aa81 00be 5b84 99bd
00000050: 6f3e e8bc ce71 373e 2190 ebbd db6d 863c
00000060: e6c2 71be bb61 53be e1e0 1d3e 5f3b ecbd
00000070: 7073 04be e471 98be cb8f 32bd 20ec 57bd
00000080: 0c24 363e 9b21 2c3e c81a 003e 9309 f6bd
00000090: a075 13bd a679 113e d8ae 5a3e a137 9abe
000000a0: f92b 94bc 196f 253b 4114 2b3d f936 323e
000000b0: f35d 0f3d 315e 29be fa92 333e 41fa b8bd
000000c0: a94b a3bd bc38 7bbe d7cd dfbd d270 d4be
000000d0: a566 6cbd e11d 03be 101f 503e 89a5 12be
000000e0: 0b25 1abe 8711 14bd 8f6f 20be 7126 94be

lstm.bias_hh_l0 f4 [60]
0.045592036 0.073037 -0.0072928104 -0.033914816 -0.13617979 0.008975085 0.034396026 -0.19488767
0.21319114 0.23112145 -0.0674589 0.24873866 -0.11588497 -0.09184004 -0.065709606 -0.22762735
-0.06964167 -0.08409445 -0.032634124 -0.19887412 -0.2807044 -0.2721392 0.13793091 0.050911296
-0.019453695 -0.29063216 -0.031918563 -0.26367003 -0.0646727 -0.12378772 0.09971539 -0.104030214
-0.17817299 -0.2011592 -0.065131865 0.090483345 -0.08192708 0.059472196 0.06750711 0.17240779
-0.04579662 -0.101515725 0.12428592 0.13597558 0.21313895 0.052757557 -0.25133526 0.09018903
-0.2979658 0.13125116 0.18278994 -0.2417001 0.005639126 0.12901118 0.12000138 0.1444404
0.10115712 -0.1381835 -0.02484115 -0.104960054
00000000: b7be 3a3d 6c94 953d 87f8 eebb 43ea 0abd
00000010: b772 0bbe 3c0c 133c d9e2 0c3d a290 47be
00000020: c74e 5a3e 1aab 6c3e e427 8abd 59b5 7e3e
00000030: 1955 edbd a216 bcbd c292 86bd 2517 69be
00000040: 4ba0 8ebd b639 acbd 5cab 05bd a8a5 4bbe
00000050: 7db8 8fbe d455 8bbe c33d 0d3e 5d88 503d
00000060: 5b5d 9fbc bdcd 94be 0abd 02bd c2ff 86be
00000070: 1f73 84bd 6b84 fdbd 9537 cc3d cb0d d5bd
00000080: fb72 36be adfc 4dbe db63 85bd 554f b93d
00000090: 63c9 a7bd 1e99 733d 2b41 8a3d ab8b 303e
000000a0: 3d95 3bbd 7ae7 cfbd 9e89 fe3d 2f3d 0b3e
000000b0: 1941 5a3e 4f18 583d 04af 80be 07b5 b83d
000000c0: f98e 98be b466 063e 492d 3b3e 3b80 77be
000000d0: 6bc8 b83b 821b 043e 49c3 f53d 2fe8 133e
000000e0: 772b cf3d fa7f 0dbe ab7f cbbc 4cf5 d6bd

regressor.0.weight f4 [256, 16]
-0.015586525 0.044689566 -0.038010478 -0.17474124 -0.23360747 0.16442698 -0.029734164 -0.09284681
-0.06452879 -0.13635576 -0.07404584 -0.2146036 0.1870859 0.10208562 -0.12608036 -0.08532831
0.116928525 -0.10761322 0.053016637 0.000877017 -0.107704505 0.076035805 0.037408642 0.20242094
-0.08759947 -0.009793373 0.25506815 -0.22592668 0.045490194 0.242948 -0.1735815 -2.1593754
0.22183517 0.23258492 -0.023855776 0.22615832 -0.10892984 -0.085576296 0.09455815 0.0528118
0.1378189 0.23757982 -0.15649727 0.13268167 0.08364114 0.13189203 0.11854309 -0.09351748
-0.20690589 0.22846042 -0.13886185 0.14173502 -0.25649786 -0.050567906 -0.004629942 -0.0003586303
-0.0070109013 0.1323481 -0.03753422 0.09396154 0.2009954 -0.18080999 -0.05054757 0.17883244
0.20723364 0.26738542 -0.008209509 -0.09090898 -0.20118922 0.14606434 -0.028632844 0.17865054
0.087880194 0.2985579 0.19305849 -0.10207126 0.0015731289 -0.1482088 0.07197584 0.18517356
0.021642476 -0.1729022 -0.22343141 0.09414324 0.05809635 0.0217157 0.16979864 -0.1043936
0.08874521 -0.1376904 0.051799983 -0.057074636 0.17508167 0.21862063 0.21713093 0.011246055
0.14742327 -0.24978459 -0.14664856 0.044680804 0.001394242 -0.19626823 -0.110652894 -0.11676353
-0.24769053 0.023842692 0.17042351 0.10146585 -0.118783236 -0.2295663 -0.20169425 0.004637301
0.16510174 -0.074553475 -0.15880623 -0.09805568 -0.060607266 -0.2869963 -0.21942043 0.24433324
-0.14519688 -0.04677188 -0.03789216 -0.1934098 -0.05717586 0.03778313 -0.09716754 -0.25061372
-0.0011958778 -0.24887621 0.1816791 0.20194319 0.17045137 -0.08209959 0.1306408 -0.23423061
-0.061846673 -0.05084607 -0.08828741 0.10500002 -0.11391446 -0.028975964 -0.07218835 -0.23477075
-0.052502114 -0.18816583 0.13321891 0.11852143 0.22328897 -0.1078387 0.020625072 0.028073905
0.20985013 0.30610865 -0.10728606 -0.15380163 -0.25815335 -0.14862648 0.20017785 0.11865639
0.21780872 0.2573402 -0.035902064 -0.10291349 0.12671931 0.09835829 0.10500608 -0.18303694
0.09952304 0.09255788 0.1889832 0.20024253 0.04659653 -0.30645543 -0.029480267 -0.24309321
-0.09335376 -0.17495555 0.18722034 0.03433619 0.15714572 -0.23395748 0.12777819 -0.13519646
-0.062021174 0.0029977572 -0.05266499 0.17933941 -0.0887073 0.14984581 0.04250679 -0.059467997
-0.16556497 -0.19509093 -0.097265504 -0.20266685 -0.089205936 -0.03827688 -0.0061886087 -0.14898908
0.16603188 0.14291406 -0.048536867 -0.055707708 0.11014963 0.17584679 -0.18814805 -0.05901855
-0.047346048 -0.0013724028 0.15953834 -0.0071233325 0.09024538 -0.11556493 -0.022501346 -0.21546029
-0.18609339 0.15870456 0.16004904 0.10154874 0.13923796 -0.28227377 0.13401327 0.06750029
-0.05968604 0.23771806 -0.024945738 -0.19419374 -0.17537953 0.036484554 -0.0975951 0.020665921
0.19639157 0.11650502 0.014730656 0.111672305 -0.19926909 -0.26987985 -0.1778991 -0.3038499
0.051304877 0.048695803 -0.106242 -0.24453765 0.1354262 -0.14185232 -0.04173693 -0.20962048
-0.14103955 0.10428998 -0.23293173 -0.14255992 0.18743256 -0.12821218 -0.10403898 -0.07019344
00000000: a05e 7fbc 680c 373d e0b0 1bbd 5eef 32be
00000010: cc36 6fbe 8c5f 283e 1095 f3bc 7826 bebd
00000020: ac27 84bd d8a0 0bbe 58a5 97bd 0cc1 5bbe
00000030: 7293 3f3e 4412 d13d 361b 01be 9cc0 aebd
00000040: 3978 ef3d 5264 dcbd f927 593d 9de7 653a
00000050: 2e94 dcbd a9b8 9b3d ce39 193d 6f47 4f3e
00000060: 5a67 b3bd 6274 20bc 4b98 823e 5359 67be
00000070: ed53 3a3d 5cc7 783e 59bf 31be 3533 0ac0
00000080: c228 633e be2a 6e3e 306d c3bc 0c96 673e
00000090: 9c16 dfbd a042 afbd b4a7 c13d 3051 583d
000000a0: 6620 0d3e 2048 733e d240 20be b4dd 073e
000000b0: 0c4c ab3d b40e 073e b8c6 f23d 1886 bfbd
000000c0: 23df 53be 87f1 693e cd31 0ebe fc22 113e
000000d0: b053 83be 4b20 4fbd c5b6 97bb 8b06 bcb9
000000e0: b4bb e5bb 4386 073e 7bbd 19bd e86e c03d
000000f0: bdd1 4d3e 4126 39be f80a 4fbd da1f 373e
00000100: 0e35 543e bee6 883e 2d81 06bc 7d2e babd
00000110: 8c04 4ebe e491 153e 6d8f eabc 2bf0 363e
00000120: 88fa b33d 95dc 983e 20b1 453e bd0a d1bd
00000130: 7231 ce3a 0cc4 17be 1268 933d 239e 3d3e
00000140: 904b b13c 460d 31be 34cb 64be 2cce c03d
00000150: 70f6 6d3d 20e5 b13c b2df 2d3e 50cc d5bd
00000160: 0cc0 b53d b6fe 0cbe 382c 543d 18c7 69bd
00000170: 9c48 333e 16de 5f3e 9257 5e3e 6041 383c
00000180: 20f6 163e 88c7 7fbe 0a2b 16be 3803 373d
00000190: 00bf b63a 8afa 48be fc9d e2bd b821 efbd
000001a0: 96a2 7dbe c051 c33c 8083 2e3e 54cd cf3d
000001b0: a044 f3bd 6e13 6bbe f088 4ebe 80f4 973b
000001c0: 6e10 293e 7eaf 98bd 1a9e 22be 6bd1 c8bd
000001d0: 533f 78bd 2ef1 92be c0af 60be 7e32 7a3e
000001e0: 7eae 14be df93 3fbd cf34 1bbd 380d 46be
000001f0: 3c31 6abd 7cc2 1a3d c6ff c6bd 7150 80be
00000200: 00bf 9cba 68d9 7ebe 160a 3a3e 32ca 4e3e
00000210: ce8a 2e3e d423 a8bd b4c6 053e 26da 6fbe
00000220: f052 7dbd f843 50bd 08d0 b4bd 400a d73d
00000230: fc4b e9bd 005f edbc 7cd7 93bd be67 70be
00000240: 750c 57bd 8bae 40be 8a6a 083e 5dbb f23d
00000250: dda5 643e 89da dcbd e9f5 a83c 3ffb e53c
00000260: f4e2 563e 46ba 9c3e cbb8 dbbd 2d7e 1dbe
00000270: ad2c 84be 8a31 18be 6cfb 4c3e 1f02 f33d
00000280: 4009 5f3e 18c2 833e 0b0e 13bd 4fc4 d2bd
00000290: b5c2 013e 1270 c93d 6d0d d73d 096e 3bbe
000002a0: bcd2 cb3d fc8e bd3d d084 413e 610c 4d3e
000002b0: 01dc 3e3d bae7 9cbe 9a80 f1bc 6ded 78be
000002c0: 4230 bfbd 8c27 33be b0b6 3f3e 1ba4 0c3d
000002d0: cfea 203e 8d92 6fbe 49d8 023e f170 0abe
000002e0: ea09 7ebd 0576 443b 3fb7 57bd c0a4 373e
000002f0: 2cac b5bd 2e71 193e 9a1b 2e3d b794 73bd
00000300: dd89 29be ebc5 47be 2333 c7bd e687 4fbe
00000310: 9ab1 b6bd 38c8 1cbd d0c9 cabb 9890 18be
00000320: 4304 2a3e 1058 123e 98ce 46bd c42d 64bd
00000330: 2196 e13d 2e11 343e e2a9 40be 6fbd 71bd
00000340: eeed 41bd 32e2 b3ba 055e 233e d86a e9bb
00000350: 92d2 b83d 4ead ecbd be54 b8bc 9fa1 5cbe
00000360: 448f 3ebe 7383 223e e5e3 233e c9f8 cf3d
00000370: 6594 0e3e 3086 90be c63a 093e 983d 8a3d
00000380: 5979 74bd 5d6c 733e 015b ccbc b9da 46be
00000390: b196 33be d470 153d f1df c7bd 944b a93c
000003a0: df1a 493e 2f9a ee3d d958 713c 73b4 e43d
000003b0: 320d 4cbe b12d 8abe 2f2b 36be 3792 9bbe
000003c0: 1025 523d 4075 473d 6895 d9bd 1468 7abe
000003d0: 2aad 0a3e bc41 11be 58f4 2abd c0a6 56be
000003e0: ac6c 10be fc95 d53d a885 6ebe 3afb 11be
000003f0: 52ee 3f3e 0e4a 03be 6412 d5bd 94c1 8fbd

regressor.0.bias f4 [256]
-0.18433318 -0.046189953 -0.17605177 0.16816977 0.065585434 -0.10602665 -0.0457488 0.030292287
-0.21798083 -0.03816739 0.014528224 -0.008988379 -0.07598025 0.039965197 0.036963772 -0.2222487
0.0036179174 -0.19718191 0.11179813 0.014533321 0.001682025 -0.10887809 -0.1291365 -0.111009896
-0.06630263 -0.103645444 0.056540858 -0.107836336 0.03362188 -0.23183164 0.08856291 0.17275456
-0.17921686 -0.07046635 -0.010529253 -0.23930681 -0.15817976 0.054295417 0.05517885 -0.100189395
-0.018542478 -0.24133357 -0.23996186 0.14352152 0.18083054 -0.07619226 -0.09885463 -0.016183883
0.04275442 -0.24159715 -0.13848042 -0.08241773 -0.108814955 -0.041438352 0.13614185 0.0035584224
-0.22624531 0.08368688 0.08979504 0.018519456 0.056296118 0.054985568 0.057317827 -0.24044907
-0.15562853 -0.057587445 -0.08328497 -0.1660321 -0.23974952 -0.19093117 -0.038828462 0.099191934
0.050408684 -0.003173084 -0.15354592 -0.10057402 -0.0028123886 -0.23172644 0.0065495186 0.031186204
0.055711243 -0.065624565 0.20901366 0.021644967 -0.17344663 0.05550706 0.10882878 -0.19753927
-0.1450237 0.054414734 -0.15382668 0.100338966 -0.11928293 -0.07759091 -0.071766794 0.050192706
-0.08453986 -0.062817566 0.07705302 -0.17104858 -0.03914319 -0.193106 -0.23074469 -0.07495818
-0.044717677 0.18823248 -0.23974797 -0.07193634 -0.0065044034 0.05510512 0.09646729 -0.20102227
-0.09244431 -0.015886141 -0.20040172 0.09085279 -0.2385419 0.11134374 0.047546938 -0.10144067
0.052855052 0.16835123 0.06914919 0.043907054 -0.14553249 0.043602843 0.15590742 0.018030016
0.02742303 -0.15504563 0.043502674 -0.03945291 -0.22429657 -0.0648064 0.19898818 -0.087335885
-0.04329914 -0.10000965 -0.13593194 -0.018534953 0.08087194 -0.0047100657 0.001597704 -0.009889992
-0.18747252 -0.13172445 0.017551433 -0.19982359 0.08388527 -0.016338116 -0.017063698 -0.023743615
0.18797223 0.16539763 0.07914971 0.052877232 -0.121219724 0.029211642 -0.16909131 0.071821965
-0.1775206 -0.043800578 0.15849845 0.044045016 0.037198015 0.04668804 0.056047462 0.0033092224
0.014189898 0.011209509 0.0037549261 -0.08722913 -0.12610029 -0.061808884 0.10621112 -0.13608533
0.016265407 0.16312695 0.12414401 -0.1840618 0.021198912 0.12048177 -0.22708037 0.046162292
-0.15577263 -0.1807622 -0.10597324 -0.11136846 -0.103360415 0.017722525 0.023977859 0.011526916
0.1334684 -0.15817726 -0.23738235 -0.20055705 -0.13740629 -0.14137521 0.07533587 -0.1809153
-0.18278515 0.011542893 -0.15907267 -0.00997507 -0.19062236 0.02266427 0.12343226 -0.21028727
0.034157157 -0.13106796 0.0681473 0.055000164 -0.21090597 0.053449467 0.08476616 0.029063568
0.16618039 -0.0062024617 -0.022987392 0.039256774 -0.14904514 -0.048982263 -0.038969852 -0.15819678
-0.019943904 -0.07829322 -0.087521225 -0.07678503 -0.24898157 0.056906804 0.056727447 0.15479086
-0.21280941 -0.24475151 0.15572792 -0.056251425 0.0029671122 0.07301373 -0.040702123 -0.044687573
0.11991076 0.17453164 -0.07749852 -0.21343991 -0.13708428 0.032102108 -2.3786553e-05 0.18666798
-0.09488704 -0.2368806 0.05003421 -0.10653448 -0.14946464 0.08303715 0.0028999778 -0.053834934
00000000: d6c1 3cbe ad31 3dbd ea46 34be b234 2c3e
00000010: a851 863d 8024 d9bd 1863 3bbd 8827 f83c
00000020: 5e36 5fbe 6955 1cbd ca07 6e3c fe43 13bc
00000030: 899b 9bbd 8cb2 233d 5367 173d 2a95 63be
00000040: 951a 6d3b 0eea 49be 6bf6 e43d 2b1d 6e3c
00000050: 6577 dc3a 7afb debd 5c3c 04be 2859 e3bd
00000060: acc9 87bd 1044 d4bd 6397 673d 4cd9 dcbd
00000070: 19b7 093d 4665 6dbe 7960 b53d 92e6 303e
00000080: a084 37be a950 90bd e382 2cbc d80c 75be
00000090: e0f9 21be df64 5e3d 3803 623d 1930 cdbd
000000a0: 65e6 97bc 2620 77be 90b8 75be 4ef7 123e
000000b0: a42b 393e b00a 9cbd 4c74 cabd 1094 84bc
000000c0: 421f 2f3d 3e65 77be d0cd 0dbe a0ca a8bd
000000d0: 60da debd 43bb 29bd c568 0b3e 6c34 693b
000000e0: daac 67be 0764 ab3d 76e6 b73d 1db6 973c
000000f0: c296 663d 8c38 613d 19c6 6a3d 4838 76be
00000100: 165d 1fbe d0e0 6bbd 4f91 aabd 5204 2abe
00000110: e680 75be 7683 43be 980a 1fbd 2425 cb3d
00000120: 5679 4e3d 84f3 4fbb 243b 1dbe c0f9 cdbd
00000130: 0d50 38bb b249 6dbe 589d d63b 367a ff3c
00000140: 7931 643d 2c66 86bd ad07 563e c950 b13c
00000150: fe9b 31be 5f5b 633d a0e1 de3d bc47 4abe
00000160: 1881 14be fce1 5e3d be84 1dbe 847e cd3d
00000170: 9c4a f4bd fce7 9ebd 78fa 92bd de96 4d3d
00000180: 3c23 adbd 7fa6 80bd f9cd 9d3d 5c27 2fbe
00000190: 9c54 20bd 94bd 45be 5648 6cbe ad83 99bd
000001a0: e229 37bd 04c0 403e 7e80 75be 5c53 93bd
000001b0: e422 d5bb e8b5 613d a490 c53d c8d8 4dbe
000001c0: 7153 bdbd a723 82bc 1c36 4dbe 0711 ba3d
000001d0: 5444 74be 3008 e43d 94c0 423d 20c0 cfbd
000001e0: 8a7e 583d 4464 2c3e 179e 8d3d e2d7 333d
000001f0: 7806 15be e598 323d 32a6 1f3e afb3 933c
00000200: 43a6 e03c 48c4 1ebe dc2f 323d 6099 21bd
00000210: 00ae 65be 38b9 84bd 8fc3 4b3e 28dd b2bd
00000220: 705a 31bd dcd1 ccbd be31 0bbe 9dd6 97bc
00000230: 30a0 a53d e556 9abb 0d6a d13a a209 22bc
00000240: ccf8 3fbe c6e2 06be 06c8 8f3c 8e9e 4cbe
00000250: 0acc ab3d 83d7 85bc 2bc9 8bbc f881 c2bc
00000260: cb7b 403e ff5d 293e 3e19 a23d cc95 583d
00000270: 0c42 f8bd 414d ef3c 4626 2dbe 6517 933d
00000280: f6c7 35be 3c68 33bd 6b4d 223e 8c68 343d
00000290: f25c 183d f53b 3f3d 0692 653d 8adf 583b
000002a0: bf7c 683c 17a8 373c 3515 763b 30a5 b2bd
000002b0: 6f20 01be 502b 7dbd 3785 d93d f459 0bbe
000002c0: 083f 853c c00a 273e 373f fe3d b27a 3cbe
000002d0: 57a9 ad3c 25bf f63d c287 68be ac14 3d3d
000002e0: dc82 1fbe ba19 39be 8008 d9bd 2615 e4bd
000002f0: a0ae d3bd d42e 913c 376d c43c 64db 3c3c
00000300: f1ab 083e 38f9 21be 5c14 73be d45e 4dbe
00000310: 3cb4 0cbe aac4 10be b149 9a3d dc41 39be
00000320: 082c 3bbe 671e 3d3c f2e3 22be 7a6e 23bc
00000330: 8232 43be 6baa b93c 0dca fc3d 8c55 57be
00000340: 60e8 0b3d ae36 06be d090 8b3d da47 613d
00000350: bcf7 57be d4ed 5a3d e199 ad3d b816 ee3c
00000360: 312b 2a3e 053e cbbb 0e50 bcbc b6cb 203d
00000370: 4a9f 18be a0a1 48bd da9e 1fbd 56fe 21be
00000380: 6661 a3bc 3258 a0bd 543e b3bd 7841 9dbd
00000390: 06f5 7ebe 1c17 693d 0a5b 683d 7f81 1e3e
000003a0: b6ea 59be 24a0 7abe 2477 1f3e e567 66bd
000003b0: e273 423b 3988 953d 45b7 26bd 510a 37bd
000003c0: c693 f53d 6cb8 323e 8bb7 9ebd fe8f 5abe
000003d0: d25f 0cbe 807d 033d 3c89 c7b7 e425 3f3e
000003e0: 2354 c2bd d490 72be acf0 4c3d c02e dabd
000003f0: 420d 19be 620f aa3d 8e0d 3e3b 0582 5cbd

regressor.2.weight f4 [1, 256]
0.060866855 0.08158891 -0.051057585 -0.04037445 -0.010990972 -0.048526287 -0.03285402 0.01699376
-0.041587308 0.031177511 -0.0106189605 -0.0017963208 -0.0022920943 -0.008912793 -0.006251475 -0.050830908
0.005832396 0.04146137 0.04303871 0.0021025608 -0.016881801 0.0020529935 -0.05718425 0.055707924
0.013840701 0.028150871 0.0020776598 0.045433134 0.000441796 -0.052130274 -0.015469273 0.025552098
-0.031236567 -0.040764373 -0.009381594 -0.03882379 -0.0026454926 -0.015547539 -0.0002818501 0.0035549689
0.00041446634 0.02888988 -0.040243447 -0.010532944 -0.03118676 0.052045815 -0.022377983 0.023537382
-0.0040719938 -0.061661333 -0.04436983 -0.016062498 -0.04791309 -0.0011093877 0.022254562 -0.016787233
0.0076529235 0.0020591833 0.003285573 -0.0002449279 -0.001264348 -0.009657011 0.0010043032 0.049421757
-0.0077688396 0.15540734 -0.002785513 -0.032158412 0.024276398 0.025034606 -0.027816117 -0.0052230405
0.00015873376 -2.7149277e-05 0.04876861 -0.013745636 0.014137259 0.033699676 -0.09070651 0.028484616
0.002166171 0.0482409 0.036618847 -0.09479123 -0.052050583 -9.567297e-05 0.005743368 -0.009946883
-0.06016971 -0.006250759 -0.035739154 0.0033916386 0.044145785 -0.021080539 0.037640348 -0.0022070021
-0.01962109 0.00039084067 0.0131231565 0.031992555 -0.004306866 0.046715632 -0.029560097 -0.03119836
-0.007383045 -0.047263682 0.017500035 0.004207529 -8.6905406e-05 -0.020987712 0.014787235 0.010235578
0.0044964543 0.0096902065 0.022043116 -0.011673949 -0.018001273 -0.020087609 0.014475096 -0.010128468
-0.013805299 0.025277335 -0.004675746 -0.0016500398 0.008086652 0.0075422497 0.032905523 -0.015164993
-0.0034397405 -0.022722475 0.0016397657 -0.044649977 -0.021608733 0.031690307 -0.05133693 -0.001572378
-0.023035258 0.03193088 -0.0390402 -0.006568142 -0.008016331 0.00887656 -0.0394061 -0.0466127
-0.019417137 0.04405994 0.03100608 0.013381697 0.026773348 -0.0068478226 0.010962022 -0.008378166
-0.047456488 0.0145672085 0.025560614 -0.009195288 -0.028091237 0.010196938 -0.0057746246 0.030679476
-0.001081951 0.026117116 -0.04297127 -0.0076276194 -0.0009687591 -0.0070872298 0.003911846 0.011604355
-0.0031925815 -0.0043445155 -0.0037038526 0.05643972 0.043975692 -0.00025324523 0.022749463 0.054882802
-0.014276258 0.019647403 0.0072456915 -0.010963649 -0.00029731888 0.021289546 -0.010530941 0.00068514276
-0.02017051 0.010256626 0.036299102 0.022648605 0.030582458 -0.004722934 0.0012966003 0.0011105627
0.031121492 0.059167318 -0.050533623 -0.028321713 -0.05189701 -0.021483852 0.029962905 -0.042716816
0.016357057 0.00028552904 -0.058190733 0.036402833 -0.0073382333 -0.0016856965 -0.031208355 0.03694938
-0.0018173124 -0.012387127 0.005195568 0.0018888998 -0.01723902 -0.0049772575 0.0070766825 0.00031389846
-0.046758074 -0.05634445 0.017220791 -0.025352705 0.014743902 0.05847036 0.009137005 -0.0009171143
0.05423859 -0.02896206 -0.048780702 0.016670294 -0.00072820485 0.010400344 0.0006859457 -0.042276617
-0.037391692 0.04337783 -0.03431968 -0.008194909 -0.00858655 0.00558386 -0.017753178 -0.0077020456
-0.03463858 -0.045440283 -0.0029068827 -0.058015525 -0.038014427 0.0034423296 0.024746772 0.050858226
0.04042866 0.0069191903 0.020493124 -0.01954054 -0.040183358 0.008846565 0.06946658 0.021838441
00000000: 864f 793d 1618 a73d c221 51bd ae5f 25bd
00000010: 7a13 34bc 80c3 46bd f091 06bd 7f36 8b3c
00000020: 7457 2abd fb67 ff3c 26fb 2dbc 8672 ebba
00000030: f636 16bb f706 12bc 2cd9 ccbb 1234 50bd
00000040: af1d bf3b 66d3 293d 5c49 303d 1ecb 093b
00000050: b44b 8abc 848b 063b 083a 6abd fe2d 643d
00000060: 1cc4 623c a89c e63c 5929 083b 1818 3a3d
00000070: dba0 e739 8e86 55bd d572 7dbc a252 d13c
00000080: d4e3 ffbc 8bf8 26bd 42b5 19bc b205 1fbd
00000090: 0060 2dbb 1bbb 7ebc 48c5 93b9 7bfa 683b
000000a0: bb4c d939 78aa ec3c 50d6 24bd 5f92 2cbc
000000b0: 607b ffbc fe2d 553d 0852 b7bc 78d1 c03c
000000c0: 5c6e 85bb 9890 7cbd 24bd 35bd 8095 83bc
000000d0: 8440 44bd e068 91ba 334f b63c 6185 89bc
000000e0: 60c5 fa3b 5df3 063b c552 573b ab69 80b9
000000f0: 7bb8 a5ba 7138 1ebc d3a2 833a 786e 4a3d
00000100: c091 febb 1a23 1f3e 278d 36bb 8ab8 03bd
00000110: 4cdf c63c 6015 cd3c a0de e3bc 0a26 abbb
00000120: c571 2639 a1be e3b7 98c1 473d 6035 61bc
00000130: f69f 673c ac08 0a3d 56c4 b9bd 9258 e93c
00000140: 52f6 0d3b 4098 453d a5fd 153d e821 c2bd
00000150: fe32 55bd 09a4 c8b8 dd32 bc3b 40f8 22bc
00000160: 8474 76bd 2bd3 ccbb 3863 12bd 4146 5e3b
00000170: 36d2 343d 18b1 acbc c42c 1a3d 5aa3 10bb
00000180: 68bc a0bc bfe9 cc39 8202 573c a00a 033d
00000190: 9c20 8dbb e458 3f3d 0428 f2bc b493 ffbc
000001a0: 78ed f1bb 9097 41bd 3c5c 8f3c 50df 893b
000001b0: fc40 b6b8 6cee abbc 2946 723c 20b3 273c
000001c0: fe56 933b acc3 1e3c c493 b43c 1744 3fbc
000001d0: 6877 93bc c58e a4bc f428 6d3c e0f1 25bc
000001e0: 9f2f 62bc 6a12 cf3c 0037 99bb 2646 d8ba
000001f0: e07d 043c fa24 f73b f1c7 063d 9776 78bc
00000200: 456d 61bb 7c24 babc 68ed d63a e5e2 36bd
00000210: cc04 b1bc b2cd 013d ac46 52bd 4018 ceba
00000220: 70b4 bcbc f4c9 023d 9ee8 1fbd 9239 d7bb
00000230: ee56 03bc fe6e 113c 4a68 21bd f5ec 3ebd
00000240: b010 9fbc 3278 343d 7600 fe3c e83e 5b3c
00000250: c853 db3c b363 e0bb 0d9a 333c 9344 09bc
00000260: bc61 42bd 4dab 6e3c 7e64 d13c d5a7 16bc
00000270: 981f e6bc 0f11 273c 1039 bdbb 8653 fb3c
00000280: 40d0 8dba 90f3 d53c a402 30bd 1cf1 f9bb
00000290: 53f4 7dba fe3b e8bb f12e 803b 3120 3e3c
000002a0: a13a 51bb 705c 8ebb 56bc 72bb 562d 673d
000002b0: db1f 343d 00c6 84b9 155d ba3c cacc 603d
000002c0: f7e6 69bc 97f3 a03c 446d ed3b e0a0 33bc
000002d0: 77e1 9bb9 6a67 ae3c f889 2cbc 279b 333a
000002e0: a03c a5bc 680b 283c 5eae 143d 9189 b93c
000002f0: 1088 fa3c d8c2 9abb b0f2 a93a 4d90 913a
00000300: 80f2 fe3c 6e59 723d 58fc 4ebd f002 e8bc
00000310: f691 54bd e7fe afbc c474 f53c d4f7 2ebd
00000320: 3cff 853c 0fb3 9539 6859 6ebd 231b 153d
00000330: 9075 f0bb 97f2 dcba aaa8 ffbc 3c58 173d
00000340: e332 eeba 60f3 4abc 953f aa3b f694 f73a
00000350: d838 8dbc 4318 a3bb 84e3 e73b bd92 a439
00000360: 6585 3fbd 70c9 66bd 9e12 8d3c 7ab0 cfbc
00000370: 6890 713c 9e7e 6f3d 60b3 153c 806a 70ba
00000380: 4929 5e3d d841 edbc 46ce 47bd 2490 883c
00000390: 00e5 3eba 3466 2a3c 09d1 333a 3f2a 2dbd
000003a0: 0828 19bd f4ac 313d cb92 0cbd f143 06bc
000003b0: 9aae 0cbc d0f8 b63b 1d6f 91bc 7161 fcbb
000003c0: 2fe1 0dbd 971f 3abd 6681 3ebb b0a1 6dbd
000003d0: 04b5 1bbd b598 613b beb9 ca3c b750 503d
000003e0: 8698 253d 60ba e23b 32e1 a73c 7c13 a0bc
000003f0: 4e97 24bd 2ff1 103c 7f44 8e3d 88e6 b23c
