Definitive/NodeRegression/temp_state_dict64.pt (torch, 12710 bytes, 7 tensors)

lstm.weight_ih_l0 f4 [60, 5]
000000 42 10 d7 bd 31 7b 80 3e 6c 31 8e bd 30 fa 2c 3e
       -0.10501148 0.25093988 -0.0694302 0.16892314
000010 cc ff 4c be 7d f6 79 be 90 26 4b 3e 05 1d 0a be
       -0.20019454 -0.24410434 0.19838929 -0.13487633
000020 57 b4 ae bd 73 fd 09 be 00 30 8b bd dc 5c 78 be
       -0.08530491 -0.1347559 -0.06796265 -0.24254173
000030 a8 2a 4a be 09 26 a3 3d 1e 44 54 bd 84 fa 48 be
       -0.19742835 0.07966239 -0.051822774 -0.19626814
000040 f4 6c 80 3c be 6e 65 be 85 8f fc 3c 98 a0 b8 3d
       0.015676953 -0.22405526 0.030830154 0.09015006
000050 14 47 4e 3e 85 e5 43 be de 64 80 3c 4b fe 87 3d
       0.20144302 -0.19130524 0.015673097 0.066402994
000060 1d 90 1d 3e 1c 47 1e be 95 7b 03 3e 4e 69 eb 3d
       0.15387006 -0.15456814 0.12840112 0.11494695
000070 6c ab 05 3e f9 7f 50 be 66 f0 22 3e 2b b5 95 bd
       0.13053674 -0.20361318 0.15912017 -0.07309946
000080 ac 04 b4 bd 01 5e 3d 3c 65 84 35 3e 1d 14 7b be
       -0.087899536 0.011558057 0.17726286 -0.24519391
000090 1b 82 4b 3e 79 3e b4 bb 7d 32 2e 3d 69 d2 1c 3e
       0.1987385 -0.0055006114 0.042528618 0.1531464
0000a0 cd 00 94 bd 80 da fd bd 99 89 45 3c c9 37 b1 bd
       -0.07226715 -0.12395191 0.012056732 -0.08653218
0000b0 bc e9 b5 be 44 f0 f0 3c b3 67 f0 bd 6d 11 0a bd
       -0.35529888 0.029411443 -0.11738529 -0.033708025
0000c0 2d 3b a3 3d 03 cb 62 be f5 63 33 be c7 32 08 3e
       0.07970271 -0.22147755 -0.175186 0.1330062
0000d0 d2 2c 57 be cb 0e 16 3e 8c 5a 63 be cf 2a e1 bd
       -0.21013191 0.1465408 -0.2220251 -0.10994493
0000e0 cb 5c 81 3e 02 d5 b1 3d 9d 37 56 be 5f 18 09 bd
       0.25266108 0.08683206 -0.20919652 -0.033470508
0000f0 5e f1 d0 3c 64 b1 81 3e ed 4e 19 be 62 dd f0 bd
       0.025505718 0.2533065 -0.14971514 -0.117609754
000100 6b 1f b1 3d 77 56 9f bd fb 2f c8 bd 39 91 32 be
       0.086485706 -0.07780164 -0.097747765 -0.1743821
000110 be 99 95 be 74 9e 7d be fc c9 dd bd 55 ee 67 be
       -0.29218858 -0.24767476 -0.10829541 -0.2264951
000120 c7 a8 58 be be c2 d4 3c bf 57 23 3e 95 15 37 be
       -0.21158133 0.025971767 0.15951441 -0.17879327
000130 88 1a c5 3d f2 72 5a 3d 84 8f 28 3d 94 89 84 be
       0.09624201 0.053332277 0.041152492 -0.25886214
000140 34 30 c5 3a 07 84 9e 3e e8 99 5c 3e 39 26 93 be
       0.0015044273 0.30960104 0.21543086 -0.287401
000150 85 d8 98 bd 38 15 14 bd 6c 15 ca bd 18 7c 0b be
       -0.07463173 -0.03615305 -0.09867367 -0.13621557
000160 aa 16 4d be 6e c4 22 3e 54 a1 18 be 90 42 91 3c
       -0.20028177 0.15895244 -0.14905292 0.017731935
000170 fe 4a bc 3d b4 aa 5e be d5 58 05 bd 80 43 c6 3d
       0.09193991 -0.21744806 -0.03255542 0.09680843
000180 12 cf 02 be e2 6e f0 3d 6e b1 27 bd 12 f8 d3 3d
       -0.12774304 0.11739899 -0.040940695 0.1035005
000190 6b 9c ef 3c bc 3b 1a 3e 11 72 9f 3d e4 30 cf be
       0.02924939 0.1506185 0.07785428 -0.40466988
0001a0 40 5c b2 bd f5 ab ff bd a4 94 26 bd 70 e9 3c be
       -0.087090015 -0.1248397 -0.0406691 -0.18448424
0001b0 56 20 2a 3d 07 45 6a be b6 f4 3d bd c9 22 2c bb
       0.041534744 -0.22877894 -0.046375953 -0.002626585
0001c0 b1 0b 84 3e b4 69 1f 3e f9 be 8d 3d f1 46 61 be
       0.2579017 0.15567666 0.06921191 -0.21999718
0001d0 4d 07 89 3e a1 cb 51 3e 19 29 71 bd a2 84 95 be
       0.26763383 0.20487835 -0.058877084 -0.29202753
0001e0 2d 65 20 be dc fa 6b be 4f fb 47 3e 1f ae 51 3e
       -0.15663595 -0.23044914 0.1952946 0.20476578
0001f0 c8 ef c9 3d 88 a0 cf ba d2 de cd 3d a0 e3 8f 3e
       0.09860188 -0.0015840689 0.10052265 0.28103352
000200 c1 70 0d be 88 5c c3 bd 78 40 10 be 6e 97 0c 3d
       -0.13812543 -0.09539133 -0.14087093 0.034324102
000210 de 02 90 bd 13 ea 11 3c a8 6f 7f be 1c f0 dc bd
       -0.07031797 0.008905905 -0.24944937 -0.10787985
000220 e4 d7 2e be de ca 1a be bb 03 a5 bb 62 6c 94 be
       -0.17074543 -0.1511645 -0.005035845 -0.2898894
000230 76 b1 02 3b ec 23 2e be 8b f1 09 be 04 9f 0a be
       0.00199422 -0.1700589 -0.13471048 -0.13537222
000240 4e 88 a8 be ce a8 36 3e 52 6f 35 3e 63 11 c0 bd
       -0.32916492 0.17837831 0.17718247 -0.09378316
000250 64 e1 2d 3d 70 ff fe 3d 8c c1 55 3d 15 f9 b1 bb
       0.042451277 0.124510646 0.052186534 -0.005431304
000260 d4 0d 8b be 9b f3 3e 3e 9d ef 77 be 58 90 49 bd
       -0.27158988 0.18647616 -0.24212499 -0.049209923
000270 be 64 e2 3d dd 51 b9 bd 98 bc b0 bd 8f 3b 69 be
       0.11054371 -0.09048817 -0.086297214 -0.22776626
000280 d0 38 ef 3c 44 b2 12 3d 27 bb 36 3e f6 04 a7 bd
       0.029201895 0.03581454 0.1784483 -0.08155243
000290 18 31 41 3e 5d 53 c4 3c 96 41 2e be 8f 70 d5 bd
       0.18866384 0.023965532 -0.17017207 -0.104218595
0002a0 0b 5f 3b bd ee d8 0d bb e3 f0 d4 bd bd ad 4a 3d
       -0.045744937 -0.0021644193 -0.10397508 0.049482096
0002b0 b9 57 8c 3e 7a 12 85 3c 8b d6 86 3d 77 02 08 3e
       0.27410677 0.016244162 0.065838896 0.1328219
0002c0 48 94 3b 3d 4c 84 92 3d e0 5e 32 3d 07 72 1d 3e
       0.04579571 0.0715414 0.04354751 0.15375529
0002d0 1b 08 74 be 6f e6 c8 3c f3 ba 2f be 36 8f 53 3d
       -0.23831217 0.024523942 -0.17161159 0.05165025
0002e0 e4 4e 76 bc ed 59 3e 3e 80 0a 27 3e 7f 14 5c be
       -0.015033457 0.18588991 0.16312599 -0.21492194
0002f0 bc 78 01 3e 7c 64 34 3e c8 d8 0a bd 77 99 cf 3d
       0.12643713 0.17616457 -0.033898145 0.10136693
000300 86 3f 1f 3e e3 2a 7b bc 81 b9 da bd bf 4c 91 3c
       0.15551576 -0.015330049 -0.10679913 0.01773679
000310 d6 88 28 bd 6a 62 6e bc bc 52 d8 bb 98 35 cc 3d
       -0.041146122 -0.014549831 -0.0066016596 0.0997116
000320 ea 4e 35 3e 01 43 57 be de d6 b5 bd 7d 96 8a 3e
       0.17705885 -0.21021654 -0.08878873 0.27067938
000330 89 26 01 3e 19 a6 c0 bd d0 b6 0c 3e 6b 67 54 be
       0.12612356 -0.094066806 0.13741612 -0.20742576
000340 b8 8e 12 be 4a 27 12 be 90 dc 3e 3e 37 28 65 be
       -0.14312255 -0.142728 0.18638825 -0.22378622
000350 fc 33 5c 3d 4d e4 7a be 64 85 32 bc 3a d2 3b 3e
       0.053760514 -0.24501152 -0.010896061 0.18341914
000360 a8 af 2a be e6 4a 63 3e 73 27 89 3d cf cc 54 bd
       -0.1666857 0.2219654 0.066969775 -0.051953133
000370 e7 9b ad 3d 84 12 47 3d 29 3a 3d 3c c1 6c 78 3e
       0.08477002 0.048601642 0.011549511 0.24260236
000380 6e 2b 0d be 72 bf 0f 3d 23 28 6c 3e b9 43 4b 3e
       -0.13786098 0.035094686 0.23062186 0.19850053
000390 5d 6e d7 bd e3 6c 01 bd 18 7d 4c be b3 f8 d8 bd
       -0.10519097 -0.031597983 -0.19969594 -0.105943106
0003a0 0b 77 8f bc 84 67 a7 bd b7 5a 0a 3e 68 fc 51 3e
       -0.017512819 -0.08174041 0.13511167 0.20506442
0003b0 3a 44 00 3e 77 c8 c3 bd 54 4b 55 be 0a 43 78 be
       0.12526026 -0.0955972 -0.20829517 -0.24244323
0003c0 51 9a 15 3e 05 17 86 be 8e f3 a3 be ba b0 0b be
       0.14609648 -0.26189438 -0.32021755 -0.13641635
0003d0 41 96 5f be 53 86 d9 bd e4 9c f9 bd df 16 89 bd
       -0.21834661 -0.106213234 -0.12188128 -0.066938154
0003e0 72 e4 4d 3e 39 54 d3 bd 7e 93 4a 3e 9f b2 f7 3c
       0.20106676 -0.103187986 0.19782826 0.03023654
0003f0 82 70 81 bc 8b e3 bc bd 40 35 4c be 8b 7c d6 bd
       -0.015800718 -0.09223088 -0.19942188 -0.104729734

lstm.weight_hh_l0 f4 [60, 15]
000000 3a 5e 9a 3d c5 9f 3c be e3 67 6c 3e 16 c2 08 3e
       0.075375035 -0.18420322 0.23086505 0.13355288
000010 fa f3 db 3d f1 eb 27 bd be 92 28 3e 2c 20 84 be
       0.10739894 -0.040996496 0.16462228 -0.25805795
000020 31 78 24 3e 4e c5 98 bc d7 1d 14 3e e5 9c 9a bd
       0.16061474 -0.01864877 0.14464508 -0.075494565
000030 52 9e 0c be c6 e4 8c bd da e8 d2 3d 2d 55 0e be
       -0.1373227 -0.068795726 0.10298319 -0.1389968
000040 48 be 8b bd 50 fa 09 3e 93 cf 31 ba 94 06 6c be
       -0.06823403 0.13474393 -0.0006782945 -0.23049384
000050 c7 2e a5 be 71 57 af bd 56 88 6f 3e df 6d 5b be
       -0.3226225 -0.085616 0.23391852 -0.21428631
000060 55 d0 20 3e b6 b4 4a 3e d6 54 f1 bd e7 f0 1f be
       0.15704472 0.19795498 -0.11783759 -0.1561924
000070 2d 87 25 be 02 e9 89 3c c0 4b 9a bd e2 82 f9 3b
       -0.16164847 0.01683474 -0.075339794 0.0076144794
000080 ca f9 1a 3e ab 67 9f 3d 50 87 c9 bd a9 d8 f1 bc
       0.1513435 0.07783445 -0.09840262 -0.029522257
000090 15 20 94 3d 8e 76 d7 bd 5b 09 33 3d 55 a5 af bd
       0.07232682 -0.105206594 0.043710094 -0.085764565
0000a0 91 a7 5c 3e 1b 77 72 3c dc be ab bd aa 8f 72 be
       0.21548297 0.014798905 -0.08386013 -0.23687616
0000b0 ed b3 6b be 40 b6 82 bc 35 62 8e bd 2f 26 be bd
       -0.23017855 -0.015956044 -0.06952325 -0.09284627
0000c0 d5 78 ad 3d c9 46 38 bd 3c d5 ac 3d 16 22 78 3e
       0.084703125 -0.04498938 0.08439109 0.24231753
0000d0 d1 9e 2d be c6 1e 1b be 7d 87 c3 bc fd d3 ee 3b
       -0.16955115 -0.15148458 -0.023868317 0.0072884546
0000e0 a5 a1 0c be 47 9d c7 bd 79 7a d4 3b 4b 3f a9 3d
       -0.13733537 -0.09746795 0.0064843264 0.08264025
0000f0 4d ff 5b 3e 2e 1e 23 3e 8f 77 95 3d 7a dc 43 bd
       0.21484108 0.15929481 0.072981946 -0.047817685
000100 57 09 fa 3c 2e 31 e7 bc 8b af 45 bd 24 29 85 3c
       0.030522032 -0.028221693 -0.048263114 0.016254969
000110 1a c3 6c be 4b 87 42 be 1a d3 0c 3d af 59 8f bd
       -0.231213 -0.18996923 0.03438101 -0.06999528
000120 2d 2e 2b be fb bf 5d be 07 60 0e 3e ec 48 0a bd
       -0.16716833 -0.21655266 0.13903819 -0.03376095
000130 df 05 13 be c3 b5 96 bd 7e 3c 29 3d df b5 6c be
       -0.14357708 -0.07358887 0.041317455 -0.23116253
000140 c4 7d 2c bd 71 c3 60 3b 2e e8 7f 3c 65 98 ba 3d
       -0.042112127 0.003429618 0.015619321 0.09111098
000150 34 25 17 be cd 1c e1 3d bc bf 82 3e a3 1e 13 3c
       -0.14760286 0.109918214 0.25536907 0.008979472
000160 47 1e 20 3e 5f a4 11 be 59 50 d9 3b 8c 46 00 3d
       0.1563655 -0.14222859 0.0066318926 0.03131728
000170 72 e6 a8 bd 90 61 f1 3d 87 19 98 be 1c 86 1b be
       -0.08247079 0.11786187 -0.29706976 -0.15187877
000180 8c 8c 0c be 5f ce 4f be 4e 43 55 be d7 a3 3c be
       -0.1372549 -0.20293568 -0.20826456 -0.18421875
000190 a5 fa c8 3d de 40 8a bd c1 06 8d be bb 50 83 3d
       0.09813432 -0.06750654 -0.27544215 0.064118825
0001a0 ea e3 89 bd 47 75 56 3d 1e 0a 84 be 85 14 16 3c
       -0.06732924 0.05235794 -0.2578897 0.009160166
0001b0 21 6f ad bc bc f4 eb 3c 27 cd 23 bd 74 15 ed 3d
       -0.021171154 0.028803222 -0.03999057 0.115763575
0001c0 b5 61 8d 3e 33 26 19 be 60 80 81 3e 41 e1 8f 3e
       0.27613607 -0.14955978 0.25293255 0.28101543
0001d0 fe 13 8b be 28 8f d4 bb 27 44 54 3e a1 94 eb bd
       -0.2716369 -0.006486792 0.20729123 -0.11502958
0001e0 f4 76 af 3d a1 8f 2c bd 5f 79 87 3e d3 61 94 bd
       0.085676104 -0.042129163 0.26459786 -0.07245221
0001f0 88 a6 5e be bd 10 dd 3d a3 d9 2b 3e 61 49 0b 3e
       -0.21743214 0.10794208 0.1678224 0.1360221
000200 be 37 83 3a 90 7a 47 3e ad 47 54 3e c5 4b 17 3d
       0.0010011119 0.19480348 0.20730467 0.036937494
000210 45 5d 21 be 0a a8 c2 3d 9a f3 85 be 1c 79 94 bc
       -0.15758236 0.09504707 -0.26162416 -0.018124156
000220 89 86 bf bd f7 23 30 3d 8c 1d 6a be 66 4d 09 3e
       -0.093518324 0.04300305 -0.22862834 0.13408431
000230 9f ad 83 be 09 c3 ec 3d a8 9c cb 3d 3b cd 80 be
       -0.257184 0.115606375 0.09941989 -0.25156578
000240 1a 52 84 3e 52 e9 36 be ab a3 26 bd f2 c4 e1 3d
       0.2584389 -0.17862442 -0.04068343 0.110238925
000250 88 04 8b bd 78 e1 52 3e 26 0c 1b be 02 34 13 be
       -0.06787974 0.20593822 -0.15141353 -0.14375308
000260 67 f9 9c bd 1f b1 4c be aa 63 2c 3e 08 09 17 3e
       -0.07664757 -0.19989441 0.16834894 0.14749539
000270 80 41 48 3d ce a6 47 3d 99 87 93 be cc 8a 87 3e
       0.04889059 0.04874306 -0.2881439 0.2647308
000280 f0 83 6f 3d 9a a8 2f be fd 5d 83 be fc e1 99 3e
       0.058475435 -0.1715416 -0.25657645 0.30055225
000290 64 40 02 3d 1d 50 59 3e 9d a5 84 bd c5 58 cf bd
       0.03179969 0.21221967 -0.06476901 -0.10124353
0002a0 17 18 16 3d 63 8a 7d bd d1 21 56 3e 55 80 b0 bd
       0.036644068 -0.061899554 0.20911337 -0.086182274
0002b0 b4 30 c1 3c cc 0d 24 3e 30 d4 1d 3e 27 ec d9 bc
       0.023582794 0.16020888 0.15412974 -0.026601864
0002c0 81 c5 33 bd 42 24 d5 3c 80 28 8a 3d d1 be d3 3d
       -0.043889526 0.026018266 0.06746006 0.1033913
0002d0 4e b1 6d be 59 37 62 3e 8e 3d 61 3e 9e 3e 35 bd
       -0.23212168 0.22091426 0.21996137 -0.04424917
0002e0 91 d6 0e be 62 81 80 bc 2a 91 04 be 13 55 29 3d
       -0.13949038 -0.015686695 -0.12946 0.0413409
0002f0 52 d8 1a be 8d e4 96 3d 19 77 86 be 7e 1c 44 3e
       -0.15121582 0.07367811 -0.2626274 0.19151494
000300 22 53 f3 3d 69 86 44 3e 85 a8 3c bd 13 be 21 3e
       0.11881091 0.19191898 -0.04605915 0.15795164
000310 3f 35 1b 3d 13 eb 63 3e 2b fc b9 3d f6 3e 87 be
       0.037892576 0.22257642 0.090813 -0.26415223
000320 56 8b c2 bc 61 f2 44 bd 65 d8 d4 bd 94 9f 10 3e
       -0.023748081 -0.048082713 -0.103928365 0.14123374
000330 b6 27 30 bb a0 38 a5 3d ae e1 06 3e 0f 9a e1 3d
       -0.0026879138 0.08067441 0.13172027 0.110157125
000340 d3 8f 35 3e 2d 4e c9 bd 67 1e 89 be 9e 8d 5c be
       0.17730646 -0.09829364 -0.26781008 -0.21538398
000350 57 dc d2 3d 8d c0 14 bd a7 d8 2b be b0 0f 7e 3d
       0.10295933 -0.036316443 -0.16781865 0.06202668
000360 2b ea 9b 3e 67 2f 43 3c 6e b0 15 bd 4c 03 48 3d
       0.30452093 0.011913157 -0.03654521 0.04883127
000370 3e 73 3e be 33 e0 36 3e c5 90 89 be 59 28 09 3e
       -0.18598649 0.17858963 -0.26868263 0.13394298
000380 f4 9b 17 be 7b 21 02 be bf 8b 90 be ab 5c 53 bc
       -0.14805585 -0.12708084 -0.28231618 -0.012900512
000390 c6 4c a7 bd 91 e1 2b be ce 28 1d 3e f5 9d 3f 3e
       -0.0816894 -0.16785266 0.15347597 0.187126
0003a0 85 f4 76 be cb 1e 98 bd 33 88 0a 3e 8c bc 9b 3e
       -0.24116714 -0.07427748 0.13528518 0.30417287
0003b0 78 2e df bd f2 b5 ee 3d 5d 55 21 3d dd 79 15 be
       -0.10897535 0.11655797 0.03938805 -0.14597268
0003c0 43 66 1c 3e fe 85 7e be 6f ff 59 3e e0 36 7a 3e
       0.15273385 -0.24855801 0.21288846 0.24434996
0003d0 54 2b a1 bd 30 d7 60 3d 05 06 97 3e 6e e3 c1 3d
       -0.07869592 0.05489272 0.2949678 0.09467207
0003e0 f7 ac 95 3d 9b be e2 3d 1d 90 bd bd ec c0 38 3d
       0.07308381 0.11071511 -0.09256003 0.04510586
0003f0 7e fd 22 be 28 3c 79 3e 74 bd f7 bd 33 2b 97 3c
       -0.15917012 0.24339354 -0.12096682 0.018453216

lstm.bias_ih_l0 f4 [60]
000000 e0 0c 6a 3d 8c 98 67 be a9 e8 91 bd 90 6f a5 3d
       0.057141185 -0.22616786 -0.071244545 0.080779195
000010 d0 b0 b5 3d d5 2a 44 3e f9 3d 8c bb 16 de 36 bd
       0.08871615 0.19156964 -0.0042798487 -0.04464539
000020 cb 03 54 be cf c9 93 bd 64 e9 69 be ad b6 92 3d
       -0.20704572 -0.07216226 -0.22842938 0.07163749
000030 0b 71 69 bd c5 ba 37 3d 50 49 19 3e 75 87 95 bb
       -0.05699257 0.04485585 0.14969373 -0.004563267
000040 d3 fb 17 3c 9f 1c 3c bd 1a e4 a5 be 25 a5 cb bc
       0.009276348 -0.045925733 -0.3240059 -0.02485902
000050 f1 6d 61 be fe 79 38 bf ff 1a f3 3d 1d 30 07 be
       -0.22014596 -0.72061145 0.118703835 -0.13201948
000060 f5 08 37 be f5 db ae be 1e 65 ad be a8 e0 b1 3b
       -0.1787451 -0.3415219 -0.3386621 0.0054283924
000070 37 cd 32 be d5 4c 00 be 2a 56 13 be 15 e9 41 3e
       -0.17461096 -0.12529309 -0.14388338 0.1893657
000080 9f 92 90 bd 30 db 1c 3e e7 87 2a 3e 3f 85 7d be
       -0.07059216 0.15317988 0.16653405 -0.2475786
000090 be b6 60 3e e7 d2 81 bc aa 03 46 3e d1 b3 23 3e
       0.2194471 -0.015847636 0.19337335 0.15986563
0000a0 bc 4e 12 be 40 cf e3 3b 6c 39 6e 3d 5a 4f 6d 3b
       -0.14287847 0.0069521964 0.05816023 0.0036210627
0000b0 c4 c5 60 3e 59 8e 90 be 8f 20 ea bd 4a ce 64 3e
       0.21950442 -0.28233603 -0.11431991 0.22344318
0000c0 3f cf 5c 3e bc 75 b8 3d 8c 90 54 be 7e ae 2d be
       0.21563433 0.09006831 -0.20758265 -0.16961095
0000d0 9d 60 a5 be 76 84 13 be ac e2 f0 3d e9 a3 a5 bc
       -0.32300273 -0.14405999 0.11761984 -0.02021976
0000e0 d8 34 0e be fb 5b 31 3e e2 ac 15 3e e6 36 ee bd
       -0.13887346 0.17320244 0.14616731 -0.11631565

lstm.bias_hh_l0 f4 [60]
000000 07 d4 38 be 63 59 14 bd 86 ad 0b 3d fe 6b 1e bd
       -0.18049632 -0.03621806 0.03410103 -0.038677208
000010 79 fc 7c 3d 3b 05 05 3e a2 f7 7a 39 12 d7 ab 3c
       0.061764214 0.12990277 0.00023934108 0.020976577
000020 80 de 37 bd 5e f0 8f 3d 08 52 f5 3b 55 3f 41 be
       -0.044889927 0.07028268 0.0074865855 -0.18871816
000030 e8 da 31 be de 89 4d 3d 51 6c 21 be 68 bb a9 3d
       -0.17368662 0.05018031 -0.15763976 0.08287698
000040 14 47 3c be 25 b5 19 3e 01 ed dd ba 91 d3 04 be
       -0.18386489 0.15010507 -0.0016931595 -0.12971331
000050 45 a0 7b bc f5 af 16 bf 65 e7 88 bd 35 43 e9 bc
       -0.015358035 -0.5886224 -0.0668476 -0.02847443
000060 01 9d c0 bc eb eb 1c bd 8d 09 d9 bd ae 81 2b be
       -0.023512365 -0.038310926 -0.10597525 -0.16748688
000070 fe ce b2 3d a2 65 b4 3d 8e 88 d0 3d 6a fc 1e 3e
       0.08730887 0.088084474 0.10182296 0.15525976
000080 12 11 13 be b1 e6 97 bd 33 9e 3b bd 41 d4 24 3e
       -0.1436198 -0.07417048 -0.045805167 0.16096593
000090 f0 13 37 be f6 ca ea bd b0 63 ec bd 7e 31 45 be
       -0.178787 -0.11464493 -0.115424514 -0.19257161
0000a0 ee 29 c6 bd 26 1e 0b 3e e2 6a a8 bc 5d 27 e2 bd
       -0.09675966 0.1358572 -0.020558778 -0.11042664
0000b0 30 03 9b bc e3 b3 9d bd 17 55 fe bd 88 45 74 be
       -0.018922418 -0.07700326 -0.12418573 -0.23854649
0000c0 47 f6 d4 3d 43 01 91 bd 4c 67 4b 3e 17 b0 14 be
       0.10398536 -0.07080319 0.19863623 -0.14520298
0000d0 78 77 82 be 38 51 be bd ab 74 55 be c9 8a b0 3d
       -0.25481772 -0.09292835 -0.20845287 0.08620221
0000e0 4a bb bc 3d 9c 19 33 3e 54 d9 60 be af 95 40 3e
       0.0921541 0.17490238 -0.21957904 0.188071

regressor.0.weight f4 [64, 16]
000000 3b ae 68 bc 68 2f 2f 3d af 47 00 bd b3 c9 34 be
       -0.014201696 0.04276982 -0.031318363 -0.17655067
000010 98 57 75 be 16 8d 22 3e 60 e7 01 bd 1e f6 c5 bd
       -0.23959196 0.15874133 -0.031714797 -0.09666084
000020 9f c5 83 bd cb 61 0b be 28 bf 97 bd 5f 6b 55 be
       -0.064341776 -0.13611524 -0.07409507 -0.2084174
000030 50 41 3b 3e 85 50 d9 3d 6e 45 09 be 97 7c ad bd
       0.18286633 0.10611061 -0.13405392 -0.08471029
000040 dc c2 98 ba 8c 80 30 be c7 77 56 3e 80 ac 01 bb
       -0.0011654752 -0.17236537 0.20944129 -0.0019786656
000050 ec a9 87 be 9a 08 1a bc eb 77 2f 3d 41 b3 96 3e
       -0.26496828 -0.009401465 0.042838972 0.29433635
000060 d2 37 13 be 81 f8 2d 3d c1 c3 9a 3e fa f3 97 be
       -0.14376763 0.04247332 0.30227473 -0.29678327
000070 19 40 e6 bd 4b 7b 9e 3e 0c bc 70 be 59 0c 4e bf
       -0.112426944 0.3095344 -0.23509234 -0.8048759
000080 e8 46 83 3e 93 cb 39 3e 49 04 ac bc e6 a0 3a 3e
       0.25640035 0.18144064 -0.020998137 0.1822544
000090 2f 9b 01 be 17 80 d4 bd 3d 8d 04 3e 27 db 1b 3e
       -0.12656854 -0.10375994 0.12944503 0.15220319
0000a0 e0 0e ac 3d d2 d2 82 3e ac a6 ef bd b3 cb c5 3d
       0.08401275 0.25551468 -0.11701712 0.09657993
0000b0 67 f1 9a 3d 72 58 31 3e 87 c2 d8 3d 0b 93 9e 3d
       0.07565575 0.17318895 0.10583978 0.0774289
0000c0 c6 54 4a be 04 e6 4c 3e f6 fa 11 be f2 aa 23 3e
       -0.19758901 0.20009619 -0.1425589 0.15983179
0000d0 72 e0 73 be 88 27 31 bd 00 a7 2d 3b 18 2d 31 3d
       -0.23816088 -0.04325059 0.0026497245 0.043255895
0000e0 40 8b a5 3c 9c 55 a1 3d a0 08 e4 bc 38 c8 7a 3d
       0.020208001 0.07877657 -0.027836144 0.0612261
0000f0 66 55 7d 3e 34 a5 25 be e0 a0 5f bc 34 71 c3 bd
       0.24739608 -0.16176301 -0.013649195 -0.09543076
000100 cf ed 34 3e b9 1c 33 3e c9 16 8d 3d 77 54 ed bd
       0.17668842 0.17491426 0.068891115 -0.11588376
000110 f2 c2 58 be ab 88 0b 3e ed c3 85 bc 73 ab 13 3e
       -0.21168116 0.13626353 -0.016328776 0.14420871
000120 69 2d 05 3e c9 9b 86 3e de 16 75 3e 80 9a 2f be
       0.13005604 0.2629073 0.23934504 -0.17148781
000130 81 66 a2 3b 11 fb a4 bd 42 9b 69 3d ec e7 04 bf
       0.004956067 -0.080556996 0.05703283 -0.51916385
000140 90 4b b1 3c 46 0d 31 be 34 cb 64 be 2c ce c0 3d
       0.021642476 -0.1729022 -0.22343141 0.09414324
000150 70 f6 6d 3d 20 e5 b1 3c b2 df 2d 3e 50 cc d5 bd
       0.05809635 0.0217157 0.16979864 -0.1043936
000160 0c c0 b5 3d b6 fe 0c be 38 2c 54 3d 18 c7 69 bd
       0.08874521 -0.1376904 0.051799983 -0.057074636
000170 9c 48 33 3e 16 de 5f 3e 92 57 5e 3e 60 41 38 3c
       0.17508167 0.21862063 0.21713093 0.011246055
000180 20 f6 16 3e 88 c7 7f be 0a 2b 16 be 38 03 37 3d
       0.14742327 -0.24978459 -0.14664856 0.044680804
000190 00 bf b6 3a 8a fa 48 be fc 9d e2 bd b8 21 ef bd
       0.001394242 -0.19626823 -0.110652894 -0.11676353
0001a0 96 a2 7d be c0 51 c3 3c 80 83 2e 3e 54 cd cf 3d
       -0.24769053 0.023842692 0.17042351 0.10146585
0001b0 a0 44 f3 bd 6e 13 6b be f0 88 4e be 80 f4 97 3b
       -0.118783236 -0.2295663 -0.20169425 0.004637301
0001c0 82 e6 02 3e c6 91 11 be 90 c9 af bd 8a 05 38 be
       0.12783244 -0.14215764 -0.08583367 -0.17970863
0001d0 22 eb 88 bd fa 4e 93 be ca b4 37 be 15 6b 69 3e
       -0.06685473 -0.28771192 -0.1794006 0.22794755
0001e0 9b 24 23 be 10 cc 00 bb 98 9e e2 bc 87 92 80 be
       -0.15931933 -0.001965288 -0.027663514 -0.25111791
0001f0 22 3e b9 bd e9 fa f1 3d ab db 1c be 5f 30 20 bd
       -0.09045054 0.118154354 -0.15318172 -0.03910863
000200 5b 22 83 3d ef 19 a3 be 3f 44 5c 3e 51 c4 0c 3e
       0.06403037 -0.31855723 0.21510409 0.13746764
000210 93 17 0c 3e f0 aa 09 be aa 9a 46 3e a5 d6 31 be
       0.13680868 -0.13444114 0.19394937 -0.17367037
000220 41 52 e5 bd 3a ea ce bc 2d 09 3f bd ee 29 9c 3d
       -0.11197329 -0.025258172 -0.04663961 0.07625185
000230 d0 90 27 be f1 6c 71 3c 9a 79 ef bd 03 9d 43 be
       -0.16363835 0.014735446 -0.116931155 -0.19102864
000240 a0 1a 29 bd 34 f4 58 be 50 46 15 3e 90 d2 08 3e
       -0.041285157 -0.21186906 0.14577603 0.13361573
000250 9a d1 6f 3e 58 ee ab bd 60 4a 50 3c 90 97 48 3d
       0.234198 -0.0839507 0.012713045 0.048972666
000260 40 8b 7f 3e 2e a7 6a 3e 78 7d 04 be c2 d4 59 be
       0.24955463 0.22915336 -0.12938488 -0.21272567
000270 d4 ba 66 be 00 8f f6 bd ca 3d 57 3e 7c f4 ab 3d
       -0.22532207 -0.12038994 0.21019664 0.08396241
000280 8b e5 8e 3e e7 61 24 3e da f6 87 bc 7c 6c 31 be
       0.27909502 0.16052972 -0.0165972 -0.1732654
000290 44 6a 7f 3e b8 ef 20 3e e6 91 34 3e 19 0f c3 bd
       0.24942881 0.15716445 0.17633781 -0.09524364
0002a0 04 a2 1f 3e 33 65 03 3d 60 7c 38 3e 75 da ae 3d
       0.15589148 0.032078933 0.18016195 0.08537761
0002b0 ca 98 da 3d a1 fc 46 be e2 02 05 be cd 60 25 c0
       0.106736735 -0.19432308 -0.12989381 -2.5840333
0002c0 00 56 55 bd fe b6 5e be 64 ce 68 3e 00 28 b1 bb
       -0.05208397 -0.21749493 0.22734982 -0.0054063797
0002d0 d6 82 4e 3e 0a 18 48 be 48 47 b0 3d b8 da c0 bd
       0.20167097 -0.1954042 0.08607346 -0.09416717
0002e0 1c 75 d7 bd 50 93 55 bd c4 83 bd bd 1e 47 0c 3e
       -0.10520384 -0.05214244 -0.09253648 0.13699004
0002f0 20 8f 42 bd 8e 1a 42 3e d8 a8 69 3d 40 39 1e bd
       -0.047499776 0.18955442 0.057045788 -0.038628817
000300 99 a0 46 be 02 62 71 be f9 3f 84 bc 1d 65 76 be
       -0.193972 -0.23572543 -0.016143786 -0.24062009
000310 c8 9d aa bd 7b 5b 97 bc 81 a4 cb bc 71 b6 5d be
       -0.08330876 -0.018476238 -0.024858715 -0.21651627
000320 b1 0d 3c 3e 3f df 2f 3e b8 ca 3e bd 7c 70 c5 bd
       0.18364598 0.17175005 -0.046580046 -0.09640595
000330 cb bd d7 3d 02 fc 5b 3e d8 13 8d be 75 ab 10 bf
       0.10534247 0.21482852 -0.27554202 -0.5651162
000340 1a 2d 32 3d ec c9 0f be d1 b4 5c 3e c1 47 a1 bd
       0.043500043 -0.14041871 0.21553351 -0.07875014
000350 8d a0 47 3e c7 7a e2 bc 6b 19 7e bc f2 83 8a bd
       0.19494839 -0.027646435 -0.01550899 -0.06763448
000360 89 6e 05 be 76 1c b0 3d 26 f5 13 3e 02 be 9c bc
       -0.13030447 0.085991785 0.14448985 -0.019133572
000370 ba e4 77 3e e7 38 01 be 82 61 a5 3d 0d 62 26 3f
       0.24208346 -0.12619363 0.08075239 0.64993364
000380 5e bc 74 3c 13 95 15 3e 23 34 99 3c 54 3c 76 be
       0.014937488 0.14607649 0.018701619 -0.24046451
000390 79 29 2a be 3a b7 3c 3d 7a 85 ae bd 09 b7 f6 3d
       -0.16617383 0.046073176 -0.085215524 0.1204663
0003a0 a9 1c 46 3e c3 d0 d3 3d 53 b9 7c 3c 19 57 47 3d
       0.1934687 0.103425525 0.015425044 0.048667047
0003b0 c9 bd 20 be 9d 1d 23 be 5e f1 5c be 2d 65 41 3e
       -0.15697397 -0.15929265 -0.2157645 0.18886252
0003c0 39 0e f2 bb 19 fc 8d 3d 6c 72 92 bd 6f a4 6d be
       -0.0073869494 0.069328494 -0.071507305 -0.23207258
0003d0 57 5c f7 3d 65 b2 12 be 31 1c 4e bd 81 3f 99 be
       0.12078159 -0.14325865 -0.050319854 -0.29931262
0003e0 7e df e4 bd 4b 13 f8 3d 60 3e 77 be 28 b6 0c be
       -0.1117544 0.12113055 -0.24144888 -0.13741362
0003f0 9f c4 1c 3e 42 52 1d be 77 b8 00 be f6 59 1d bf
       0.1530938 -0.1536341 -0.12570368 -0.61465394

regressor.0.bias f4 [64]
000000 f5 ab 1c bd 92 7c 0c 3e 76 fc 04 39 a4 79 be bd
       -0.03824993 0.13719395 0.0001268255 -0.09300545
000010 20 7a 0f 3e 32 d3 11 be 20 86 07 3c 3a 71 00 3c
       0.1401143 -0.14240721 0.008271724 0.007839495
000020 c0 9c 4c 3d 6a 33 6c be 19 f2 22 bb 20 91 84 bd
       0.049954176 -0.23066488 -0.002486354 -0.06472993
000030 d9 22 15 3e 81 5b 31 3d 02 9f 53 3d 5b dd 23 3e
       0.14564075 0.043300156 0.051665314 0.16002409
000040 c0 a9 35 bd e0 36 83 bc 73 e6 23 3e 4e 55 4e be
       -0.04435134 -0.016017377 0.16005878 -0.20149729
000050 c6 f3 30 be 41 82 0d 3d 3c d1 ca bd 6b 59 91 3c
       -0.17280492 0.034548048 -0.099031895 0.017742833
000060 90 8a 03 3e d0 32 8b bd 42 46 5a be 64 be e8 bd
       0.12845826 -0.06796801 -0.21315864 -0.11364439
000070 d1 43 80 3e 40 f6 60 bd 2c 80 e0 bd fb 20 9f 3d
       0.2505174 -0.054922342 -0.10961947 0.077699624
000080 50 74 1b 3d c0 b5 61 be 97 88 f2 3d 27 05 c3 3d
       0.03795272 -0.22041988 0.11842459 0.09522467
000090 a7 97 31 3e db 56 05 3e 70 9f ac bd 2a 51 e8 bd
       0.17343007 0.13021414 -0.08428848 -0.11343606
0000a0 98 a1 99 3d a0 81 46 bd 5e c7 41 3d 9c 0f 78 be
       0.07501525 -0.048463464 0.047309272 -0.24224705
0000b0 d0 17 fd bd 91 24 c3 3c df 38 f5 3b f4 24 f6 bd
       -0.123580575 0.023821147 0.007483586 -0.12018767
0000c0 ec 4c 5f be 37 b5 37 3d 60 e2 4d bd 48 87 7b be
       -0.21806687 0.044850554 -0.050264716 -0.24563324
0000d0 fd 86 75 3e 91 bc 0a bc a4 1f 19 be 3a d6 3a be
       0.23977275 -0.008467809 -0.14953476 -0.18245783
0000e0 66 17 85 3e 3d c0 9c bc d1 a6 27 be dc 5b 0d 3e
       0.25994414 -0.019134635 -0.16372229 0.13804573
0000f0 1a 68 80 bd 22 c8 2c 3c e8 5b 05 be a6 d4 58 be
       -0.06269856 0.010545762 -0.1302334 -0.21174869

regressor.2.weight f4 [1, 64]
000000 37 0e a1 bd cd a5 c8 3c 8f 23 be bc dc 50 fc 3d
       -0.078640394 0.024493122 -0.023210315 0.1232011
000010 16 65 90 3c 88 02 44 bd 4c 5a 4a 3d a3 a0 8b bd
       0.017626327 -0.047853976 0.04940252 -0.068177484
000020 70 23 3f bc c8 4e 40 3d 8f 17 03 be ac 2e 7f 3d
       -0.011666164 0.04695013 -0.12801956 0.06230037
000030 ef 28 d5 3c d9 a9 65 bd 4a 83 25 bd d8 d1 64 3d
       0.026020495 -0.056070182 -0.04040841 0.055864185
000040 b9 a0 34 3d 40 b4 cc bc 8e f2 86 bd 70 8b 93 bd
       0.04409859 -0.024988294 -0.065892324 -0.0720433
000050 20 ab 59 3c 86 ae 6f bd 68 0f 03 3d 79 34 e5 3c
       0.013285428 -0.058516048 0.031997114 0.027979122
000060 3b e2 32 3c f2 d1 e8 3c d0 52 f8 3d 48 33 d5 3d
       0.010918195 0.028420422 0.1212517 0.10410172
000070 fd 56 03 3e 3c cd 2c bd d0 c0 2e bd 35 c6 a0 3d
       0.12826152 -0.042187914 -0.04266435 0.07850305
000080 0e 50 1a 3d 28 3f 4f 3d 3b 9e 74 3c bd be 32 bd
       0.037674002 0.05059734 0.014930303 -0.043638933
000090 b4 f9 51 bd 57 1c 01 3e 78 a7 09 bd 92 09 56 3c
       -0.051263526 0.12608467 -0.033606976 0.013063805
0000a0 ed 25 29 bd 3c d4 7d bd 7f 2f d3 3c c0 a5 57 3d
       -0.041295934 -0.06196998 0.025779484 0.052648306
0000b0 d8 67 4a bd a3 0d 42 bc 0a 7b c4 3d 22 d8 83 bd
       -0.04941544 -0.011844072 0.0959378 -0.064377084
0000c0 6a ff be bd b9 7f 54 3b 66 98 f3 3d a0 cf de 3c
       -0.0932606 0.0032424761 0.11894302 0.027198613
0000d0 da 86 24 3d f6 5b b9 bb b6 f8 9f 3d f4 c5 7d bd
       0.040167667 -0.0056567146 0.0781111 -0.06195636
0000e0 fc de cb 3d ad 0f 82 bc b1 43 59 bc 01 cf 04 3d
       0.0995464 -0.015876615 -0.013260768 0.032423977
0000f0 9d 0e 5c bd f8 e3 d3 3d 06 74 86 3d da 38 c8 bd
       -0.053724874 0.10346216 0.065650985 -0.097764686
