Definitive/NodeRegression/temp_state_dict126.pt (torch, 7791 bytes, 7 tensors)

lstm.weight_ih_l0 f4 [20, 5]
000000 78 03 5f be ed 73 a3 3e cc 75 f0 3e e1 f9 b9 3d
       -0.21778667 0.31924382 0.46964872 0.09080864
000010 d0 fb f3 be 4c 27 ac be 3f 4c f4 3e d5 f1 20 3f
       -0.47653055 -0.3362373 0.4771442 0.62869006
000020 7d f8 2d bf 97 0d 02 3d c5 a0 0b be 22 88 d1 bd
       -0.6795729 0.03175124 -0.13635547 -0.102310434
000030 f5 29 a9 3e 9e 11 1b 3e f6 7b 11 bf 3f 79 2e bd
       0.33039823 0.15143439 -0.56829774 -0.042596098
000040 6f 57 82 3e 65 58 2d 3e 76 25 a6 3e 5e bd 7d 3e
       0.25457332 0.16928251 0.32450455 0.24779269
000050 ab 0b 4b 3e 01 d3 61 3e f6 fb 1a 3f f2 da 0a bf
       0.1982867 0.22053148 0.6054071 -0.54240334
000060 f5 a7 c3 be b4 a5 06 be ec be 92 bd 17 72 de 3e
       -0.3821408 -0.13149148 -0.07165322 0.4344642
000070 c6 fd 62 bd 67 37 70 3d 06 1f 96 3e 59 dd af be
       -0.0554178 0.058646586 0.29320544 -0.34348562
000080 1b 85 0d bd 9c a1 32 3d e3 3f b9 3d a0 ff b6 ba
       -0.034550767 0.043611154 0.090453885 -0.001396168
000090 b2 51 be bd 3f 85 93 bd 45 59 84 3e e8 0f 75 be
       -0.09292926 -0.07203149 0.25849357 -0.23931849
0000a0 cd 1b 4d be 44 1b a7 3e b8 5c a7 3e 0c 3e fb bd
       -0.20030136 0.3263799 0.32687926 -0.12267694
0000b0 40 60 92 bd d6 4c cc be 6d e7 3f be 14 ce 95 3e
       -0.071472645 -0.3990237 -0.18740626 0.29258788
0000c0 7b 01 c5 be 02 a9 19 3e 06 87 76 be 96 74 74 bd
       -0.38477692 0.15005878 -0.24074945 -0.059681498
0000d0 4d 43 90 bd 90 87 31 3e 12 d9 ac 3e b4 99 43 3e
       -0.070440866 0.17336869 0.33759362 0.19101602
0000e0 f0 ee 00 3f e0 3b a2 bc 35 a7 95 be ed 4b c5 be
       0.5036459 -0.019803941 -0.2922913 -0.3853449
0000f0 62 3a d9 bd d3 d9 b5 3e 79 c3 b4 bd ea 24 3d 3d
       -0.10606839 0.3551775 -0.08826346 0.046177782
000100 21 79 8b be 07 3d 0e 3e 48 b1 f8 3d 57 3d a2 be
       -0.27240852 0.13890468 0.12143189 -0.31687424
000110 2a 98 ad be 6d a3 9e 3e b2 46 3a 3e 89 ae 7f be
       -0.33905154 0.3098406 0.1819103 -0.24968924
000120 14 b5 9d 3e 24 96 51 3e 9a c7 e5 bc 04 26 05 bf
       0.30802214 0.2046743 -0.028049279 -0.5201113
000130 bf b6 be 3e 93 a8 2f bd b5 2b 45 be 62 e5 96 bd
       0.372488 -0.042885374 -0.19254954 -0.0736797
000140 42 38 2c bf d0 c8 48 3e a2 5c a3 bd 22 8f 2f be
       -0.6727334 0.19607854 -0.07976653 -0.17144445
000150 10 97 a7 be 29 0f 23 bf 69 b1 09 3e e6 27 d4 3e
       -0.3273244 -0.6369501 0.13446583 0.4143669
000160 f8 38 f4 be 83 88 54 be 22 49 86 3d a6 57 72 be
       -0.47699714 -0.207552 0.06556918 -0.23666248
000170 48 37 19 3e 29 53 0e bd d3 c5 a7 3e 6b 74 3b be
       0.14962494 -0.034747276 0.32768115 -0.18306129
000180 8e 15 03 3e 27 cb 14 3f c0 82 c8 be 58 fb 80 bc
       0.12801191 0.58122486 -0.39162254 -0.01574485

lstm.weight_hh_l0 f4 [20, 5]
000000 eb 57 8b 3e cb 1c ad bd 56 5a e3 3e c7 45 ec 3e
       0.27215514 -0.084527574 0.44404858 0.46146986
000010 a6 e9 ef 3e 69 a4 93 be cd 1f 9f 3e 7d ae b2 be
       0.46857947 -0.28836372 0.3107895 -0.3489875
000020 77 69 c4 bd 88 2a 7c 3e 0a 50 2e bd 01 f5 4a 3e
       -0.09590428 0.246256 -0.0425568 0.19820024
000030 01 ed bd 3e 32 b3 aa be b4 b0 92 3e 9e a9 fe 3d
       0.37094882 -0.3333984 0.2865044 0.12434696
000040 68 8d 51 3e b3 8a 09 3e 8d 31 e1 bd 09 f1 a1 be
       0.20464098 0.13431816 -0.10995779 -0.31629208
000050 c5 fb 23 3e 9e 93 b8 be 21 c1 4f 3d bd 29 c0 be
       0.16014011 -0.36050123 0.05072129 -0.37531844
000060 02 4c b2 3d c9 f9 01 be 79 0f 4e 3e 4b 8b 72 3d
       0.087059036 -0.12692942 0.2012309 0.05921487
000070 a2 54 34 3e d8 64 27 ba 93 66 dd 3d d7 92 ce 3e
       0.1761041 -0.00063855713 0.1081058 0.40346405
000080 96 29 ac be 3a 61 cd bb 06 3d 33 be ad 5d ab 3e
       -0.33625478 -0.006267694 -0.17503747 0.33469906
000090 b8 0e b4 3e 84 f1 07 bd 5a 16 4d be 26 d6 7b be
       0.3516748 -0.03318931 -0.20028058 -0.2459341
0000a0 b3 b8 8a 3e 1b 2a 8a bd ae c8 bf 3e e0 8c 60 3e
       0.2709404 -0.06746312 0.37457794 0.2192874
0000b0 1e 5b ce 3e b0 ab 3a 3e 4f 13 bb be 55 8e 5f 3b
       0.40303892 0.18229556 -0.3653817 0.0034111936
0000c0 d2 b3 79 be cc 95 a6 3e 00 e5 7f be f3 1e 4f 3e
       -0.24385002 0.3253616 -0.249897 0.2022665
0000d0 cf 0b a2 be 91 13 81 be 8c 28 0f 3e 44 5a cd bb
       -0.31649634 -0.2521024 0.13980311 -0.006266864
0000e0 dd 6b 3b 3d a8 21 5b 3e f8 b5 6f bd cc bc 19 3e
       0.045757163 0.21399558 -0.05852315 0.15013427
0000f0 b0 6f 99 be 1b 53 68 3d 84 12 41 be b8 1b a0 3e
       -0.29968023 0.05671988 -0.1885472 0.31271148
000100 5b 03 d7 3e 3b 4f ca 3e e6 70 92 3c d6 51 8f 3e
       0.41994748 0.39513573 0.0178761 0.27992123
000110 89 86 07 bf b4 ed 77 be eb 18 d3 3e 02 09 b1 3d
       -0.5293966 -0.2421177 0.41229948 0.08644296
000120 bb 44 13 be 85 6d ef be 17 7e eb be f2 9a 1f bf
       -0.14381687 -0.46763244 -0.45994636 -0.623458
000130 fb 24 21 3e 43 60 7f 3e 44 8b 8e 3e 95 66 0e be
       0.15736763 0.24939065 0.27840626 -0.1390632
000140 82 5e 2b bf d0 c4 ee be cf d5 29 be 4a 35 c3 3e
       -0.6694108 -0.4663453 -0.16585468 0.38126594
000150 2f 7d d6 bd c6 3e cd be 19 f3 96 be 0c 9c be bd
       -0.104730956 -0.40086955 -0.29482344 -0.09307107
000160 b8 d7 f8 be 5a 8d af be 28 2f d3 3e a6 07 75 be
       -0.4860208 -0.3428753 0.41246915 -0.23928699
000170 83 ee 0e be f2 4b 8a bd 0c 3f bc be 78 c9 85 be
       -0.13958173 -0.06752767 -0.3676685 -0.2613027
000180 be 46 ad 3d 19 18 a8 be 26 a9 08 bc e6 dd f2 3d
       0.084607586 -0.32830885 -0.008341109 0.1185873

lstm.bias_ih_l0 f4 [20]
000000 3f eb 19 bf ef 31 95 bd 3b a4 05 3e 18 c4 8e 3e
       -0.6012458 -0.07284915 0.1305093 0.27883983
000010 3c 2d 9d be 77 b9 3d bd ef bf e3 be 69 6f 84 be
       -0.30698574 -0.04631945 -0.4448237 -0.2586625
000020 67 2c 54 be c9 e9 e7 be e4 e3 17 3e 6e 4e 9a be
       -0.20720063 -0.4529555 0.14833027 -0.30137962
000030 cf 89 12 be 3e 52 da bd 8c eb 0a be 9d 18 7e be
       -0.14310382 -0.10660218 -0.13566417 -0.24814077
000040 60 63 48 bf ba 2b ad bb 2f 1a 4b 3e fb f3 8d 3e
       -0.78276634 -0.0052847536 0.19834207 0.27725205

lstm.bias_hh_l0 f4 [20]
000000 0b c8 9c be 29 0e c0 be 2f 91 12 be 55 37 d7 3e
       -0.3062137 -0.37510803 -0.14313196 0.42034402
000010 13 cb 7f 3e b5 ef 02 bf 8c 0d d0 be 9a 14 0d bf
       0.2497981 -0.51147014 -0.40635335 -0.5510956
000020 25 c8 a9 be 4b dd a5 3d 0d b4 e2 3d d8 f3 aa 3e
       -0.3316051 0.08098849 0.11069498 0.33389163
000030 7d fa 75 3e 56 b4 ed 3c ad bf e9 3b 70 5b 86 3e
       0.24021335 0.029016655 0.0071334452 0.26241636
000040 ee 68 38 bd 7c 5a 94 bd 22 e8 91 be 9f a9 57 3e
       -0.045021944 -0.07243821 -0.28497416 0.21060799

regressor.0.weight f4 [126, 6]
000000 8e a8 03 3d bf ab bd 3e 9c 24 f4 bd 17 f6 81 3d
       0.03214317 0.37045094 -0.11921045 0.06345766
000010 b0 06 89 3e 22 24 9e bf 86 ba aa 3e 01 14 b0 be
       0.26762915 -1.2354777 0.3334543 -0.34390262
000020 ba 76 9f 3b 0d 1d 14 be 71 5c 67 be dc fc 65 bf
       0.004866448 -0.14464207 -0.22593857 -0.8983896
000030 6a 29 9b 3e 23 26 8c 3c c1 a6 38 be 75 99 c4 bd
       0.30305034 0.017108029 -0.18032362 -0.09599582
000040 a4 7b cf be 8e ef 5b bf bf c5 48 be 54 7d 8b be
       -0.40524018 -0.85912406 -0.19606684 -0.27244055
000050 49 d6 70 be b5 5b 70 3e e4 62 5d 3e 09 6e a0 3e
       -0.23519243 0.23472483 0.21619755 0.3133395
000060 92 a2 17 3e 51 9c 0b be ff a4 e9 bd bc 01 f7 3d
       0.1480811 -0.13633849 -0.11408424 0.12060878
000070 03 d3 ab 3e b8 53 e3 3d f1 cb 45 be 9c 83 44 be
       0.33559427 0.110999525 -0.19316079 -0.1919083
000080 f9 9f c5 be d9 a2 b4 3d aa 99 6a be 27 5c ba be
       -0.38598612 0.08820123 -0.2291018 -0.36398432
000090 f9 c5 ad 3e 8e 13 56 be 01 2f 7b bb 2d 9d a7 3d
       0.33940104 -0.20905897 -0.0038327577 0.08184276
0000a0 c1 5e f8 3c b4 cb ad bf 3b f5 a8 be d1 9b a6 3e
       0.03031862 -1.357779 -0.32999596 0.32540753
0000b0 f2 25 88 3d 25 69 ad 3e 66 25 0c be 8d 46 f6 3d
       0.066478625 0.3386928 -0.13686141 0.12025175
0000c0 c8 31 bf bd 5c ba 94 bc d1 9b 7e be 36 62 0d 3e
       -0.09335667 -0.01815527 -0.24864127 0.13806996
0000d0 07 2c 04 3e aa fa 09 bc 22 b9 de bd 31 26 85 be
       0.1290742 -0.008421579 -0.10875155 -0.260057
0000e0 0c 83 71 3e 76 33 9d be ff 1e 4b 3e bf b3 c5 be
       0.23585147 -0.30703324 0.19836043 -0.38613698
0000f0 a7 b1 49 be 2c 33 96 3d 35 28 59 be c8 a3 c0 3d
       -0.19696675 0.07333979 -0.21206744 0.09406239
000100 4c 31 a4 3d 8e 32 9b be 4c 35 8b 3d e0 0e 32 3e
       0.08017215 -0.30312008 0.06797275 0.17388487
000110 c5 79 25 3e 12 7e 52 bd c6 5a ab be 16 e3 80 bd
       0.16159733 -0.05138976 -0.33467692 -0.06293313
000120 81 90 02 3e a0 d0 13 be 04 ac 2c 3e a7 2b 88 3e
       0.12750436 -0.14435053 0.16862494 0.26595804
000130 24 90 4d be 3e 3e dd bb 7e 07 1e 3e 67 e9 1d 3d
       -0.20074517 -0.0067518046 0.15432546 0.038552668
000140 67 10 4b 3d 9b e9 5a 3d 75 0d a1 be e1 ed 6a bd
       0.04957619 0.05344544 -0.3145558 -0.057355765
000150 5e ef e3 3d ee e8 af 3e 4b 08 11 3d 9b 77 01 3e
       0.1112964 0.343574 0.0354083 0.12643282
000160 c2 52 a8 3e a7 56 81 bf 45 02 dd be ab 74 d5 be
       0.3287564 -1.0104569 -0.43165794 -0.41690573
000170 b4 e8 ac 3e a7 4a 5b 3e ee 26 5d be 67 bb 58 3e
       0.33771288 0.21415196 -0.21596882 0.21165238
000180 2c 95 9a 3e b9 5a cc 3e 23 e9 a2 3e fd 8e 9f 3e
       0.30191934 0.39912966 0.31818494 0.3116378
000190 17 1a 8f bd 9f bf cb be 43 9e ab 3e bd 43 6a 3e
       -0.06987398 -0.39794633 0.33519182 0.22877403
0001a0 4b 92 7b be 57 ea bb 3e 8e fb 49 3e 51 e4 63 3e
       -0.24567525 0.36702225 0.19724867 0.22255065
0001b0 dc 20 92 be a8 86 c2 3d e1 d6 1f be dc 2a 97 3e
       -0.28540695 0.0949834 -0.15609314 0.29524887
0001c0 a2 db 46 bd 7c 42 fa 3d c2 f9 45 3d 96 2d 2b 3e
       -0.048549302 0.12219712 0.04833389 0.16716608
0001d0 a0 38 41 be 7f 0d 4c 3e 7b 43 80 be 07 95 15 be
       -0.18869257 0.19927023 -0.25051484 -0.1460763
0001e0 33 be a9 be 4c 8e c6 be ee 9c a9 be 1d 70 ae 3e
       -0.33152923 -0.3878044 -0.3312754 0.3406991
0001f0 b3 14 73 3e 86 05 21 3f 03 b0 8f 3e 2a fb b2 be
       0.23738365 0.62899053 0.28063974 -0.34957248
000200 44 76 8c be b1 ee 22 bd 2a 6e 7e be a6 78 64 be
       -0.2743398 -0.039778415 -0.24846712 -0.22311649
000210 eb 05 9e be 23 f7 4b be 7a ef c9 be 0b 58 6d be
       -0.3086389 -0.19918494 -0.3944052 -0.23178117
000220 b4 ea ab 3e c9 23 ab 3e aa 86 81 3e 99 6f a8 3e
       0.33577502 0.3342574 0.25298053 0.32897642
000230 d2 ca bd 3e a5 33 b5 bd e3 27 3e 3e 4a 2c 1f 3f
       0.37068802 -0.08847741 0.18569903 0.62176955
000240 81 57 86 3d 99 56 d1 3e 95 f1 0a 3e f7 16 8a 3e
       0.06559659 0.4088638 0.13568719 0.26970646
000250 0d 48 ac bd 39 b5 9d bb 20 25 40 3d 63 ac c7 bd
       -0.0841218 -0.004812863 0.046910405 -0.09749677
000260 24 a8 6b be 9c 92 6a be dc d6 a0 be d5 52 8c 3e
       -0.2301336 -0.2290749 -0.31413925 0.27406946
000270 df 99 94 3e dd 50 3e bd e3 ea 71 be 1c 8e a1 3e
       0.29023644 -0.046463836 -0.23624758 0.31553733
000280 01 ab 85 3e ba 99 f8 3c cd ea 7c be ba 1b c5 3e
       0.26107028 0.03034674 -0.24698944 0.38497716
000290 4a 57 20 3e 9f da 93 be 76 bc ce 3e ed 1a 05 3f
       0.15658298 -0.28877732 0.4037816 0.5199421
0002a0 c1 5f 18 be b1 01 6b 3e 80 87 6d be 16 07 83 bd
       -0.14880277 0.22949864 -0.2319622 -0.06397836
0002b0 57 7b b1 3e bc 2f 8a 3c 30 d3 93 be 8e b9 0b be
       0.34664413 0.016868465 -0.2887206 -0.13645002
0002c0 09 f4 e2 bd 6b 4e a1 bd 76 07 20 3d 8f 4f c1 3e
       -0.11081702 -0.07876285 0.039069615 0.3775601
0002d0 0a 0f b3 3c 2a 0f 81 be cb 69 ab 3c a5 72 48 3e
       0.021857757 -0.25206882 0.02092447 0.19574983
0002e0 26 5e 4f 3e c7 08 bf be 9d c0 7a be 89 57 ba be
       0.20250759 -0.37311384 -0.24487539 -0.3639491
0002f0 23 71 9d be e9 53 b8 3d a4 e6 2c be a8 ae f2 3d
       -0.3075038 0.090003796 -0.16884857 0.11849719
000300 0d 6a b1 3e 0b 5a db 3c b4 4f 8b be 99 c7 15 be
       0.34651223 0.026776334 -0.27209246 -0.14626922
000310 97 92 b6 3d 94 57 9f be 31 85 26 3e c7 e6 b6 be
       0.089146785 -0.31121504 0.16261746 -0.35722944
000320 e6 72 c5 be 0b 6c c3 be ea 90 9b bd f5 2f 08 3f
       -0.38564223 -0.38168368 -0.075959995 0.53198177
000330 b2 75 e4 be d9 40 b5 3e 7f 4d 2d be 15 95 0e 3e
       -0.44621044 0.35401037 -0.16924094 0.13924058
000340 e5 dd 19 3d 52 3b f4 bd 71 23 ac 3e 8b 6c 57 3e
       0.03756513 -0.11925377 0.3362079 0.210375
000350 13 58 bd 3e 76 9f 4d 3e be f2 7e be 07 9d af 3d
       0.36981258 0.20080361 -0.24897286 0.085748725
000360 56 69 a3 3c 3b 78 73 3e 22 37 62 be b6 89 3a be
       0.019947689 0.23776333 -0.22091344 -0.18216595
000370 35 41 ce be 27 ba da bf 07 5f b4 3d f1 1d a4 be
       -0.40284124 -1.7088059 0.088071875 -0.32054093
000380 19 42 05 3e fb 68 60 3e 6f f3 68 3d 99 da 8b be
       0.13013496 0.21915047 0.05687278 -0.27315214
000390 4c 0f a2 be 67 f9 00 be 3c 81 37 3e ff 2d ce 3e
       -0.31652296 -0.1259514 0.17920393 0.40269467
0003a0 84 63 70 3e b4 4d 3c bd 41 3c 5e 3d af f6 a0 be
       0.23475462 -0.04597254 0.05425668 -0.31438205
0003b0 b5 20 8f be d7 ba 3a 3e 5e 81 84 be 29 3a ca 3e
       -0.2795464 0.18235336 -0.2587995 0.39497498
0003c0 60 8e 93 be 18 10 4f be 88 2b ac be 4f 27 5a 3e
       -0.2881956 -0.20220983 -0.33626962 0.21304058
0003d0 30 63 2a bd 4c dd a0 3e cd 5b 81 3e a3 52 67 3e
       -0.0415985 0.31418836 0.2526535 0.22590117
0003e0 78 15 57 3c 2e 40 01 be 01 cb b5 bd 01 3c 5e 3d
       0.013127677 -0.12622139 -0.088766105 0.054256443
0003f0 c2 3a 4f 3e 83 70 92 be b1 6d af 3e 1b d1 35 bd
       0.20237258 -0.28601465 0.34263375 -0.04438887

regressor.0.bias f4 [126]
000000 dc 08 c0 bb 4d b8 ff bd 53 2b 51 ba 15 c2 a0 bd
       -0.005860431 -0.124863245 -0.0007979173 -0.07849518
000010 2a 2a 0e bd 48 03 a3 be 5d a1 33 bd 9b 7f ad be
       -0.03470818 -0.3183844 -0.04385506 -0.33886418
000020 88 de b3 bd b5 e7 4d 3e 24 58 91 be 75 e4 8c be
       -0.08782679 0.2010792 -0.28387558 -0.2751805
000030 c4 77 e6 bd 2d b5 f4 bd 98 83 51 bc 21 f8 64 bc
       -0.11253312 -0.11948619 -0.012787722 -0.013975174
000040 26 2a 3b 3e f2 fd 8f be 5f b4 5f bd 34 18 3e 3e
       0.18277797 -0.28123432 -0.054615375 0.1856392
000050 97 09 a0 3e d9 9d 5b bd d8 e3 71 be 65 d6 bf 3d
       0.31257316 -0.053617332 -0.23622072 0.093670644
000060 d6 7b 12 3e 51 96 82 be e9 96 72 be 8e 57 12 3e
       0.14305052 -0.25505307 -0.2369038 0.14291212
000070 99 53 ea bc 0d 6c c5 be 0b 0a 71 be a6 0a a7 bc
       -0.028604316 -0.38559 -0.23538987 -0.02039082
000080 88 ca 0d be 6f ac 83 3e d5 6b 8e 3e d0 72 21 3d
       -0.13846791 0.25717494 0.27816644 0.039416134
000090 19 00 88 bc 01 b3 04 be 63 1c a9 bc 12 23 04 bc
       -0.016601609 -0.1295891 -0.020643419 -0.008065002
0000a0 9c a9 9f be 8f d2 c7 bd 9a dd ad be c9 3a 62 3e
       -0.3118409 -0.09756958 -0.3395813 0.22092737
0000b0 0f 1d 85 be 4a 0c d0 3c 52 87 d7 bd 05 7d 6f be
       -0.25998732 0.025396485 -0.10523857 -0.23387535
0000c0 98 cc 0f 3e 53 0e 02 3d 27 f0 81 3e 12 18 15 3e
       0.1404289 0.031751942 0.25378534 0.14559963
0000d0 38 5c c9 be 25 c2 b9 bc a3 72 9d bd ad c3 38 be
       -0.3932817 -0.022675583 -0.07687881 -0.18043394
0000e0 7c 00 30 3e f1 e3 86 3e 83 b7 b7 be 87 bc 22 bd
       0.17187685 0.2634578 -0.35882196 -0.039730575
0000f0 cf c9 9f 3e f8 bb 0b 3e fe 03 9f 3e 90 43 0f be
       0.31208655 0.13645923 0.31057733 -0.13990617
000100 af 9c 66 be f8 66 a7 3e b2 9d 18 3e 24 6a bd 3e
       -0.22520708 0.32695746 0.14903906 0.3699504
000110 d3 9d 2e be f2 34 86 be 6c 00 44 bd de cf c4 be
       -0.17052393 -0.2621227 -0.047851965 -0.3843984
000120 b2 9a d0 3b 2b a7 8a 3e 16 ef 84 3d 1a c6 77 bd
       0.0063660974 0.27080664 0.064909145 -0.06049166
000130 11 9a 2a 3e 7e ad 84 be c3 a6 b5 3e 40 d7 cf be
       0.16660334 -0.25913614 0.35478792 -0.4059391
000140 93 3b c8 be 35 a7 f6 bd a0 73 9b 3e 18 18 4a bd
       -0.39107952 -0.12043611 0.30361652 -0.049339384
000150 7c 39 00 3e 23 37 99 be 94 85 7b 3b a2 9d 9e bb
       0.12521929 -0.29924878 0.003837918 -0.0048405686
000160 5d 3f cb 3c da c8 75 3e 43 36 00 3e 6e 1c 67 bd
       0.024810487 0.240024 0.12520699 -0.056423597
000170 10 42 3a bc 5d 18 83 be 4d 35 17 be 86 40 66 3e
       -0.01136829 -0.25604525 -0.14766426 0.22485551
000180 97 a2 27 be ec 1a 35 3e c9 c4 25 be 98 b9 c2 bd
       -0.16370617 0.17686051 -0.16188349 -0.095080554
000190 5e ab 9a bc 35 d0 bf be bd f2 c3 bc bf d1 5f bd
       -0.018880542 -0.37463537 -0.023919458 -0.05464339
0001a0 80 a5 81 bd 6f 23 a7 bd a3 28 94 3e 8e 14 89 3e
       -0.06330395 -0.08161055 0.28937253 0.26773494
0001b0 bd aa 8d be 5a 72 2d 3e 40 f4 a3 be 23 f2 b1 be
       -0.27669325 0.16938153 -0.32022285 -0.34755048
0001c0 6d f7 b0 3d cb fa 2a bc 70 05 43 be 85 9a c9 be
       0.08640943 -0.01043577 -0.19045043 -0.39375702
0001d0 3f d7 21 be 8e ca ec 3d dd 78 c1 be 0b 0f cb be
       -0.15804766 0.11562072 -0.37787524 -0.39659914
0001e0 ac ad 23 bb c5 94 96 be fd 1e b7 be 45 11 21 be
       -0.0024975343 -0.29410377 -0.3576583 -0.15729244
0001f0 1d 7c c3 bd bf f0 bd be
       -0.09545157 -0.37097737

regressor.2.weight f4 [1, 126]
000000 bb 05 c5 3d f6 83 2e 3d 28 0c 70 bd 55 27 4d bc
       0.096202336 0.042606317 -0.058605343 -0.0125215845
000010 0c 9e 6b bd 78 f6 7c bd 79 6b 68 3c 1e 6e 8c bd
       -0.057523772 -0.06175849 0.01418578 -0.06856941
000020 61 44 8a bd 10 db 2e 3d c2 72 88 3c ee 28 a6 3d
       -0.067513235 0.042689383 0.016656283 0.081132755
000030 39 74 49 bc de 04 0a bd c7 b6 ee 3d 4e e2 13 bb
       -0.012295776 -0.033696048 0.11655956 -0.0022565308
000040 74 f9 6f 3d 31 bc b5 bd 49 54 3f bc 2a 59 f8 3c
       0.058587506 -0.08873785 -0.01167781 0.030315954
000050 74 ad 1f bd bc ef e1 ba 42 58 30 3d 6d e2 7d bd
       -0.038983777 -0.0017237584 0.04305292 -0.061983515
000060 86 7f 39 3c 27 40 8d bd d3 60 35 3d 59 00 1a bd
       0.011321908 -0.06897002 0.044281792 -0.037597988
000070 ba 57 60 3d a5 b6 ac bd 98 5c 99 bd d6 de ed ba
       0.054771163 -0.08433274 -0.07488364 -0.0018148075
000080 ce c4 8f 3d d8 17 86 bd 79 6a 0c bd bd 6a 70 3d
       0.070199594 -0.065475166 -0.034281228 0.058695544
000090 2e 79 93 ba 38 2c 17 3d 54 84 af bd e4 a9 8b 3b
       -0.0011251324 0.036907405 -0.085701615 0.004262196
0000a0 ee 4e 39 bd 1b d1 99 3d c7 72 17 3d 84 df 54 bd
       -0.04524129 0.07510587 0.036974695 -0.051970974
0000b0 ce 53 6b 3c 27 27 b2 3c 3c ed 15 bd e2 62 50 bd
       0.014363242 0.021747185 -0.036603197 -0.050875552
0000c0 df 9d c6 bc 5d ee b8 3c 0c 2b 62 bd 8a 09 70 bd
       -0.0242452 0.022574598 -0.055216834 -0.058602847
0000d0 5e 28 e1 bc a0 cf 9a 39 1f a9 c6 3c 12 33 2f 3b
       -0.027485069 0.00029527862 0.024250565 0.002673332
0000e0 ca fd 6c bc b3 30 3d bd 3f f3 82 bc 25 04 17 bd
       -0.014464805 -0.04618902 -0.01598513 -0.036869187
0000f0 95 67 83 3d 68 74 91 bd 45 70 43 bd 97 70 94 bd
       0.06416241 -0.07102281 -0.04771449 -0.07248037
000100 4c 60 85 bc b0 db 85 3d ab fa 86 3d af 86 96 bd
       -0.01628127 0.06536043 0.0659078 -0.073499076
000110 c2 f5 7c bb 32 2f 56 3d e8 d8 20 3d 1f 72 95 3d
       -0.0038598632 0.052291103 0.039269358 0.072971575
000120 af 4b 73 3d a3 a3 56 bd e9 fc 29 3d 36 d5 2d bc
       0.05939835 -0.05240215 0.04150096 -0.0106099155
000130 a5 47 1d 3d 85 d9 b3 bc 16 b8 00 3d c0 19 a4 3d
       0.038398404 -0.021954307 0.031425558 0.08012724
000140 07 a7 a9 3d b1 ed 61 bd a6 6b 59 bd a1 c0 6a 3c
       0.08283811 -0.05515832 -0.053081177 0.014328153
000150 a8 d6 3a bd a6 0f af 3d c2 43 14 3d df be ed bc
       -0.04561487 0.085479066 0.03619743 -0.029021678
000160 c7 5f 41 bc ff 2e fd bc e0 ca a6 3c 26 d5 5b bd
       -0.01180262 -0.030906199 0.02036041 -0.05367007
000170 3f f4 7a bd 3b da b3 bd 3a 19 1d 3d bd e8 12 3d
       -0.061268087 -0.087818585 0.038354136 0.035866488
000180 d7 a1 62 bd 6d f8 83 3c 9b ae 86 3d 0e 15 54 3c
       -0.055330124 0.01610967 0.06576272 0.012944473
000190 86 00 60 bb 81 ad d7 3b e7 21 7a 3c 3e ba 27 3d
       -0.003418 0.0065819626 0.015266872 0.0409491
0001a0 6f f0 97 bc c4 0a 39 3d 75 91 38 3d d9 10 41 bd
       -0.018547265 0.045176283 0.045060594 -0.047135208
0001b0 79 fb 94 3d 88 99 9a 3d b5 da 0f bd cc 69 cc bc
       0.07274527 0.07548815 -0.035120685 -0.024952792
0001c0 25 fb ed 3c 8d fe 14 bd 8a 4d 10 3d 21 44 aa 3c
       0.02905042 -0.03637557 0.035230197 0.02078444
0001d0 fc 01 66 3d 20 c3 8f bd b5 93 97 bd 35 e3 23 3d
       0.056154236 -0.07019639 -0.0740122 0.040011603
0001e0 4c aa c5 3c 91 d1 a9 bd 87 7d 4b bd 2a f0 a6 bd
       0.024129055 -0.08291925 -0.04968026 -0.081512764
0001f0 bf 77 fb bc a0 a4 24 bd
       -0.030696748 -0.04019606
