Definitive/NodeRegression/temp_state_dict32.pt (torch, 15769 bytes, 14 tensors)

lstm.weight_ih_l0 f4 [5, 4]
00000000: c666 d5be 277f e0be e669 243e 387b 9f3e
00000010: 7619 01be 7428 d73e 91c8 24be e5f6 cabe
00000020: f71a 613e 9e0c fa3d 27f2 123e 52e6 abbd
00000030: ff79 973e 64f3 063e ddd3 543d 3985 003e
00000040: 4193 ccbe adf1 dc3d ec55 1abe 5e1e c33e
-0.41679972 -0.4384701 0.16056022 0.31148696 -0.12607369 0.4202305 -0.16092135 -0.3964149
0.21982943 0.12209438 0.14350186 -0.083935395 0.29585263 0.13178784 0.05195986 0.1255082
-0.39956096 0.107882835 -0.15071839 0.38109106

lstm.weight_hh_l0 f4 [5, 5]
00000000: 8303 413d 17bf d0be e154 1cbe 9209 fa3d
00000010: c12f 203d 5793 3dbd 8099 8d3e 5c5b 763e
00000020: aafa 8dbe c879 89be 7f10 abbd 802e ef3d
00000030: 0aff a2be 0170 c9bd 559b 92be 5d35 c93e
00000040: 5a23 963e 305c 7f3e 7a57 ab3e d122 fd3d
00000050: d488 35be d126 81be 190d 80be 9702 85be
00000060: 64c4 5a3d
0.04712249 -0.4077079 -0.15266754 0.12208857 0.03910804 -0.046283092 0.27656174 0.24058288
-0.27730304 -0.26850724 -0.08352756 0.11678791 -0.31835204 -0.09835816 -0.28634134 0.39298525
0.29323846 0.2493751 0.33465177 0.12360156 -0.17727977 -0.25224927 -0.25009993 -0.25978538
0.05340995

lstm.bias_ih_l0 f4 [5]
00000000: 3b79 ca3e 300b a9be 102e 903e 316c b3bc
00000010: 9aec 903e
0.39545617 -0.33016348 0.28160143 -0.021902176 0.28305513

lstm.bias_hh_l0 f4 [5]
00000000: 5ece c7be b481 dfbe 841b 903e ce6b a0be
00000010: cc5e 033e
-0.39024633 -0.43653643 0.28145993 -0.31332248 0.12829131

regressor.0.weight f4 [32, 6]
00000000: 080c 293e c278 8cbd 75b5 f93d a1c5 443e
00000010: 63e9 a83e c0d3 733e eedf 273e c020 823e
00000020: 5cf4 37bd 6b63 fcbc b89c 2dbe 195d 95be
00000030: c175 37be 4a2c 87be 5fde 23be 566d 88bc
00000040: 9081 9a3e 3f73 2cbe 6b26 033e 9e2f b5be
00000050: 4834 49bd f07a 4c3e e18e 67bc 5be7 863d
00000060: 9fc5 c73e cba1 823e c143 bcbe ecd6 953e
00000070: 33fd b8be ed8a 42bd a6ec 1a3e e9d1 b4be
00000080: b59c 31bd 94cf c63d 7dc2 863e 1e47 35bd
00000090: 8454 3dbd cc98 ea3d 9d63 afbe bcc3 acbd
000000a0: 11fa 9dbe 0ce9 7b3e ff88 813e d7ba a1be
000000b0: 2572 a93e 7068 e33d 7d0d 933e 2b05 763e
000000c0: 93fc 25bd 1849 a33e 3315 d3bd 2426 963e
000000d0: a613 a4bc 189b 613d 8f4b 74bb 3737 723e
000000e0: e4af 44be 00bd 4f3e 24c1 b23d c20c 89bd
000000f0: ba00 12be d5be 9bbe ff15 a33d b70f 6ebd
00000100: a023 1ebe f4ac f3bd 99be 933d 0cb7 c2be
00000110: eb40 c4be 4a01 90be f21b 1ebe c0f9 983e
00000120: 1b36 be3e 0ae9 623e 3693 9bbe 6e82 94bc
00000130: 2a5a 8cbd 03c4 883e 8acc 473e 00f7 cc3e
00000140: 0eb8 25be 99ff 1c3e 2f7e a3be 0195 cb3d
00000150: 83c4 95bd 0694 2fbe 8929 933e cfd5 8d3e
00000160: a43f 9b3e 6d05 fa3d 6986 3d3e b238 643e
00000170: efbb 37be 17be 9bbd 541d 003e 70c5 493e
00000180: cae8 a2be b4c9 2cbe 2a64 03be 1477 4a3e
00000190: 6a97 febc 29dd 3abd c8f6 1d3d 5e1f 9fbe
000001a0: 4dab 6d3e b7e5 a5bd 93c9 913d da22 88be
000001b0: 3210 273d 6839 41be 89f1 ae3e 657a 013e
000001c0: 8c43 ad3e f21d a8be ff55 bc3e 2a8a ee3d
000001d0: 5074 9b3e 5d69 8cbe 4007 d9bd 7356 3ebe
000001e0: e0db 34be a2dc 5b3d 6752 d63d 0a87 bcbe
000001f0: af0b 903e 923d edbc a926 d9bd 3d1e 113e
00000200: e792 8fbe 2f1c c3be 854e 66be 74ff c2bd
00000210: 6bbc 57be f343 c8bd 902e aabe 5cc7 e23d
00000220: a467 f7ba 2243 c4be 07b8 41be 3cc8 c43e
00000230: 2970 4b3e e5fa 88ba 6310 923e 274c 7abe
00000240: ecdb 883d 4b5f a43e 61de 333e a1c8 963e
00000250: 7881 a5be 4c99 eebb 16af 9ebe a3db adbc
00000260: 3388 1cbe 1f7e 603e db77 bdbe 80df c73e
00000270: b1d6 7a3e d61a 8b3e b824 b33e 425e da3d
00000280: 9c8f 9abe 580e 43be ac7d c8be 5329 23be
00000290: c9c4 813e 6a11 a4be 1883 983e 8b15 bdbe
000002a0: 183e ab3e 402e 08be 0d9e eabd c4bb c73e
000002b0: df8e 37be 75f5 dc3c b579 37be 227a d63b
000002c0: 35a5 89be 59f6 583e 16e1 69be 6b35 043e
000002d0: cec0 053e 20af b23e 89e2 a43e 4255 a8be
000002e0: 331b 95be c03f 40be d329 6cbe b4e9 503d
000002f0: 5294 9cbe 0778 033e 43d4 dc3d 958e 5a3e
0.16508496 -0.0685897 0.12192813 0.19216014 0.3299056 0.23811245 0.16394016 0.2541561
-0.044910774 -0.030809125 -0.16954315 -0.2917259 -0.17916013 -0.26400977 -0.16002797 -0.016653698
0.30176973 -0.16840838 0.12807624 -0.35387892 -0.049122125 0.19968772 -0.014133186 0.06587096
0.3901796 0.25514063 -0.36770442 0.29265535 -0.36130676 -0.04749577 0.15129337 -0.353164
-0.043362338 0.09707561 0.26320258 -0.044257276 -0.04622318 0.11454925 -0.34255686 -0.08435771
-0.30854848 0.24600619 0.25299832 -0.3158786 0.33094898 0.11103904 0.28721228 0.24025409
-0.040524077 0.31891704 -0.10306778 0.29325974 -0.0200289 0.05507955 -0.0037276482 0.23653875
-0.19207722 0.20286942 0.08728245 -0.066918865 -0.1425809 -0.3041903 0.0796318 -0.058120456
-0.15443277 -0.118982226 0.07214088 -0.3803028 -0.38330778 -0.28125983 -0.15440348 0.29878044
0.37150654 0.2215921 -0.3038575 -0.0181286 -0.06853135 0.26712045 0.19511619 0.40032196
-0.16183493 0.15331878 -0.31932208 0.099405296 -0.07312872 -0.1714631 0.28742626 0.27702186
0.3032199 0.12208066 0.18508305 0.22287253 -0.17942785 -0.07604616 0.12511188 0.19704223
-0.3181823 -0.16873819 -0.12831178 0.19771987 -0.03107806 -0.04562107 0.038565427 -0.3107862
0.23209877 -0.08100455 0.07118525 -0.2658909 0.04078693 -0.18869555 0.34168652 0.12644346
0.33840597 -0.32835346 0.3678436 0.116474465 0.30362177 -0.27424136 -0.10597086 -0.18587665
-0.17662 0.05367721 0.10464936 -0.36821777 0.28133914 -0.028960023 -0.10603077 0.14171691
-0.28041765 -0.3810744 -0.2249089 -0.0952138 -0.2106797 -0.09778585 -0.3323865 0.11073181
-0.0018875492 -0.38332468 -0.18917857 0.38434017 0.19867004 -0.0010450749 0.28528127 -0.24443112
0.06682572 0.32103953 0.175653 0.29449943 -0.3232534 -0.007281458 -0.30992955 -0.021222895
-0.15286331 0.21923111 -0.37005505 0.39037704 0.24495961 0.27168912 0.34988952 0.106625095
-0.3018769 -0.1904844 -0.3915838 -0.15933733 0.25345448 -0.32044536 0.29787517 -0.36930498
0.3344581 -0.13298893 -0.11455927 0.3901044 -0.17925595 0.026972512 -0.17917521 0.006545321
-0.26883855 0.21187724 -0.2283977 0.12911002 0.1306183 0.34899235 0.32204083 -0.32877547
-0.29122314 -0.18774319 -0.2306283 0.051004127 -0.3058191 0.12838756 0.10782673 0.21343453

regressor.0.bias f4 [32]
00000000: 24fa 60bd 16ad b13e e3fb b7bd c4d5 ccbe
00000010: 06e6 b13e 0148 f73c fafc 83bd 6413 253e
00000020: c1b0 ad3e 77f8 f83d 6a14 c8bd b078 9ebe
00000030: 2048 d4bd 6dd2 c63e a3cd 0fbd bb0f b43e
00000040: 13ac 813d a435 663e a13e 723e 8de7 c5be
00000050: 4cea d63c 453e 6ebe 44a2 60be a97b a0bd
00000060: 9af0 313e 64fd 25bd a999 ce3e f67c 603d
00000070: 4b6e 683d d9f9 64be d118 85be 5e1f 453c
-0.054926053 0.34702367 -0.089835905 -0.4000684 0.34745806 0.030185701 -0.06444736 0.16120678
0.33923915 0.12156766 -0.09769519 -0.30951452 -0.10365319 0.38832417 -0.03510822 0.3516825
0.06331649 0.224814 0.23656704 -0.38653222 0.026234768 -0.23265941 -0.219369 -0.07836086
0.17376938 -0.040524855 0.40351608 0.054806672 0.05674581 -0.22360934 -0.25995496 0.012031404

regressor.2.weight f4 [32, 32]
00000000: ae47 ba3c e1a1 643c 4094 e7bd d889 e9bd
00000010: dc0e 723d 6f72 b2bd 3aed 953c a121 ba3d
00000020: 9492 983d 4ace 2a3e b53a 683a 0e51 17be
00000030: 0789 8abc 0b1c 023d 29b0 953d a250 243e
00000040: 7488 52bd 8651 053e 3416 2b3e e07f 0bbe
00000050: d092 4abd bbed 20be 2eb5 d1bc fdd4 f3bd
00000060: 9b1c a03d 275d 6dbd 63e2 06bd a0c3 873d
00000070: dca4 193d f8a3 16bd 524c fbbd 8df1 51bd
00000080: b736 913d 8df3 9cbd 87f9 1b3e 4d7d 1ebd
00000090: c1ed 00be c783 2a3d 28a2 e23c 8d32 5c3b
000000a0: 810a f93d b0a1 c9bd a5e1 a2bc 9f3f d4bd
000000b0: 34a5 e4bd 2ce4 d93d e19a 2bbe 838b 22bd
000000c0: a9ca 09bd 9dca 86bd a7e7 1abd 3303 12be
000000d0: 1858 843c 38e6 313e dfa9 093d 59a3 103e
000000e0: 7592 143e 301c bf3c 3fa2 07be 7a98 403d
000000f0: 7e68 12be 09c9 d1bd 1fea c5bd 5742 07be
00000100: 3852 94ba 6c1c c53c 0613 0c3e bd5b 103e
00000110: c7b6 febc eefa 0b3e 16ad cabd 52f6 8a3d
00000120: 31cc 843d cd5d f0bc e68c 01bd ea5d 3d3c
00000130: 6a77 84bd d2d5 abbd 0a4b 1dbe b423 1e3e
00000140: fd25 08be 7e13 19be 71bc 463d 4c5b 1dbd
00000150: 7df1 2abd 81f2 89bd 8caf 1dbe 5110 1fbe
00000160: 064f ac3d f155 fbbc 6074 7a3d abea 023e
00000170: 422d e53d 3f43 b0bd d553 ba3c 3feb 2a3e
00000180: 156b ecbd 645d 08be 8adb 22be 4ed5 17bc
00000190: df97 9abd d19e f3ba 09b2 18bd d8bd 053c
000001a0: e0d0 153d 5e9f dabc 2cce 223e 994f 02be
000001b0: c429 eb3d 0c6d fd3d 9b5e 27bd cb0b b23c
000001c0: 2f2a 35bd 3696 8ebd 14b3 c73d b535 263d
000001d0: f018 04bc e6f4 c43d 50ee 0e3e 8d92 fabd
000001e0: 5a70 093d 44fa 863d 24c0 d1bd e61a dcbd
000001f0: 3d80 1b3e 9ab8 1abe 0351 fe3d 165c 2d3e
00000200: 9bf3 813d 1226 093e 7f51 01be ed41 913d
00000210: 82d2 b3bc 436d 02be 5b48 1a3d e184 eebc
00000220: 0399 61bd f3ef cf3d 14a8 893b 59d2 203e
00000230: e9fb fa3d cbdb ed3c 1a6c 933d 79d3 1abe
00000240: 6141 ed3d 23ca febc 2500 253e f089 adbd
00000250: 1fa0 15be af79 32bd 250f f9bd 1771 bc3d
00000260: bbad 34bd 1d68 193d 1c87 40bd b029 003d
00000270: f531 cbbc 502b 673d 32d6 173e 6822 f63d
00000280: ab8a be3d c45b ab3d 016f 20be 4c2f 7f3d
00000290: 39d2 803d 3e5f fc3c 7c3f b7bd 10b5 63bd
000002a0: 0210 8f3d ef11 033e 61c9 18be 683e 8ebc
000002b0: 74d9 f3bd fc3d ac3d 62f2 91bd b228 fabd
000002c0: e638 d33d f69e 5c3d 1008 68bd dee9 a83d
000002d0: 947a be3d 3aec 16bc 8226 433c b357 cd3d
000002e0: 802d 2c3d 944b 0b3e 4457 aebd 24da 083e
000002f0: 9496 0abe 847f b63c 56fc 6a3d d77c d83d
00000300: e6bc 28be ad33 193d e5ac 0e3c 40d2 94bc
00000310: 751d 78bc 2dbd 2d3e 5739 b1bc cbe1 f7bc
00000320: 09a0 c0bd 0c7c de3d 6865 28bd b4eb 303e
00000330: 5908 f33d ca42 143e 7ba5 2dbe a1ef 09be
00000340: 8080 1ebe e941 a1bd da0e 1d3e a013 99bd
00000350: 3e17 cb3d cedc 483a 1fcf 3c3d 84ce 683d
00000360: de92 093b c67f d53d 6ef1 833c 9b56 7bbd
00000370: 1a2a 003e 5e0b 85bd 703c 04be 22f1 6e3d
00000380: b7f1 cb3d 9523 a1bd 2127 0e3e dd72 ebbd
00000390: b5c2 6a3d ff9b 3fbd a016 203e 57ff 313e
000003a0: b58c bf3c 6d76 d93c b7e1 ac3d cdfb a53d
000003b0: b7be de3d 228c 54bc 5a60 ff3c f6f5 0fbe
000003c0: 0e48 2fbe 078e 2b3e b69a 013d 735b 113e
000003d0: 69d4 fcbd dca4 a13c 22be 04be f58c 28bd
000003e0: 1854 dcbc e207 34be 1452 983d 0dab 18be
000003f0: 41cd 923d 1b0d 03be eb61 273e 67a6 80bd
0.022739258 0.013954611 -0.11307573 -0.11403245 0.059096202 -0.08713233 0.018301595 0.090884455
0.074498326 0.16680256 0.00088588457 -0.14777014 -0.016911043 0.031765025 0.073089905 0.16046384
-0.051399663 0.1301938 0.16707689 -0.13622999 -0.049456418 -0.15715687 -0.025599089 -0.11905859
0.07817956 -0.057950165 -0.032930743 0.066291094 0.037510738 -0.036777467 -0.12270416 -0.05125575
0.07090514 -0.07663641 0.15231906 -0.038693715 -0.12590696 0.04162958 0.027665213 0.0033599467
0.121602066 -0.098452926 -0.019882986 -0.10363697 -0.111643225 0.106392235 -0.167583 -0.03968383
-0.033640537 -0.06581614 -0.037818577 -0.14259033 0.016155288 0.17372978 0.033609267 0.14124812
0.14508994 0.02332887 -0.13245486 0.047020413 -0.14297673 -0.102434225 -0.09663796 -0.132089
-0.0011316007 0.024061404 0.13679132 0.14097495 -0.031093014 0.13669941 -0.09896295 0.06785263
0.06484259 -0.029341603 -0.03162851 0.011558035 -0.06468089 -0.08390392 -0.15360656 0.15443307
-0.13295741 -0.14948842 0.048519555 -0.038417146 -0.041734207 -0.06735707 -0.15398997 -0.15533568
0.0841351 -0.030680628 0.06114614 0.12784831 0.11190273 -0.08606576 0.022745052 0.16691302
-0.11543862 -0.13316876 -0.1590406 -0.009267164 -0.07548498 -0.001858676 -0.037279163 0.008162938
0.03657615 -0.02668732 0.15898961 -0.12725677 0.114825755 0.12374315 -0.040861707 0.021734139
-0.044229683 -0.06962244 0.09750953 0.040578563 -0.008062586 0.09617023 0.13958097 -0.122349836
0.033554412 0.06590703 -0.10241726 -0.10747318 0.15185638 -0.15109482 0.124177955 0.16929659
0.06345292 0.13393429 -0.12628745 0.070926525 -0.021950964 -0.12736993 0.03766666 -0.029116096
-0.055077564 0.101531886 0.0042009447 0.15705241 0.12255079 0.02903547 0.07198353 -0.15119733
0.11584736 -0.031102246 0.16113336 -0.08473575 -0.14611863 -0.043573078 -0.12161092 0.09201258
-0.044110995 0.037452806 -0.04700385 0.031289756 -0.024804095 0.05643779 0.14827803 0.12018281
0.093037926 0.08367112 -0.15667345 0.062300965 0.06290097 0.030807134 -0.089476556 -0.055592597
0.06985475 0.1279981 -0.1492057 -0.017363742 -0.1190671 0.0841026 -0.07126309 -0.12214793
0.10313587 0.053862534 -0.056648314 0.082477316 0.09300724 -0.009211594 0.011911036 0.10026493
0.04203558 0.1360305 -0.08512738 0.13364464 -0.13534003 0.022277601 0.057369553 0.10570686
-0.16478309 0.037402797 0.008708213 -0.018166661 -0.015143742 0.16966696 -0.021633787 -0.030259034
-0.09405524 0.10863504 -0.041112334 0.17277414 0.118668266 0.14478603 -0.16957657 -0.13470317
-0.15478706 -0.078738995 0.15337697 -0.07474446 0.099165425 0.0007662297 0.046095964 0.056837574
0.002099208 0.104247615 0.016106334 -0.06136189 0.1251606 -0.06496309 -0.1291368 0.05833543
0.09958213 -0.07868115 0.13882114 -0.11496518 0.057314593 -0.04677963 0.15633631 0.1738256
0.023382524 0.026545728 0.08441489 0.08104668 0.1087622 -0.012972863 0.031173874 -0.1405867
-0.1711733 0.16753398 0.031641684 0.14195041 -0.123452015 0.019731931 -0.12963155 -0.041150052
-0.026895568 -0.17581132 0.0743753 -0.14909 0.07168055 -0.12797968 0.16345946 -0.06281739

regressor.2.bias f4 [32]
00000000: cf7f 913d 1918 e53c dd3c 06be b8b7 da3c
00000010: 11d8 033e 788b 95bd a9ea 91bd 53e7 a0bd
00000020: 1a24 14be 95e5 edbd 807b 9ebd cd4e ac3d
00000030: 1694 273e dab7 8e3b f74e f63d 357e 8d3d
00000040: 7218 123e 4e14 9ebd 710b b83d fff0 073e
00000050: 3725 1abe f326 05be 5e3e 0ebe a028 093d
00000060: 33b8 a9bd 4d3a 48bd 70b8 1ebe 513b e83d
00000070: 16fa da3d 8e8d 233e fec3 d8bd 49da 85bd
0.07104456 0.027965592 -0.13109155 0.026698932 0.12875392 -0.07301992 -0.07124836 -0.078566216
-0.14466897 -0.11616055 -0.077383995 0.084134676 0.16365084 0.004355413 0.1202678 0.06908838
0.14267138 -0.077187166 0.08986557 0.13275526 -0.15053259 -0.13003139 -0.13890979 0.03348601
-0.08287086 -0.048883725 -0.15500045 0.11339439 0.10692231 0.15971968 -0.105842575 -0.06535775

regressor.4.weight f4 [1, 32]
00000000: a1a3 f8bd 682c 04bd 2047 dc3d cc0a 003e
00000010: e840 66bd df22 f4bd 375d 04be a437 aa3d
00000020: 3033 273e 8db1 f23d 3c99 543d 122f e7bd
00000030: 4290 89bd de17 4ebd 1c4f c3bd 53c7 c63d
00000040: 57f5 64bd 44a4 233e 131d 1f3e 3523 29be
00000050: 21fc 563d c9ab ce3d 6342 a93d b917 22be
00000060: a831 acbc 41e0 283e 9d0c 643d f62f bbbd
00000070: 46ec 4cbd fcf4 b6bb 8545 783d cd84 d73c
-0.12140585 -0.03226891 0.107557535 0.12504119 -0.056214243 -0.11920714 -0.12926184 0.08311394
0.1632812 0.118502714 0.05190395 -0.11288275 -0.06716968 -0.05031573 -0.09536573 0.09705987
-0.055898037 0.15980631 0.15538435 -0.16517337 0.052486543 0.10091359 0.082646154 -0.15829362
-0.021019772 0.16491796 0.05567609 -0.09140007 -0.050030015 -0.0055834036 0.060613174 0.026308442

fnn.0.weight f4 [32, 5]
00000000: b062 c43e 3db5 823e 978b 523e f371 2cbe
00000010: b65a a1be 5737 f2bd bbf1 3fbe 6f15 b03c
00000020: e7de 42be ec36 333e 91c5 db3d 479c 593e
00000030: b839 99be 23b0 77be a535 c7be 067f cebe
00000040: 290a 6fbe 61e5 babe 1cfa d6bc 397f b6be
00000050: c2ce 013d 4529 c6ba 4317 943e b543 a63d
00000060: 434f d63d 0982 8dbe ff75 eb3e 90eb cb3e
00000070: 62f5 e33c ae69 c73e fbb2 c03e dacd acbe
00000080: 6425 823e 9f03 db3e c8cb 173e 3bfe 813e
00000090: dc0f 843d bf84 403d 3c3e 8d3e cd14 c13e
000000a0: 584b 913e 4f6a 94be 9c62 9abd c742 df3d
000000b0: d9dc 943e 5651 2bbe 4fb9 a9be 550c 913e
000000c0: 716c b23d 5db5 d53e c564 993e d8e0 cb3e
000000d0: 905c c4bd 4b76 893e b1f2 7fbd 04f6 47be
000000e0: f5b6 843d 810b a3be c528 b1be 0433 7ebd
000000f0: 0301 6fbe 61be c53e 5fe4 a03d 248f 1c3e
00000100: e301 dabe 1df3 923e 7078 5e3e 538b 893e
00000110: 8a83 b3be e4d9 75be 663a 0e3d 4717 953d
00000120: 6cc7 71be e252 e9bd 4720 a5be 55d8 14be
00000130: 8f91 b23e 1762 d83e ebef 95bd 0682 803e
00000140: a32b d1bd 6b24 b2be e734 9cbe b7e1 cbbd
00000150: 4838 a4be a24e cabd ae26 a63d f6d6 0d3e
00000160: 1d79 c8bd 6e64 adbe 237d 643d b55b 8abe
00000170: 7e35 ae3e 91af ecbe 6e8e ddbe 8d81 28bd
00000180: 7b18 08be 159e 2d3e 7355 8bbe 7f77 bf3d
00000190: ca38 0c3e 2d77 df3e 9a3b bb3e 7629 9bbd
000001a0: 9f91 dabe 4281 3bbd 8397 013e a3f7 ed3d
000001b0: fc6a d03e 75c7 14be 6937 103e 7c3e 6e3e
000001c0: 71bc a7be e31f 86be 3d27 a6bd 9ceb 193d
000001d0: 1721 a9be 6f60 bebe 306e 6bbe 08ca e3be
000001e0: 40db c9bd 0814 0dbe 7762 c43e be17 65be
000001f0: 48d9 933e c024 45bd 336e a2bd 9585 8b3e
00000200: 4aad d23d c5c7 9bbd 9362 42bc 4ea7 2b3e
00000210: aa05 77be 927a e0be 91ce adbe 8fc6 cd3e
00000220: 8fb0 753e ff2e 3d3d 186e c9be 0663 9dbe
00000230: a909 6ebe 8cc2 8e3e 1c16 253e aa88 a63d
00000240: e65c d03e dc72 c0be dd07 a7be 0a6b 9abc
00000250: 52e0 823e 8f28 3abe 798f 663c 4ab4 a43e
00000260: a8ca 20bc cd4e 3c3e c970 b2be 2c18 ba3d
00000270: 74b7 8d3d bcaa 883e 2b44 c3be bed1 c1be
0.38356543 0.255289 0.20561062 -0.16840343 -0.3151452 -0.118269615 -0.18744557 0.021494595
-0.19030343 0.1750142 0.10731042 0.21251021 -0.29926848 -0.24188285 -0.38908115 -0.40331286
-0.2334372 -0.36503127 -0.026242308 -0.35643938 0.03169132 -0.00151185 0.28923997 0.08118383
0.10464337 -0.2763827 0.4598846 0.39828157 0.027826969 0.38947815 0.3763655 -0.33750802
0.25419152 0.427762 0.1482383 0.25389275 0.064483374 0.047001597 0.27586544 0.37711182
0.28377795 -0.28987357 -0.075383395 0.10901409 0.29074743 -0.16730246 -0.33149192 0.2832972
0.0871209 0.41739932 0.29959694 0.3981998 -0.095879674 0.26848063 -0.062487308 -0.19527441
0.06480209 -0.31844714 -0.34601417 -0.06206037 -0.2334023 0.3862181 0.07856058 0.15288979
-0.42579564 0.28701106 0.21725631 0.26864108 -0.35061294 -0.240089 0.03472366 0.072798304
-0.2361123 -0.11392762 -0.32251188 -0.14535649 0.34876677 0.42262337 -0.07321151 0.250992
-0.10213401 -0.3479341 -0.3050911 -0.09955161 -0.3207419 -0.09878279 0.08112846 0.13851532
-0.097887255 -0.33865684 0.055783402 -0.27023092 0.34025186 -0.46227697 -0.43272728 -0.041139174
-0.13290589 0.16954835 -0.2721363 0.09348964 0.13693538 0.4364561 0.3656891 -0.075762674
-0.42689225 -0.045777567 0.12655453 0.116194986 0.40706623 -0.14529212 0.14083637 0.23266023
-0.32760957 -0.26196203 -0.08112953 0.03757821 -0.33033058 -0.37182948 -0.22991252 -0.44490075
-0.09856272 -0.13777173 0.38356373 -0.22372338 0.2887671 -0.04813075 -0.07931175 0.27250353
0.102869585 -0.076064624 -0.011864322 0.1676304 -0.24123254 -0.43843514 -0.3394666 0.4019055
0.23993133 0.046187397 -0.39341807 -0.3073961 -0.23245873 0.27882802 0.16121715 0.08131535
0.40695876 -0.3758763 -0.32623187 -0.018849868 0.25561768 -0.18179534 0.0140722925 0.321688
-0.009813942 0.18389435 -0.34851673 0.09086642 0.069197565 0.2669276 -0.38137946 -0.37855333

fnn.0.bias f4 [32]
00000000: 0cd7 b1be cc06 7c3e f0e6 07be 726e cb3e
00000010: 7f66 803e 5340 303e c6b4 803e 7d32 0e3d
00000020: c7cf 9abe 3c2c bdbb 8b79 953e c07d 983e
00000030: 8a8c d4be ea8f 863e 3620 17be 3b2b a0be
00000040: f475 c83e 39c6 83be 836a 8f3e 55e6 be3e
00000050: 1648 70be 7d8c 0e3e 3077 3bbe cecc e8ba
00000060: 5e85 c2be d90c a5be 7d1b 7cbe c411 8ebd
00000070: 68a5 3a3e b8ee 03be 771b 3abe 9e74 a03e
-0.3473438 0.24611968 -0.1327169 0.397327 0.25078198 0.17212038 0.2513792 0.034716118
-0.30236647 -0.0057730954 0.29194292 0.2978344 -0.41513473 0.26281673 -0.14758381 -0.31282982
0.3915249 -0.2573717 0.2801095 0.37285104 -0.23464999 0.1392078 -0.18307185 -0.0017761232
-0.37992376 -0.32236364 -0.24619861 -0.06936982 0.1822716 -0.12884033 -0.1817454 0.31338972

fnn.2.weight f4 [32, 32]
00000000: 7c60 ad3d bf9e 123e 11bf 2ebe dfbe b6bd
00000010: 2dbe 1e3e 659c 2bbe f81a d83d 6804 68bd
00000020: 23b7 cf3d 496f dfbd 6ab7 2dbe 6efd 11bc
00000030: d2bf 8ebd 434d b53d 5787 753c cc9f ff3d
00000040: c8f2 043e 73bd 3b3d 9883 9f3d 05f3 42be
00000050: 07d8 893a fc9d fd3d fe4d e13d c930 f33d
00000060: 53e8 ad3b d338 cd3d bcb7 42bd db09 80bd
00000070: a652 913c 7840 bc3c 89ad ea3d 3663 293d
00000080: 5bf5 34be 6cb0 393d 1478 c33d f8b6 1d3e
00000090: 05dc 21be 1119 92bd f854 c53d 89d5 b7bc
000000a0: daf6 b43c 4fb6 d7bd 1785 9abd b058 0dbe
000000b0: 706c 18be 5060 2ebe 81f4 ee3d 715d 843b
000000c0: 458b 99bd a539 f5bb 90f8 32bd a5c6 503d
000000d0: 63fb 443d c60f e2bd d84d 27be a655 b73d
000000e0: 0b95 e8bd 02f0 263d b7a7 9abd 314c 52bd
000000f0: 0d82 8f3d 8a44 92bd 7895 1bbe f8c3 6539
00000100: fb0b d03d 5d1a c23d 3269 26be 0a52 24bd
00000110: 24c4 843d af43 12be 1987 a1bd 5898 173e
00000120: cb22 1cbe bf0b 833d 4294 ec3d d6a2 203c
00000130: 5809 be3c 6384 5b3d ca47 8e3d e041 f23c
00000140: f550 44bd 768b e6bd efd7 093d f9d4 46be
00000150: 6071 05bd 78a8 16be 372a 083e 40f7 31be
00000160: 1507 91bd a16c 133e 090c 08be 9d54 00be
00000170: af62 0ebe c2a6 113d 0a74 153e afdc 9c3d
00000180: 3380 38bc ac32 01be 0e19 d1bd 5e93 e0bd
00000190: d08b fb3d 82c5 933d 7756 613d a6b6 bebd
000001a0: 7a66 3e3d f167 213e f1f9 34be 00c5 99bc
000001b0: 70e2 0a3e e7a6 5ebd 8b9d 65bd 6e61 01be
000001c0: d09a 173e 8963 1e3d cdaf 87bc 9bdd 5bbd
000001d0: bbc4 d33d 8ec2 9b3d 0598 69bd 6015 9e3d
000001e0: ef79 03be 6fe9 f2bd d9aa 9dbc f0ef 553d
000001f0: bad1 333e 63b2 ad3c 3c73 0b3e e5ab 163e
00000200: 6f93 fa3d db47 903c dca4 a13d 2e78 0fbe
00000210: 0cb3 90bd b23b 953d a52c 2cbe 24ce 173e
00000220: a14e 16be 5a01 1e3e 39d5 d33d 4485 17be
00000230: 02ac 0ebd 6727 023c 56db 67bd 2741 20be
00000240: 9a31 6d3d 7d36 28be 9f69 17be 2d54 a7bc
00000250: af36 473d 58dc a63d f350 eebd fcc5 4fbc
00000260: 29cd 273e e038 d5bd 5ba6 7f3d 83e7 70bd
00000270: 022c 693c ac31 18bc 3550 103b 635e 10be
00000280: 59a3 5a3c 017c 34be 2781 013e 1fe9 02be
00000290: 034e 033e 080e 19be 3bec 983d 5e3d 913d
000002a0: 764c 3ebd 7859 0abc 6a52 063e fb70 38be
000002b0: f05a 17be 41f7 a8bc d6c1 78bd f80a 333d
000002c0: 907f 533d 9322 b63c 348e f9bd c938 b63b
000002d0: 5d31 2dbe 3217 36bd 829d bbbd cedd f9bc
000002e0: b134 c13d 566c 28be add6 e53d f7c2 10be
000002f0: 6534 01be 31d8 23be 172f 13bd 961d f13b
00000300: c2e9 2abc c037 1d3e d660 8e3c b62c b23b
00000310: 8c93 ff3d d4d9 0bbe 3ac1 05be 3401 993d
00000320: a5fb 86bd 1247 01be 14c2 273e 4123 853d
00000330: 9bd8 2dbe 851c b9bd 0119 5d3d 177b 023e
00000340: c435 d1bd 1ba4 503c 5ded a03c 7cee 253d
00000350: d2e1 753d aadc 1e3e 1076 98bd 83e1 9a3c
00000360: 6128 103e eec1 27bd 690b c4bd ad10 223c
00000370: c389 8dbc 1847 923d f730 b33d 2a39 e03d
00000380: 2a5a f13b 25ef f73d 3f24 0dbe e44b 323d
00000390: 52da 223d 993d fcbc 9614 0b3e 7587 2ebe
000003a0: 19b2 c2bd 666d 173e b353 37be 36b9 803c
000003b0: 82d3 cb3d 4d0d 183d 0e90 e73d 717f 65bd
000003c0: b9ec 1cbe 66a1 a63d 8b21 7b3d 27f4 a0bd
000003d0: 5daf 2d3e 5c48 033e 5154 f1bd 851c 0e3d
000003e0: 1342 86bc 7866 f53d cd50 e73d f589 10be
000003f0: 3340 7d3c eec2 263e 3a8e db3d 553f 81bd
0.084656686 0.1431837 -0.17065074 -0.089231245 0.15502234 -0.16758879 0.10552019 -0.056644827
0.101423524 -0.10909898 -0.16964498 -0.00891052 -0.069701806 0.08852627 0.014985881 0.12481651
0.12983239 0.04583497 0.077887714 -0.19038017 0.0010516652 0.12383649 0.11001204 0.118745394
0.005307236 0.10020604 -0.047538504 -0.0625188 0.017739605 0.02297996 0.114588805 0.04135438
-0.1767172 0.045334265 0.095443875 0.15401828 -0.15806587 -0.07133687 0.09635347 -0.022440689
0.022090364 -0.105328195 -0.07544916 -0.13803363 -0.14885116 -0.17028928 0.11667729 0.0040394594
-0.07497267 -0.0074836784 -0.04369408 0.050970692 0.048091304 -0.11038165 -0.16338289 0.08951883
-0.11356553 0.040756233 -0.0755152 -0.051342193 0.07007227 -0.07141979 -0.15193737 0.00021912146
0.10158535 0.09477685 -0.16251066 -0.0401173 0.06482723 -0.14283632 -0.07887096 0.14804208
-0.15247647 0.06398725 0.115517154 0.009804448 0.023197815 0.05359305 0.069472864 0.029572427
-0.04792877 -0.11257069 0.033653196 -0.1941718 -0.032578826 -0.14712703 0.13297354 -0.17379475
-0.07081429 0.14396907 -0.13285841 -0.12532277 -0.13904832 0.035559423 0.14595047 0.076592796
-0.011261034 -0.12616986 -0.10209857 -0.10965608 0.122825265 0.07215406 0.0550141 -0.09312181
0.046484448 0.15762307 -0.1767347 -0.018770695 0.13562942 -0.05435839 -0.056058448 -0.12634823
0.1480515 0.038669143 -0.01656332 -0.053678136 0.10340258 0.07605468 -0.057029743 0.07718921
-0.12839483 -0.1186093 -0.019246506 0.052230775 0.17560473 0.021203225 0.13618177 0.1471401
0.12235152 0.017612388 0.078927726 -0.14010689 -0.070654005 0.072867766 -0.16813906 0.1482473
-0.14678432 0.15430203 0.10343403 -0.1479693 -0.03483201 0.007943965 -0.05660566 -0.15649854
0.05790863 -0.16427036 -0.14786385 -0.02042588 0.048636135 0.08147496 -0.116365336 -0.0126814805
0.16386856 -0.10411239 0.06241451 -0.058814537 0.014231684 -0.009289186 0.0022020463 -0.14098506
0.013344609 -0.17625429 0.12646924 -0.12784241 0.12822728 -0.14946759 0.074669324 0.07091783
-0.046459638 -0.008444183 0.13117376 -0.18011849 -0.14780784 -0.020625712 -0.06073173 0.043711632
0.051635325 0.022233283 -0.12185326 0.0055609685 -0.16913362 -0.044455715 -0.091609016 -0.030501273
0.09433878 -0.16447577 0.11222587 -0.14136873 -0.12617643 -0.16000439 -0.03593358 0.0073582632
-0.010431709 0.15353298 0.01738016 0.005437459 0.12479314 -0.13657314 -0.13061991 0.074709326
-0.06590966 -0.12624767 0.16382629 0.06500865 -0.1697716 -0.09038643 0.053978924 0.12742268
-0.10215333 0.012734438 0.019644434 0.04051064 0.060029812 0.15513864 -0.07444394 0.01890636
0.14077903 -0.04095643 -0.09572489 0.009891671 -0.017277604 0.07142466 0.08749574 0.10948403
0.0073654847 0.1210616 -0.13783358 0.043529406 0.039758988 -0.03079109 0.13582072 -0.1704386
-0.09506626 0.14787826 -0.17903022 0.015713315 0.09952451 0.03712206 0.11306773 -0.05602974
-0.15324678 0.08136253 0.061311286 -0.07859068 0.16961427 0.12820572 -0.1178366 0.034695167
-0.016388929 0.11982435 0.112947084 -0.14115126 0.015457201 0.16285297 0.10720487 -0.06310908

fnn.2.bias f4 [32]
00000000: 825f 2fbe 1b74 ffbd 9688 bebd c883 2d3e
00000010: e2a2 e4bd f538 3d3c 54bf ec3d 443f 183e
00000020: f785 873d feff d1bb 104f 0d3d 0e7f 823d
00000030: 9351 1abe 5829 ca3d 0910 8bbd e47e 143e
00000040: 417c cebc 1504 87bd 680b 2d3a 0c0f 9e3d
00000050: adf4 4bbc 8b2b 88bc f869 8e3c 2467 9b3d
00000060: 21e6 10be ecfe ec3d 1741 a43c dc70 9e3d
00000070: 4417 833d a190 8e3c f98d eebd 28f1 db3d
-0.17126277 -0.12473317 -0.093033955 0.16944802 -0.1116388 0.011549224 0.115599304 0.14867884
0.06617349 -0.0064086905 0.034499228 0.0637189 -0.1507018 0.09871167 -0.06790168 0.1450153
-0.025205733 -0.065925755 0.0006601126 0.07717714 -0.012448472 -0.016622325 0.017384514 0.07588032
-0.14150287 0.1157206 0.020050569 0.0773637 0.06400922 0.017402949 -0.11648173 0.10739356

fnn.4.weight f4 [1, 32]
00000000: e200 8c3d 2530 a13d bb62 383d b43b a2bc
00000010: 4417 273e 2dca 0cbb aad3 54bd 0dfd 013e
00000020: a2bb e23d 5ed8 2f3c 5c3c 863d 4ff6 073d
00000030: a43f 143e 9e9f 8dbc 21be 15be ccc2 d3bd
00000040: 16f0 ce3d 2b86 3a3d 7cfb 133e 1faa 93bd
00000050: 7148 e6bd 5345 fcbd ff6b 67bd 70dc 0e3d
00000060: 862d e8bd 5ce6 e23d 321f 0f3e b954 143e
00000070: b6ec 2ebe 2d6e e3bd 60a4 f5bd b5b4 d13d
0.06836106 0.07870511 0.04501603 -0.01980386 0.16317469 -0.002148281 -0.05195967 0.12694187
0.11070944 0.010732738 0.065544814 0.033193883 0.14477402 -0.017288025 -0.1462331 -0.10339889
0.101043865 0.04553811 0.14451402 -0.072101824 -0.11244286 -0.1231791 -0.056499477 0.034878194
-0.11336808 0.11079094 0.13976744 0.14485444 -0.17082486 -0.11104999 -0.11994243 0.10239545
